a_t/u_t_discrete/a_t_model/epoch_2_ut_train.pth (torch_old, 167653 bytes, 7 tensors)

fc1.weight f4 [64, 128]
0	0x3d4fa4c6	0.05069425
1	0xbd8de275	-0.06927959
2	0x3d4171a8	0.04722753
3	0xbca8610a	-0.020554084
4	0x3c9b8041	0.018982055
5	0x3ddce744	0.10786298
6	0x3d966295	0.07343022
7	0x3e59113e	0.21197984
8	0x3e167bf3	0.1469572
9	0xbcd6c068	-0.026214793
10	0x3db6f9a6	0.089343354
11	0x3b06687e	0.002050906
12	0xbd9675ab	-0.07346662
13	0x3d51d107	0.051224735
14	0xbca716c0	-0.02039659
15	0xbda83e6b	-0.0821503
16	0xbbdee4cb	-0.0068021766
17	0x3d57dc71	0.052700464
18	0x3d4451d4	0.0479296
19	0x3d90cdac	0.07070479
20	0x3d55299d	0.05204164
21	0xb978b71e	-0.0002371934
22	0xbd0944d7	-0.033512916
23	0xbd155ec5	-0.036467332
24	0xbda54b18	-0.080709636
25	0xbd23b409	-0.039966617
26	0x3dbebd26	0.09313421
27	0x3d27aaf8	0.040934533
28	0xbe3bbfbd	-0.18334861
29	0x3e1f3792	0.15548542
30	0x3c494fed	0.012287122
31	0x3e101993	0.14072256
32	0xbaafbf2b	-0.0013408413
33	0x3d8d642d	0.06903873
34	0x3e5d702f	0.21624826
35	0xbdaa3589	-0.08310992
36	0xbcfdc409	-0.030977266
37	0xbe0f19da	-0.13974705
38	0xba98bae9	-0.0011652383
39	0x3d3beb71	0.04587883
40	0x3d03cf8f	0.032180365
41	0xbde27a92	-0.11058535
42	0xbd8ebfce	-0.069701776
43	0x3dc6de1b	0.09710332
44	0xbd341a75	-0.043970544
45	0xbdbf51ab	-0.09341749
46	0xbcd56177	-0.026047451
47	0x3c64478f	0.0139330765
48	0xbd12205d	-0.035675395
49	0xbd9aaefa	-0.075529054
50	0xbc996109	-0.018723028
51	0xbdeab81a	-0.11460896
52	0xbd8543ae	-0.065070495
53	0xba94a2ba	-0.001134
54	0x3dd10d53	0.102076195
55	0xbd8354a0	-0.06412625
56	0xbcd56b68	-0.026052192
57	0x3dd8a048	0.10577446
58	0x3a230674	0.0006218918
59	0x3e0a03a7	0.13477956
60	0xbdc5cfc3	-0.09658768
61	0xbc5f2b4d	-0.013621164
62	0x3d3ed4d6	0.046589695
63	0xbbadac74	-0.005300099
64	0xbe47ea3d	-0.19522949
65	0x3caf903a	0.021431077
66	0x3ba273c9	0.0049576503
67	0xbcf9c5a0	-0.030489743
68	0xbe8814b5	-0.26578298
69	0xbdfbaab8	-0.122884214
70	0x3da89333	0.08231201
71	0x3b85a406	0.004078391
72	0x3d6597b8	0.056052893
73	0xbe3b91a7	-0.1831728
74	0x3debe2e9	0.11517889
75	0x3b8ef294	0.0043624137
76	0xbc407a85	-0.011747961
77	0xbd85d6e2	-0.06535126
78	0x3cf5e6e7	0.03001733
79	0x3e292b6a	0.16520467
80	0xbe65e5b4	-0.22450906
81	0x3d29a540	0.04141736
82	0xbdda88bc	-0.10670611
83	0xbd9765d9	-0.07392473
84	0xbe89cca5	-0.26913944
85	0xbe0edd66	-0.13951644
86	0xbdc29c8e	-0.09502517
87	0xbdd24e01	-0.10268784
88	0xbe6b46aa	-0.22976175
89	0xbe1255e8	-0.14290583
90	0x3de6bc82	0.11266424
91	0xbcbac6b2	-0.022799823
92	0x3d387b3c	0.0450394
93	0xbd138652	-0.03601677
94	0xbe373664	-0.17891842
95	0xbd23753c	-0.039906725
96	0x3dc586b9	0.09644837
97	0xbe4b4800	-0.19851685
98	0xbc99ae5d	-0.0187599
99	0xbdca7211	-0.09885038
100	0xbd958418	-0.073005855
101	0x3e6085ff	0.21926115
102	0x3de66ea0	0.11251569
103	0x3ac40b6c	0.0014957017
104	0xbe2a6a2b	-0.16642062
105	0x3de433dd	0.11142705
106	0xbdb68a0f	-0.08913051
107	0x3e220d55	0.15825398
108	0xbe348416	-0.17628512
109	0xbdfe4c50	-0.12416899
110	0x3e1580b3	0.14599876
111	0x3e2c7541	0.16841604
112	0xbe6478d1	-0.22311713
113	0x3d64f9fa	0.05590246
114	0xbbb66e35	-0.005567337
115	0x3cfc0717	0.0307651
116	0x3e6dbd66	0.23216781
117	0x3db4adcd	0.08822212
118	0xbe6002a3	-0.21876006
119	0xbe01b88b	-0.12668054
120	0x3d940b58	0.07228726
121	0xbda53d0c	-0.080682844
122	0x3e877b00	0.2646103
123	0xbdce6dcd	-0.100795366
124	0x3e56bb99	0.2097
125	0xbe22024d	-0.1582119
126	0xbc06235f	-0.008187144
127	0x3e7024ef	0.23451589
128	0xbd2d862a	-0.042364277
129	0xbd0d32d0	-0.034472287
130	0xbd5c2793	-0.05374868
131	0x3db741b6	0.0894808
132	0x3dcdece7	0.10054951
133	0x3d662a42	0.056192644
134	0x3d6f4fb2	0.058425613
135	0x3c6754f5	0.014119376
136	0x3d768c28	0.060192257
137	0xbd720375	-0.059085328
138	0xbe87372c	-0.2640928
139	0x3d567f04	0.052367225
140	0xbc8f079a	-0.01745968
141	0x3e56f173	0.20990543
142	0xbc8516f5	-0.016246298
143	0x3dc78bc6	0.097434565
144	0x3c777cb9	0.01510542
145	0xbdb14956	-0.08656566
146	0x3cd05f29	0.025436
147	0xbca5bb9d	-0.020231063
148	0x3df07cc6	0.11742549
149	0xbe4d687b	-0.20059387
150	0xbd45b150	-0.0482648
151	0x3d63d523	0.055623185
152	0x3d3cce5c	0.046095237
153	0x3d83c2f6	0.0643367
154	0xbd796c21	-0.060894135
155	0x3d1cc683	0.038275253
156	0x3db811b7	0.08987754
157	0x3e0adc90	0.135607
158	0x3d9e09c7	0.07716709
159	0xbcd2a6c6	-0.02571429
160	0x3d530130	0.051514804
161	0x3e45af53	0.19305162
162	0xbdc79ea1	-0.09747053
163	0x3d0568f0	0.03257078
164	0xbcff269d	-0.031146342
165	0x3e010646	0.1260005
166	0x3c4dea82	0.012568118
167	0x3df73025	0.1206973
168	0x3e159ddf	0.14611004
169	0x3e5060b4	0.2034939
170	0x3de2752a	0.110575035
171	0x3de380ff	0.111085884
172	0x3da68584	0.08130935
173	0xbd52dee2	-0.05148209
174	0x3d3ba632	0.045812793
175	0xbde28832	-0.110611334
176	0x3d80f9a4	0.06297615
177	0xbe298874	-0.16555959
178	0x3d9ce524	0.076608926
179	0x3d58b7e4	0.052909747
180	0x3d003044	0.03129603
181	0x3cbb9189	0.022896545
182	0xbdd631ef	-0.10458743
183	0x3ce587ae	0.028018799
184	0xbccb5402	-0.024820331
185	0x3d0b16d6	0.033957325
186	0xbe006e97	-0.12542187
187	0xbd0b00f8	-0.03393647
188	0xbd8112bb	-0.06302401
189	0x3cc12b85	0.023580322
190	0xbde0e1d4	-0.10980573
191	0x3d85fbef	0.06542193
192	0xbe1c790b	-0.15280549
193	0x3d051f14	0.03250034
194	0x3e27c961	0.16385414
195	0xbddd2ec2	-0.10799934
196	0x3dd407bb	0.10353037
197	0xbd4f1ea3	-0.050566327
198	0xbc83054f	-0.015993742
199	0x3d0f027d	0.034914482
200	0xbd1f2220	-0.038850904
201	0x3c38f847	0.011289663
202	0x3de734d8	0.11289376
203	0xbd19019f	-0.03735506
204	0xbb0b560a	-0.0021261
205	0xbd150354	-0.036380127
206	0xbdf83c06	-0.121208236
207	0x3cd7caee	0.026341882
208	0x3c618f46	0.013767069
209	0xbd380c93	-0.044933867
210	0x3b592118	0.0033131298
211	0xbd0d472e	-0.03449171
212	0x3d3bf5ef	0.045888837
213	0xbe11e0cc	-0.1424591
214	0xba83b357	-0.0010047954
215	0xbdbea350	-0.09308493
216	0x3ca5f071	0.020256253
217	0x3d2caba9	0.042155895
218	0xbddcb0e1	-0.107759245
219	0xbd10947f	-0.035297867
220	0x3d268a20	0.04065907
221	0x3c80ef90	0.015739232
222	0x3d3b9609	0.04579738
223	0x3d1e10e6	0.038590334
224	0x3c9166d5	0.01774923
225	0xbdb173a8	-0.08664638
226	0x3d8f6b5c	0.07002899
227	0xbd8c9eb5	-0.068662085
228	0x3d0505ec	0.03247635
229	0xbb8d0dbb	-0.0043046153
230	0x3e05c8d2	0.13064888
231	0xbda8c3fd	-0.08240507
232	0xbdf09441	-0.11747027
233	0xbb884ffe	-0.0041599264
234	0xbd516f02	-0.051131256
235	0xbd87bb0a	-0.06627472
236	0xbb89c5dd	-0.0042044953
237	0xbddadd93	-0.10686793
238	0xbd7f822a	-0.062379993
239	0x3be007da	0.0068368735
240	0xbd769957	-0.06020483
241	0x3d75f059	0.060043667
242	0x3badfa3d	0.0053093717
243	0xbc8cdb3e	-0.017194387
244	0x3c1a1826	0.0094051715
245	0xbddb68f7	-0.1071338
246	0x3df7c4cb	0.12098082
247	0xbaf7ff35	-0.0018920662
248	0xbbf1f805	-0.0073843026
249	0xbc5dfe51	-0.013549403
250	0xbc447aee	-0.011992199
251	0x3d541252	0.051775284
252	0x3da1a8bf	0.07893514
253	0xbe0d0e2e	-0.1377494
254	0x3a0bd4e1	0.00053341506
255	0xbbffb767	-0.0078038457

fc1.bias f4 [64]
0	0x3d3a68b8	0.045510024
1	0x3dbb168f	0.09135162
2	0xbcff2785	-0.031146774
3	0x3dab5320	0.08365464
4	0xbce0b6cc	-0.027430914
5	0xbd5ea357	-0.05435499
6	0x3c181478	0.009282224
7	0xbd68985c	-0.056785926
8	0x3d6dc635	0.058050353
9	0xbce06657	-0.02739255
10	0xbd411212	-0.047136374
11	0x3c714b1b	0.014727379
12	0x3d5ad67d	0.05342721
13	0x3ddf481a	0.10902424
14	0x3ddcb330	0.10776365
15	0x3e41392c	0.18869466
16	0x3d0af54c	0.03392534
17	0x3da97001	0.08273316
18	0xbc1a45a8	-0.009416021
19	0x3deae8ec	0.114702076
20	0x3dc084b6	0.094003126
21	0xbdbe0dea	-0.09279998
22	0xbde65bfa	-0.11248012
23	0x3dd4e951	0.10396064
24	0x3d2237ba	0.039603926
25	0xbd55d1fa	-0.052202202
26	0x3d4246b8	0.047430724
27	0x3b85272e	0.0040635085
28	0x3d4a546a	0.04939691
29	0x3d628612	0.05530364
30	0xbd5fd333	-0.054644775
31	0xbd319619	-0.043356035
32	0xbdca545a	-0.0987937
33	0x3cbd39fb	0.023098936
34	0xbd6139e5	-0.054986853
35	0xbd6eb724	-0.058280125
36	0x3c87247f	0.016496895
37	0x3db9cd52	0.09072365
38	0x3d35eb13	0.044413637
39	0xbd85730a	-0.065160826
40	0x3d2ee73d	0.042700995
41	0x3d56f238	0.05247709
42	0xbe0c81cc	-0.13721389
43	0x3d2f84a3	0.0428511
44	0x3d695167	0.056962397
45	0x3cd8b4fe	0.026453491
46	0x3d2efbdc	0.04272066
47	0x3d94f11e	0.07272552
48	0x3dfa046f	0.12207877
49	0x3d22a7da	0.039710857
50	0x3d57219d	0.05252229
51	0xbc93764e	-0.018000748
52	0x3d15e974	0.03659959
53	0x3dba8656	0.09107654
54	0x3caa8f12	0.020820174
55	0xbd090b1b	-0.033457857
56	0x3c99740c	0.018732093
57	0xbce4a997	-0.027912898
58	0x3dc3913d	0.095491864
59	0xbd31b951	-0.043389622
60	0x3cef907b	0.029243698
61	0x3e257c7d	0.1616077
62	0x3c186076	0.009300342
63	0xbd288d87	-0.041150596

lstm.weight_ih_l0 f4 [256, 64]
0	0xbd8424e4	-0.06452349
1	0x3e2b62b8	0.16736877
2	0x3e0fc307	0.14039241
3	0x3daedb2f	0.085379
4	0xbdd22bd4	-0.10262266
5	0x3bbf3186	0.005834761
6	0x3c11d4eb	0.008900861
7	0x3a57f78b	0.0008238486
8	0xbdb1db32	-0.08684386
9	0x3e1f6a3c	0.15567869
10	0x3dc6697b	0.096880876
11	0x3d83abce	0.064292535
12	0x3df8a5da	0.12141009
13	0x3d4c1b56	0.049830757
14	0x3d4bf516	0.04979428
15	0x3e4569bb	0.19278614
16	0xbdb08d4f	-0.086207025
17	0xbd3d1cb7	-0.046169963
18	0x3d86bf37	0.0657944
19	0xbdef2df1	-0.116786845
20	0x3dd7645a	0.105171874
21	0x3d4dea84	0.05027248
22	0x3d3a0e4b	0.045423787
23	0x3bb9437f	0.005653798
24	0xbd9d3a2e	-0.076771125
25	0x3db66834	0.08906594
26	0x3e45cbc7	0.19316016
27	0x3cebdccf	0.028791813
28	0x3df2a502	0.11847879
29	0x3d8a8a5d	0.06764672
30	0x3d7611a0	0.060075402
31	0x3d9bda7b	0.07610031
32	0x3cc0ebe5	0.023549983
33	0xbd93f0dc	-0.07223675
34	0x3e34ecef	0.17668508
35	0xbd806374	-0.06268969
36	0x3dba8dc8	0.09109074
37	0xbcbffc6e	-0.023435798
38	0x3ccaab33	0.024739837
39	0xbb7e90fb	-0.003884374
40	0xbe21fb2b	-0.15818469
41	0x3e005213	0.12531309
42	0x3cc26a24	0.023732252
43	0xbc30d95c	-0.01079401
44	0x3de2ae13	0.11068358
45	0x3e15475d	0.14578004
46	0x3ddd262b	0.107982956
47	0x3dd77f6c	0.10522351
48	0x3db5915a	0.08865614
49	0x3c36b99d	0.011152652
50	0xbb10deb7	-0.0022105405
51	0xbc9b1d27	-0.0189348
52	0xbd3c410b	-0.045960467
53	0xbd9bdb8b	-0.07610234
54	0x3d4f7d52	0.050656624
55	0x3e0e8ba6	0.13920459
56	0x3dd98af7	0.106222086
57	0x3d0fc402	0.035099037
58	0x3e37d310	0.17951608
59	0x3e38dee6	0.18053779
60	0x3c92010e	0.017822769
61	0xbc8f6208	-0.0175028
62	0xbc9f7025	-0.019462654
63	0x3dba9646	0.09110694
64	0xbdb7ada6	-0.08968668
65	0x3df76433	0.12079658
66	0x3e07e3ed	0.1327054
67	0xbdacc5f7	-0.08436196
68	0xbd330f6f	-0.04371589
69	0x3ddd57b9	0.108077474
70	0xbdb6b7c3	-0.089217685
71	0xbde57f53	-0.11205926
72	0x3dcc1e7b	0.09966751
73	0x3b94c0b6	0.0045395745
74	0xbdd506ee	-0.10401712
75	0xbdb37092	-0.087617055
76	0x3c805010	0.015663177
77	0xbd3d3941	-0.04619718
78	0xbda2f19f	-0.07956242
79	0x3d3678a3	0.044548642
80	0xbd8adb08	-0.06780058
81	0x3d93a5a3	0.07209327
82	0xbdd2838b	-0.10278996
83	0x3de7b56e	0.11313902
84	0x3b855686	0.0040691523
85	0xbdfb24a8	-0.12262851
86	0x3d95bc7a	0.0731134
87	0xbcdc6165	-0.02690191
88	0x3d97bf99	0.07409591
89	0x3b991ba2	0.0046724835
90	0xbdcc5ffb	-0.09979244
91	0x3cd24518	0.025667712
92	0xbd8a9a84	-0.06767753
93	0x3ac29ef0	0.0014848392
94	0x3d203c41	0.039119963
95	0x3ce80634	0.02832327
96	0x3d73ce1d	0.059522737
97	0xbd49112e	-0.04908865
98	0x3dbc2fae	0.09188782
99	0xbda16f42	-0.07882549
100	0xbdc14b40	-0.09438181
101	0xbd3b1a80	-0.04567957
102	0xbd87da81	-0.06633473
103	0x3d61fe70	0.05517429
104	0x3e0bdac6	0.13657674
105	0xbd99b0ed	-0.07504449
106	0x3d629208	0.055315048
107	0xbd9b2ba7	-0.075766854
108	0x3d928e4e	0.07156049
109	0x3d0cddfa	0.03439138
110	0x3db21d9d	0.086970545
111	0xbd3adb02	-0.04561902
112	0xbdb4b7b0	-0.08824098
113	0xbcbbf330	-0.02294311
114	0xbb75f189	-0.0037528
115	0x3d050c98	0.032482713
116	0xbdad7c03	-0.08470919
117	0xbd177137	-0.036973204
118	0xbc521d5d	-0.012824384
119	0x3df6dc8d	0.120537855
120	0x3cb35cd8	0.021894857
121	0x3dd19c3b	0.10234877
122	0xbd5fc613	-0.054632258
123	0x3e2429a2	0.16031507
124	0x3df7e3a8	0.12103969
125	0x3dd3ef48	0.10348374
126	0x3cfb5e75	0.030684689
127	0x3d8252f9	0.06363482
128	0x3c5bf3ed	0.013424856
129	0xbdb5d2fc	-0.08878133
130	0x3d9b20e0	0.0757463
131	0x3d9b7247	0.07590156
132	0x3c2ec4d7	0.010667047
133	0xbdcd989b	-0.10038873
134	0x3d8f2e85	0.06991295
135	0x3d8b41b0	0.06799638
136	0x3d0e4365	0.03473224
137	0x3daa37aa	0.08311398
138	0xbd95c3df	-0.0731275
139	0x3e302dc5	0.1720496
140	0x3e0194e1	0.12654449
141	0xbd504cde	-0.050854556
142	0x3bf639f7	0.007514234
143	0x3d5861d0	0.052827656
144	0x3d2b41e2	0.041810878
145	0x3cf25c09	0.029584901
146	0xbd9c95a0	-0.07645726
147	0x3e16ea6e	0.14737865
148	0xbd317553	-0.04332478
149	0xbd4c47b8	-0.049873084
150	0xbd9be53c	-0.07612082
151	0x3e003c49	0.12522997
152	0xbd80c70c	-0.06287965
153	0xbdfd2789	-0.12361056
154	0xbd803b39	-0.06261296
155	0xbd3feff2	-0.04685969
156	0xbb5a9f1b	-0.0033358994
157	0xbcd2aa7e	-0.025716063
158	0x3dd29f0a	0.102842405
159	0xbd85343a	-0.06504102
160	0xbc39a607	-0.011331088
161	0x3de2a4b4	0.11066571
162	0x3dc7cfcc	0.09756431
163	0x3dc8f556	0.09812419
164	0x3d9382f9	0.072027154
165	0x3dbdeaac	0.09273276
166	0xbc5260b6	-0.0128404405
167	0xbd8cf5e7	-0.0688284
168	0x3d6356ac	0.05550258
169	0x3da149cb	0.07875403
170	0xbc559a7e	-0.013037322
171	0xbdf43732	-0.1192459
172	0xbd03a00a	-0.032135047
173	0xbd3bdc5d	-0.04586445
174	0xbc8e5067	-0.017372323
175	0x3d949552	0.07255043
176	0x3d35d91f	0.044396516
177	0x3ccc23f1	0.024919482
178	0x3d7d06ed	0.061774183
179	0x3cd2bb51	0.025724085
180	0x3d5f8642	0.054571398
181	0x3dcb1ae7	0.099172406
182	0xbd771814	-0.060325697
183	0xbcadca18	-0.02121453
184	0x3d7c3e67	0.06158295
185	0xbda5bf97	-0.080931835
186	0x3dfbf465	0.12302474
187	0x3db0a2f1	0.086248286
188	0x3dfa40a6	0.12219362
189	0xbc11b161	-0.008892388
190	0xbe04d8db	-0.12973349
191	0x3deea33b	0.116522275
192	0xbdb95af0	-0.09050548
193	0xbd82cdcb	-0.06386908
194	0x3d2427e6	0.040077113
195	0xbbcb48c4	-0.0062037427
196	0x3ca943f2	0.020662282
197	0xbdd61f8e	-0.10455237
198	0xbdbb2ed5	-0.09139792
199	0x3d3e18c9	0.046410356
200	0xbc197c3d	-0.009368
201	0x3e1869b3	0.14884071
202	0x3cf0b654	0.029383816
203	0x3d89a746	0.06721358
204	0x3da0804f	0.07836973
205	0x3bb5b64a	0.005545412
206	0x3de4f04f	0.11178648
207	0x3b61fcd3	0.003448297
208	0xbdce7db2	-0.10082568
209	0xbd2c0a17	-0.04200181
210	0xbba007cf	-0.0048837434
211	0x3c643018	0.013927482
212	0x3dd1aa12	0.102375165
213	0xbd09184b	-0.033470433
214	0x3e05ec6f	0.13078474
215	0x3daf4302	0.085577026
216	0x3e08557e	0.13313863
217	0x3e075fe3	0.13220172
218	0x3d68060c	0.05664639
219	0xbd318624	-0.043340817
220	0x3d2cda5b	0.042200428
221	0xbda7498a	-0.08168323
222	0x3c9558b0	0.018230766
223	0x3d5279f2	0.051385827
224	0x3d90f564	0.070780545
225	0x3d6beb9c	0.05759774
226	0xbd09d5f5	-0.03365131
227	0x3ba5b447	0.005056891
228	0x3dbcda35	0.09221307
229	0xb9e37b17	-0.00043388523
230	0xbd8eabb8	-0.069663465
231	0x3c2ddede	0.010612218
232	0xbc4c4487	-0.01246751
233	0x3d9e0230	0.07715261
234	0xbdbbc3a3	-0.09168174
235	0x3d1f8bee	0.038951807
236	0x3e1230d9	0.14276446
237	0x3e2dff2e	0.16991875
238	0x3d726e35	0.059187133
239	0xbc96c5b4	-0.01840482
240	0x3dc56ae1	0.09639526
241	0x3e08fedb	0.1337847
242	0x3d3e5366	0.046466254
243	0xbde1d7eb	-0.11027511
244	0xbc675585	-0.014119511
245	0xbda234f5	-0.07920257
246	0x3dbe97b9	0.093062826
247	0x3c1e180d	0.009649289
248	0xbba82491	-0.005131312
249	0x3d8a366a	0.0674866
250	0x3d9413e6	0.07230358
251	0x3b786e89	0.003790768
252	0x3e0b9b58	0.13633478
253	0x3c608dae	0.013705654
254	0x3ddb07b3	0.10694828
255	0xbd9a34c7	-0.07529598

lstm.weight_hh_l0 f4 [256, 64]
0	0xbd9aa96c	-0.07551846
1	0x3c0bdf0d	0.008537066
2	0xbda6f2c5	-0.08151773
3	0xbd15a673	-0.03653569
4	0xbd787be0	-0.06066501
5	0x3c1b26de	0.009469716
6	0xbd9c97f4	-0.0764617
7	0xbe05d7f7	-0.13070665
8	0x3de97170	0.113985896
9	0xbdfbb9a7	-0.1229127
10	0x3d280a70	0.04102558
11	0x3c47f4bd	0.012204346
12	0x3da0b757	0.07847469
13	0xbcef0589	-0.029177444
14	0xbc8f7402	-0.017511372
15	0x3d59b176	0.053147756
16	0x3da362f7	0.079778604
17	0x3e084a5d	0.13309617
18	0xbdb15c7f	-0.0866022
19	0x3bf1c308	0.007377986
20	0x3d8bd8d8	0.06828469
21	0x3e043728	0.12911665
22	0xbc000909	-0.007814654
23	0x3dfc4c59	0.1231925
24	0xbd35edda	-0.044416286
25	0xbdf1dbbc	-0.11809489
26	0xbc8ab190	-0.016930372
27	0xbd83ab19	-0.06429119
28	0xbde7ef3e	-0.11324929
29	0x3cfacb2a	0.030614454
30	0x3d40438f	0.04693943
31	0x3dac7ce6	0.0842226
32	0x3e0a9c4e	0.13536188
33	0x3d6835ff	0.05669212
34	0x3d8bea47	0.06831794
35	0xbde1187f	-0.109910004
36	0x3d92969e	0.07157634
37	0xbdd1f6ec	-0.10252175
38	0xbde06e41	-0.10958529
39	0x3d71ab43	0.05900122
40	0x3dbe3a02	0.09288408
41	0x3d9ba625	0.07600049
42	0xbdbcacf3	-0.09212675
43	0xbded2d79	-0.11580939
44	0xbd774695	-0.060370047
45	0xbd8f919d	-0.070101954
46	0xbdac7795	-0.08421246
47	0xbc6455ef	-0.013936504
48	0xbe019285	-0.12653549
49	0xbe09a538	-0.13441932
50	0xbb17b203	-0.0023146875
51	0x3e16fe55	0.14745457
52	0x3de203d6	0.11035888
53	0xbcf45555	-0.029825846
54	0xbe1e97b5	-0.15487559
55	0xbd951a30	-0.072803855
56	0xbcb91052	-0.02259079
57	0xbe6b39d4	-0.22971278
58	0x3de74a89	0.11293513
59	0xbcaa5f5e	-0.020797428
60	0x3da3d716	0.08000009
61	0x3d858eeb	0.065214
62	0x3d4b7d6d	0.049680162
63	0x3d81c7ce	0.06336938
64	0xbdb4c0dc	-0.088258475
65	0x3c8894b4	0.01667247
66	0xbc0ee4a3	-0.008721503
67	0xbc92bf99	-0.017913627
68	0x3ccbf678	0.024897799
69	0xbd27e346	-0.04098823
70	0xbdc60992	-0.09669794
71	0xbdeb6df0	-0.11495578
72	0xbdb4dd85	-0.08831314
73	0xbd8b14b0	-0.06791055
74	0x3c851572	0.016245577
75	0x3c99e897	0.018787665
76	0x3c73783e	0.014860211
77	0xbdb80eb5	-0.0898718
78	0x3dcbded1	0.09954608
79	0xbdb75e0b	-0.08953484
80	0x3d277418	0.0408822
81	0x3d9cc89b	0.0765545
82	0xbd42373b	-0.047415953
83	0x3d328771	0.0435862
84	0xbcffcaa6	-0.03122456
85	0x3d95a906	0.07307629
86	0xbdf4559f	-0.119303934
87	0x3d9a4e2e	0.07534443
88	0x3cf9aefe	0.03047895
89	0x3dc0ad19	0.09408016
90	0x3c757880	0.014982343
91	0x3d00e1f9	0.031465504
92	0xbcd70ffe	-0.026252743
93	0xbe2ad7db	-0.16683905
94	0xbda35797	-0.07975691
95	0xbd3a9d11	-0.045559946
96	0xbc011dfb	-0.007880683
97	0xbc8454c0	-0.016153693
98	0x3dc7f039	0.09762616
99	0x3b71c5b7	0.003689153
100	0x3dd59d2b	0.10430368
101	0xbd863af4	-0.06554213
102	0xbd59d6e4	-0.05318345
103	0x3d27a616	0.040929876
104	0xbd8d5252	-0.06900467
105	0xbd79b44f	-0.06096297
106	0x3d413163	0.04716624
107	0x3c3f6209	0.011681088
108	0x3da86328	0.082220376
109	0x3d5bf2ae	0.053698234
110	0xbb061b3a	-0.0020463006
111	0x3d192e6d	0.03739779
112	0x3db1e575	0.086863436
113	0xbdead92c	-0.114672035
114	0x3dd1da4c	0.10246715
115	0xbd879600	-0.06620407
116	0xbdbdb5b7	-0.09263175
117	0x3d94a485	0.07257942
118	0x3d7f8743	0.062384855
119	0xbd26bc90	-0.04070717
120	0xbdc7c263	-0.09753873
121	0xbd03eac6	-0.03220632
122	0x3db8526a	0.09000094
123	0x3d751078	0.05983016
124	0x3c2e6e53	0.0106464205
125	0xbd80deb4	-0.06292477
126	0x3d9e9944	0.07744077
127	0xbd87ce9a	-0.06631203
128	0x3ccc2173	0.024918294
129	0x3dda169e	0.10648845
130	0x3daae79f	0.083449595
131	0x3c0ab36f	0.008465632
132	0x3d528b54	0.051402405
133	0x3dd0d631	0.10197104
134	0xbdb8724f	-0.09006178
135	0x3dafd4d5	0.08585516
136	0xbd0c4b4b	-0.034251492
137	0x3d61c41d	0.05511867
138	0xbdba925a	-0.091099456
139	0xbd8875d7	-0.06663101
140	0x3c02bc33	0.0079794405
141	0xbddb0b63	-0.10695531
142	0xbd7d8f12	-0.06190402
143	0x3ddf4de3	0.109035276
144	0x3cf169d0	0.0294694
145	0x3c8dd79e	0.017314728
146	0x3da5a699	0.080884166
147	0x3d802830	0.06257665
148	0x3d9ea6fa	0.07746692
149	0xbde2af78	-0.11068624
150	0x3db42762	0.08796574
151	0xbdbd0b96	-0.092307255
152	0xbd7c1318	-0.061541647
153	0xbddf9381	-0.10916806
154	0x3cf85616	0.030314486
155	0xbd39a300	-0.045321465
156	0xbc890a76	-0.016728621
157	0x3d02a1eb	0.0318927
158	0xbdee39c9	-0.116321154
159	0x3d48bfdd	0.0490111
160	0x3dbc4278	0.091923654
161	0x3dcb4314	0.099249035
162	0x3d533c6a	0.051571287
163	0x3b2fa5c6	0.002680169
164	0xbdebe9ae	-0.1151918
165	0x3d8d45f1	0.06898106
166	0x3d5813b5	0.05275317
167	0x3d90cca9	0.07070286
168	0xbba7a099	-0.0051155803
169	0xbbfdc595	-0.007744501
170	0xbbfda18a	-0.007740204
171	0xbc2df3c8	-0.010617204
172	0x3d01e1b9	0.031709407
173	0xbcde3dbe	-0.02712905
174	0x3de6a3ad	0.112616874
175	0x3bfb0917	0.0076609957
176	0x3d097a98	0.03356418
177	0xbdd463e8	-0.10370618
178	0xbcb44d1d	-0.022009427
179	0xbd889eae	-0.06670891
180	0x3ce445a4	0.027865238
181	0xbda12643	-0.07868626
182	0xbd5d8ba1	-0.05408824
183	0xbde9b254	-0.114109665
184	0x3b49e5b7	0.0030807087
185	0xbdd92799	-0.10603256
186	0xbd9acd3a	-0.07558675
187	0xbddedce7	-0.108819775
188	0xbdcd3b21	-0.100210436
189	0x3d8bcbb8	0.06825966
190	0x3e09f4a5	0.1347223
191	0x3c2f8ebe	0.010715185
192	0x3dc33b74	0.09532824
193	0xbc97cf41	-0.018531444
194	0xbdd5fe35	-0.10448877
195	0xbc785f76	-0.015159478
196	0xbd9255f5	-0.07145301
197	0x3e0aaef1	0.13543297
198	0xbe00950d	-0.12556858
199	0xbca94695	-0.020663539
200	0x3e11cf94	0.14239341
201	0xbd43d6ea	-0.04781238
202	0xbdec8880	-0.11549473
203	0x3cebab5e	0.028768238
204	0x3cdee188	0.027207151
205	0xbd3290a7	-0.043594982
206	0xbd8dce13	-0.06924071
207	0xbd20873c	-0.03919147
208	0x3e1ee97b	0.15518753
209	0xbdb370f8	-0.087617815
210	0x3dbda348	0.09259659
211	0xbd4359e1	-0.047693137
212	0xbd0e89ac	-0.034799263
213	0xbcfa2b03	-0.030538088
214	0xbe17266f	-0.14760755
215	0x3d070ccd	0.032971192
216	0xbd48d37b	-0.04902981
217	0x3d00a7ff	0.031410214
218	0x3daddb20	0.084890604
219	0x3d842e00	0.06454086
220	0x3c9c09a1	0.01904756
221	0x3dc38673	0.095471285
222	0x3dc38e2e	0.09548603
223	0x3e132108	0.14368069
224	0x3d095928	0.03353229
225	0x3d213334	0.03935547
226	0xbdc012c2	-0.09378578
227	0x3d5df916	0.054192625
228	0xbd33768b	-0.043814223
229	0xbd3c113f	-0.045914885
230	0x3d183743	0.037162077
231	0x3e0f5683	0.13997845
232	0xbc1d4b52	-0.009600477
233	0x3d6c8302	0.057742126
234	0xbe00089c	-0.12503284
235	0x3d30816c	0.043092176
236	0xbd8487b6	-0.06471197
237	0xbd8c6104	-0.06854442
238	0xbdb0b38b	-0.08627995
239	0xbcf6c8c8	-0.030125037
240	0xbe030be4	-0.12797505
241	0xbe1b21bc	-0.15149587
242	0x3dca99d8	0.098926246
243	0xbd4b3868	-0.04961434
244	0x3e08b363	0.1334968
245	0x3d4281d2	0.047487088
246	0xbaa48984	-0.001255319
247	0x3e088344	0.13331324
248	0x3e0356b2	0.1282604
249	0x3d4e054a	0.050298013
250	0x3a8c397c	0.0010698284
251	0xbd49d3d6	-0.049274288
252	0x3e10dcb4	0.14146692
253	0xbd06af8a	-0.03288225
254	0x3dddb477	0.108254366
255	0xbb2a91a5	-0.0026026752

lstm.bias_ih_l0 f4 [256]
0	0x3d258d20	0.04041779
1	0x3c3be604	0.011468414
2	0xbd0d19b0	-0.034448326
3	0x3cd23892	0.02566174
4	0x3d1fa074	0.03897138
5	0x3de95612	0.1139337
6	0x3d478324	0.04870905
7	0x3dd12c0e	0.10213481
8	0xbd47fe55	-0.048826534
9	0xbd3ae6db	-0.045630317
10	0xbdea418c	-0.11438283
11	0xbe13388f	-0.14377044
12	0x3df64fd2	0.12026943
13	0xbe232902	-0.15933612
14	0xbd44d5d6	-0.048055492
15	0xbc37a28a	-0.011208186
16	0xbdd773a8	-0.105201066
17	0x3d80001c	0.06250021
18	0xbe404aae	-0.18778488
19	0x3e02fcad	0.127917
20	0x3cf21bbd	0.029554242
21	0x3daf89d4	0.085712105
22	0x3e1014fa	0.14070502
23	0x3d9ad011	0.07559217
24	0xbdb51c4d	-0.088432886
25	0x3d1b2e22	0.037885793
26	0x3ce78554	0.028261818
27	0x3dedf125	0.1161826
28	0xbdf5f415	-0.120094456
29	0xbc30df6e	-0.010795457
30	0x3cf73577	0.030176861
31	0x3d037095	0.03208979
32	0x3c1b3207	0.009472377
33	0xbc816680	-0.015795946
34	0xbd90f5ec	-0.07078156
35	0x3ce24dbc	0.027624957
36	0xbe05ad7d	-0.13054462
37	0x3df927bc	0.12165782
38	0x3ddd016e	0.10791288
39	0xbe08aae0	-0.13346434
40	0xbe01f356	-0.12690482
41	0xbcd467dd	-0.025928432
42	0xbde8ae11	-0.113613255
43	0x3dabfe09	0.08398063
44	0x3d3a854e	0.045537286
45	0xbe4429fd	-0.19156642
46	0xbd47dae5	-0.04879274
47	0x3d39cc03	0.045360576
48	0xbc6419e7	-0.013922191
49	0x3dc65098	0.09683341
50	0xbd5c769b	-0.05382405
51	0xbd1682ed	-0.036745954
52	0x3d5f9a6c	0.054590628
53	0x3d683e93	0.0567003
54	0xbd574ec8	-0.052565366
55	0x3d4bf27f	0.04979181
56	0xbc7798e8	-0.015112139
57	0x3dc1d2f9	0.09464068
58	0xbdbd7b99	-0.0925209
59	0x3d060bf6	0.03272625
60	0xbceedc42	-0.029157761
61	0x3dabb48c	0.08384046
62	0x3e0fbc6a	0.14036718
63	0x3e2c5a9f	0.16831444
64	0x3c94ced9	0.018165039
65	0x3db81ce4	0.089898854
66	0x3d7ef874	0.062248662
67	0x3db10e8e	0.08645354
68	0x3e0c0c30	0.13676524
69	0x3d04d89c	0.032433137
70	0x3da79b7d	0.08183954
71	0xbc22a6f6	-0.009927502
72	0x3cd0f919	0.025509404
73	0x3e0c6c1a	0.13713112
74	0x3c2ee9bb	0.010675843
75	0x3dd645f4	0.10462561
76	0x3d905f12	0.07049383
77	0x3dba4306	0.09094815
78	0x3ca731bd	0.02040946
79	0x3e31d4e8	0.17366374
80	0xbc86d838	-0.016460523
81	0xbcb03dd7	-0.021513863
82	0xbd836008	-0.06414801
83	0x3e0c9c55	0.13731511
84	0x3d4977c5	0.049186487
85	0x3cc5306a	0.024070937
86	0xbd28465b	-0.04108272
87	0x3d1767cd	0.036964227
88	0xbda1c7f3	-0.078994654
89	0x3daedb86	0.085379645
90	0xb9d21ff3	-0.00040078125
91	0x3e24945d	0.16072221
92	0x39dc4877	0.0004201566
93	0xbd34100e	-0.043960623
94	0xbe0fb287	-0.14032947
95	0xbe20336d	-0.15644617
96	0xbcbaef93	-0.022819316
97	0x3e040f10	0.12896371
98	0x3d23e8f8	0.0400171
99	0x3df65d10	0.12029469
100	0x3b41e48c	0.0029585687
101	0x3e1c4b27	0.15263043
102	0x3b89bde4	0.004203545
103	0x3d4c0d1b	0.049817186
104	0x3dd2594a	0.10270937
105	0xbbeff4f6	-0.007322903
106	0xbd053e66	-0.03253021
107	0x3d09e422	0.03366483
108	0xbdbb32a1	-0.09140516
109	0xbe18d7db	-0.14926092
110	0x3d8c6603	0.06855395
111	0x3e3c73fd	0.18403621
112	0xbd93760f	-0.07200252
113	0x3e22ad6b	0.15886466
114	0x3d72a616	0.059240423
115	0xbdfbc2fd	-0.122930504
116	0xbd561da8	-0.052274376
117	0xbdadad7c	-0.08480355
118	0x3d38f60f	0.045156535
119	0xbd6a4d8e	-0.05720287
120	0xbdba20e5	-0.090883054
121	0x3d58fcee	0.052975588
122	0x3d092d23	0.03349031
123	0xbda855b4	-0.082194716
124	0xbdd64d7a	-0.10463996
125	0xbcb6e094	-0.022323884
126	0x3ceb8959	0.028752016
127	0x3d147ca3	0.036251675
128	0x3e0c3db5	0.13695414
129	0x3ced9136	0.028999906
130	0x3d934dcd	0.07192574
131	0x3d004673	0.031317186
132	0xbdefe4df	-0.117135756
133	0x3d68fc65	0.056881327
134	0xbd59ea54	-0.05320199
135	0x3cd1e3d0	0.025621325
136	0xbc300980	-0.0107444525
137	0xbdd77d1d	-0.1052191
138	0xbe04a707	-0.12954341
139	0xbdcd60c5	-0.10028223
140	0xbbc51f05	-0.0060156607
141	0x3cd138a5	0.025539706
142	0xbd44a59a	-0.048009492
143	0x3de189ff	0.11012649
144	0x3ce4c83c	0.02792751
145	0x3dc14458	0.09436864
146	0xbe0b876f	-0.13625883
147	0xb96734b5	-0.00022049512
148	0x3bea35ff	0.00714755
149	0x3df6fcca	0.120599344
150	0xbdc277ee	-0.09495531
151	0xbd384e9f	-0.044996854
152	0x3db66e5b	0.089077674
153	0xbd9e30da	-0.077241614
154	0x3e06a9e5	0.13150747
155	0xbccda4ec	-0.025103055
156	0x3dddc972	0.10829438
157	0x3cd79a38	0.026318654
158	0xbcd968d4	-0.026539244
159	0xbd5603b2	-0.052249618
160	0x3e260b58	0.16215265
161	0xbce4f860	-0.027950466
162	0x3d2540f5	0.04034515
163	0x3e4972c5	0.19672687
164	0xbce01cc1	-0.02735746
165	0xbe3bbf53	-0.18334703
166	0xbdb67778	-0.089095056
167	0x3da9fed5	0.083005585
168	0xbcc0eff1	-0.023551913
169	0xbdc93ac5	-0.098256625
170	0xbdbcc1da	-0.09216662
171	0xbc9861e8	-0.018601373
172	0xbe0a1c47	-0.1348735
173	0xbddd762a	-0.10813554
174	0x3d843201	0.0645485
175	0x3d738760	0.059455276
176	0xbdca03ab	-0.09863981
177	0xbd272403	-0.040805828
178	0x3de14427	0.10999327
179	0xbd6b7a00	-0.057489395
180	0x3da965cb	0.082713686
181	0x3d0d59ae	0.034509353
182	0x3c354e46	0.011066025
183	0x3d4dc963	0.050240885
184	0xbe22cd4b	-0.15898626
185	0xbdfba327	-0.12286978
186	0x3d1b6077	0.037933793
187	0x3d963f23	0.07336261
188	0xbc210495	-0.009827753
189	0x3dde382c	0.10850558
190	0xbd7d92c8	-0.06190756
191	0xbcee24cd	-0.029070282
192	0x3dd44525	0.10364751
193	0x3c3c8a83	0.011507633
194	0x3c75299d	0.014963535
195	0x3e01fa88	0.12693226
196	0xbda3c84c	-0.07997188
197	0xbdb76e2e	-0.08956562
198	0x3e0cfdf3	0.13768749
199	0x3b3ce889	0.0028825125
200	0xbcfb831b	-0.030702164
201	0x3bc41464	0.005983876
202	0x3e0dc303	0.13843922
203	0xbd69f961	-0.057122592
204	0x3db14221	0.08655191
205	0xbe35e1ca	-0.17761913
206	0xbd3a99b0	-0.045556724
207	0x3e4616c8	0.19344628
208	0x3e34d958	0.17661035
209	0xbe1e3226	-0.15448818
210	0xbca3fb50	-0.020017296
211	0x3e0183b9	0.12647904
212	0x3cb8b3d4	0.022546686
213	0xbe0a7e3d	-0.13524719
214	0x3d094d88	0.033521205
215	0xbdcebe60	-0.10094905
216	0xbddebc85	-0.10875801
217	0x3c82d2ac	0.015969597
218	0xbd50456c	-0.050847456
219	0x3da1eb62	0.07906224
220	0x3cb0eede	0.021598276
221	0xbc6b8d96	-0.014377018
222	0xbd341444	-0.04396464
223	0xbd99b056	-0.075043365
224	0x3dd34c45	0.10317282
225	0xbdad213e	-0.08453606
226	0xbe4f4cc2	-0.20244125
227	0x3d198bcb	0.037486833
228	0xbe27149b	-0.16316454
229	0xbd864760	-0.065565825
230	0xbbdb5537	-0.006693508
231	0x3c6f2a53	0.014597493
232	0xbe2f9f20	-0.17150545
233	0xbded5d91	-0.11590112
234	0xbe103a0a	-0.1408464
235	0x3e0b07cc	0.13577193
236	0xbe408819	-0.18801917
237	0xbe1050bf	-0.14093302
238	0x3c5d8083	0.013519409
239	0x3d60f6cf	0.054922875
240	0xbd8ef8ee	-0.06981073
241	0x3e049cef	0.1295049
242	0x3d8a4672	0.067517176
243	0x3da8c305	0.08240322
244	0x3d0fe5c7	0.035131242
245	0x3cee3754	0.029079117
246	0xbbdda1eb	-0.006763687
247	0xbc24bb4e	-0.010054423
248	0x3d5391cb	0.05165271
249	0x3d10918a	0.035295047
250	0x3d4424d7	0.047886696
251	0xbbcd6743	-0.0062684133
252	0xbe16cdad	-0.14726897
253	0xbd8dc2c5	-0.06921915
254	0xbdb63441	-0.088966854
255	0x3d47355f	0.048634883

lstm.bias_hh_l0 f4 [256]
0	0xbbb6550a	-0.0055643367
1	0x3d689400	0.05678177
2	0x3ddb942f	0.10721623
3	0x3d482351	0.048861805
4	0xbcb491b2	-0.02204213
5	0xbd687115	-0.05674847
6	0x3da7fdf0	0.082027316
7	0x3d9fef15	0.07809273
8	0xbcf4958e	-0.02985647
9	0x3dcabc30	0.09899175
10	0xbc9bf182	-0.019036058
11	0xbe046d43	-0.12932305
12	0x3dee6a56	0.11641376
13	0x39eaba81	0.00044770914
14	0xbe5c4622	-0.21511129
15	0xbcce380b	-0.025173208
16	0xbe0b6050	-0.13610959
17	0x3c18f24a	0.00933511
18	0xbdcedb6c	-0.10100445
19	0x3e31bbcf	0.173568
20	0x3df020e9	0.11725027
21	0x3e224470	0.1584642
22	0x3e0ec0ec	0.13940781
23	0xbde27702	-0.11057855
24	0x3cac49c0	0.02103126
25	0x3b4f8928	0.0031667445
26	0x3de84eb2	0.11343135
27	0xbd4fd570	-0.05074066
28	0x3d83c320	0.064337015
29	0x3e1af35e	0.151319
30	0xbd5977e0	-0.053092837
31	0xbdc82ad4	-0.09773794
32	0xbe0ff154	-0.14056903
33	0x3d573f2e	0.052550487
34	0xbdc29b8c	-0.095023245
35	0x3d4fd59f	0.050740834
36	0xbddfde4c	-0.10931072
37	0xbc708008	-0.0146789625
38	0x3d36a893	0.04459436
39	0x3d708e09	0.058729205
40	0xbc835744	-0.016032822
41	0xbd65d44d	-0.05611067
42	0xbe19e787	-0.15029727
43	0x3d107f48	0.035277635
44	0xbe0aea41	-0.13565923
45	0x3cb6f2bc	0.022332542
46	0xbe2b5af7	-0.16733919
47	0x3e3985e9	0.18117489
48	0xbe16083f	-0.14651583
49	0x3d0850af	0.03328007
50	0xbe00ed3d	-0.12590499
51	0xbdbe6aab	-0.09297689
52	0xbd8ab517	-0.067728214
53	0xbd817ac4	-0.06322244
54	0x3ced6d2d	0.028982723
55	0xbd04654f	-0.032323178
56	0xbe13ba53	-0.14426546
57	0xbccfb8fa	-0.025356758
58	0xbd4ba958	-0.049722046
59	0xbc70d003	-0.014698031
60	0xbe17c330	-0.14820552
61	0xbdeb51ba	-0.114901975
62	0xbd9ffd64	-0.07812002
63	0xbd27c54b	-0.040959638
64	0x3db9ccdc	0.09072277
65	0x3df77b60	0.12084079
66	0x3da9cb5e	0.08290742
67	0x3d860986	0.06544785
68	0x3e27acc3	0.16374497
69	0xbdc1295e	-0.09431718
70	0x3e39b211	0.18134333
71	0x3e0fd3a2	0.14045575
72	0x3d6d0eec	0.05787556
73	0x3d90de05	0.07073597
74	0x3d7f98b2	0.06240148
75	0x3da06d77	0.07833379
76	0xbca4c190	-0.020111829
77	0xbd50aefc	-0.050948128
78	0x3d4f1e30	0.0505659
79	0x3d997a46	0.07494025
80	0x3d87079f	0.065932505
81	0x3e16e9ca	0.14737621
82	0xba3dd0ed	-0.000724091
83	0x3ada8fca	0.0016674933
84	0x3de379ea	0.11107238
85	0x3daa4762	0.083143964
86	0x3d0d7fa4	0.034545556
87	0xbda9193d	-0.08256767
88	0xbc9d4535	-0.01919804
89	0xbd335500	-0.043782234
90	0xbdbe750a	-0.09299667
91	0xbda2165b	-0.0791442
92	0xbcf6204b	-0.030044695
93	0x3d51a5a2	0.05118335
94	0x3d893eaa	0.06701405
95	0xbd50d321	-0.0509826
96	0x3b803cca	0.0039134966
97	0x3dbb2eaa	0.0913976
98	0x3db533c1	0.08847762
99	0x3b365546	0.0027821823
100	0xbe194f5d	-0.14971681
101	0x3dc752c7	0.097325854
102	0xbd3bdbbf	-0.045863863
103	0x3dc6865c	0.09693596
104	0x3c7b9f96	0.0153578725
105	0xbd4c6108	-0.049897224
106	0xbc94ceab	-0.018164953
107	0xbc97758e	-0.018488672
108	0xbd4e681c	-0.050392255
109	0xbe46dfdf	-0.19421338
110	0xbdaba985	-0.08381943
111	0x3dc6ecd4	0.0971314
112	0x3bdd7851	0.0067587276
113	0x3e022365	0.12708814
114	0x3c1bf9c5	0.009519999
115	0x3dc4011c	0.09570524
116	0x3daf230b	0.08551606
117	0xbc568621	-0.013093502
118	0x3c81c396	0.015840333
119	0xbd92a6a3	-0.0716069
120	0x3d157812	0.03649146
121	0xbcd5b694	-0.026088037
122	0x3e263e98	0.16234815
123	0x3dc5b8e9	0.096544094
124	0xbd089158	-0.033341736
125	0x3dbf1f61	0.09332157
126	0x3dea5a96	0.11443059
127	0x3dbedeaf	0.09319817
128	0x3e3e77bb	0.18600361
129	0x3d82d81f	0.06388878
130	0x3d9bf973	0.07615938
131	0xbe1c4047	-0.15258895
132	0xbd97e38c	-0.07416448
133	0xbc954cbe	-0.01822507
134	0xbd976de9	-0.073940106
135	0xbe16175b	-0.14657347
136	0xbdbd03a2	-0.092292085
137	0xbc975871	-0.01847479
138	0xbde27ac2	-0.110585704
139	0x3d831f57	0.06402462
140	0xbd062e26	-0.032758854
141	0x3db95a1e	0.090503916
142	0xbdd2fa94	-0.103017
143	0x3e0b70bf	0.13617228
144	0x3e21bfce	0.15795824
145	0x3d8bcdb1	0.06826342
146	0x3db5a66e	0.088696346
147	0xbe04d2ea	-0.12971082
148	0x3d1dd896	0.03853663
149	0x3e45c980	0.19315147
150	0xbcca0e23	-0.024664944
151	0x3de7663c	0.112987965
152	0x3dbff8c0	0.09373617
153	0xbe2f12ae	-0.1709697
154	0x3d26b89c	0.0407034
155	0xbe2e07f3	-0.1699522
156	0xbdbe5810	-0.0929414
157	0xbcccc3f1	-0.024995776
158	0xbdc8ee49	-0.09811074
159	0x3d887c23	0.06664302
160	0x3e2d4819	0.16922034
161	0xbe20158f	-0.15633224
162	0xbd090b39	-0.03345797
163	0x3bfc0cfd	0.007691978
164	0xbd5dbdb7	-0.054136004
165	0xbdde5c0d	-0.10857401
166	0x3d9b47ca	0.07582052
167	0x3e0d8294	0.13819343
168	0xbafcdd12	-0.0019291958
169	0x3de0adc5	0.10970644
170	0xbdb46468	-0.088082135
171	0x3c648894	0.013948578
172	0x3d8c5f63	0.06854131
173	0x3d9962bf	0.074895374
174	0x3dc0a601	0.09406663
175	0x3ddf7cdf	0.10912489
176	0xbc25dd80	-0.0101236105
177	0xbdf4d599	-0.11954803
178	0xbdc6e1bd	-0.09711025
179	0x3d0d8d9a	0.03455887
180	0x3d174dea	0.03693954
181	0xbd008606	-0.031377815
182	0xbdb5af0a	-0.08871277
183	0xbb840e71	-0.004030042
184	0xbcd0d785	-0.025493393
185	0xbd7f1431	-0.062275115
186	0x3d017691	0.031607214
187	0x3c8a480d	0.01688006
188	0x3e019668	0.12655032
189	0xbd67cab0	-0.056589782
190	0x3e04c8e3	0.12967257
191	0xbd88e55c	-0.06684372
192	0xbbcbb000	-0.006216049
193	0xbd28a021	-0.041168336
194	0xbe08fccb	-0.13377683
195	0x3e2e52e2	0.17023805
196	0x3df5f72c	0.12010035
197	0xbe3d72f3	-0.18500881
198	0x3d9d06da	0.076673225
199	0x3db2bc91	0.087273724
200	0xbd3f2d42	-0.04667402
201	0xbd4098c1	-0.047020677
202	0x3e1f581f	0.1556096
203	0xbc334593	-0.010941881
204	0xbdf92e7a	-0.12167068
205	0x3d4de23b	0.05026458
206	0xbc66fcec	-0.014098387
207	0x3d2d7fe5	0.042358298
208	0x3b20ed88	0.0024555642
209	0xbdbf8d53	-0.09353127
210	0x3c8ffc2b	0.017576298
211	0x3dff58b9	0.124680944
212	0x3e36adfc	0.17839807
213	0xbd96db47	-0.073660426
214	0xbd75f8d3	-0.06005175
215	0xbe054909	-0.13016142
216	0xbcc09c0e	-0.023511913
217	0x3db27e65	0.08715514
218	0xbe19c117	-0.15015064
219	0x3d23e001	0.04000855
220	0x3c23ec8b	0.010005127
221	0xbd2e01c6	-0.04248216
222	0xbbc29a75	-0.005938823
223	0xbd8930ba	-0.06698747
224	0xbdfc04a0	-0.1230557
225	0xbca16455	-0.019701162
226	0xbdd8db6e	-0.10588728
227	0xbd8dbe5c	-0.06921074
228	0xbe0a1079	-0.13482846
229	0x3d68c60b	0.056829493
230	0x3dea7de3	0.11449792
231	0x3cc6d85a	0.024273086
232	0xbe378879	-0.17923154
233	0xbd1741ed	-0.036928106
234	0x3cd5e439	0.026109802
235	0x3df74a4d	0.120747186
236	0xbe0eabe3	-0.13932757
237	0xbdb85226	-0.090000436
238	0xbe3ad172	-0.1824396
239	0x3e433a0e	0.19065115
240	0xbd67496c	-0.056466505
241	0xbd450d02	-0.04810811
242	0xbd4c90e8	-0.04994288
243	0x3c7c7134	0.015407849
244	0xbd355170	-0.044267118
245	0x3c110a23	0.008852514
246	0xbc8a7731	-0.016902538
247	0xbd1be925	-0.03806414
248	0x3de43d0c	0.11144456
249	0xbd68a51c	-0.056798086
250	0x3d340719	0.04395208
251	0x3d13ed6b	0.03611509
252	0xbde4df6b	-0.11175426
253	0xbdd44467	-0.10364609
254	0xbd27d14a	-0.040971078
255	0xbe14997a	-0.14511672

fc3.weight f4 [1, 64]
0	0xbde51898	-0.111863315
1	0xb84bcc57	-4.8589278e-05
2	0xbc3be1e2	-0.011467429
3	0x3ddcb7b6	0.107772276
4	0x3dc4ec2b	0.09615358
5	0xbd08b16e	-0.033372335
6	0x3e0444d3	0.1291688
7	0x3d46d7e1	0.048545722
8	0xbdd3c2ca	-0.103398874
9	0x3d71a2f9	0.058993313
10	0x3e09814d	0.1342823
11	0xbd43c257	-0.04779276
12	0x3d129205	0.035783786
13	0xbdb1fc2d	-0.08690677
14	0x3d232702	0.039832123
15	0xbe1792b7	-0.14802061
16	0xbd7a3828	-0.06108871
17	0x3b898e83	0.004197897
18	0x3cd7a12c	0.02632197
19	0x3dbcbdb8	0.092158735
20	0xbdfcbfd3	-0.12341275
21	0xbd8a03e7	-0.067390256
22	0x3b72c39d	0.0037042864
23	0xbb9dc03d	-0.0048141764
24	0x3ce198ef	0.027538745
25	0x3d8c56f1	0.0685252
26	0xbcdce29d	-0.026963526
27	0x3ccb1c9f	0.024793921
28	0x3cc35c2b	0.02384766
29	0x3e01238e	0.1261122
30	0xbd588427	-0.052860405
31	0xbdb5f88e	-0.08885299
32	0xbceca566	-0.028887462
33	0x3ba35470	0.004984431
34	0x3d551620	0.052023053
35	0xbd5c861c	-0.053838834
36	0x3b4d68e9	0.003134305
37	0x3d85ea25	0.065388
38	0x3d892f17	0.06698435
39	0xbbe30a7d	-0.0069287405
40	0xbd74286c	-0.05960886
41	0xbcfceca8	-0.030874565
42	0x3aa6e0f8	0.0012731841
43	0x3d8dc0aa	0.069215134
44	0x3d44befa	0.048033692
45	0xbb078e56	-0.0020684204
46	0xbbbd9040	-0.005785018
47	0xbdbc096a	-0.09181483
48	0x3c45f21e	0.012081651
49	0x3dab9d42	0.08379604
50	0xbc44990c	-0.01199938
51	0xbd02f5eb	-0.031972807
52	0xbdbd3ac7	-0.092397265
53	0x3c09396e	0.008375509
54	0x3b90d4f5	0.0044199177
55	0xbc074306	-0.008255726
56	0xbd2edfc0	-0.042693853
57	0x3d8b416f	0.0679959
58	0xbd85171a	-0.06498547
59	0xbdad8a0e	-0.084735975
60	0x3c264fbe	0.010150848
61	0xbb16d99c	-0.002301789
62	0xbb0eada5	-0.002177098
63	0xbb8a78c4	-0.004225822
