a_t/u_t_discrete/a_t_model/epoch_1_ut_train.pth (torch_old, 167653 bytes, 7 tensors)

fc1.weight f4 [64, 128]
000000 6d 7d ed bc 49 ad 8c bd 4d e9 66 3d c3 b4 53 bd
       -0.028990472 -0.06868989 0.056374837 -0.05168606
000010 2d 6d 24 3c 57 fe a2 3d af 2a 58 3d e3 20 d6 3d
       0.010035795 0.07958668 0.05277508 0.104554914
000020 db 1e 84 3d f0 c5 28 bd 86 10 5f 3d 13 30 24 bd
       0.06451198 -0.041204393 0.054459117 -0.04008491
000030 8e ab 0f 3d dd f3 c1 3b 9c 2b 4c 3c 11 76 af bd
       0.035075717 0.0059189633 0.012461569 -0.08567441
000040 64 c5 36 bc d7 67 ec 3c 84 31 94 3c c1 d0 ea 3c
       -0.01115546 0.028858108 0.018090017 0.028663995
000050 a1 98 5f 3d a9 f9 28 bd 54 80 50 bb 9a 92 30 bd
       0.054588918 -0.04125372 -0.003181477 -0.04310856
000060 1e 86 d5 bc b7 af 40 3d 4f 1e 82 3b b8 03 24 3d
       -0.026064929 0.047042575 0.003970898 0.04004261
000070 b4 b8 00 be 98 cb 80 3d 60 6f d5 bc 29 a0 dc 3d
       -0.12570459 0.062888324 -0.026054084 0.107727356
000080 36 07 23 bd 3c 0b 47 bc cc 40 16 3e a4 62 9f bd
       -0.0398018 -0.012148675 0.14673156 -0.07782486
000090 66 35 34 bb 9d 03 07 be c9 28 39 3d b8 6a 56 3c
       -0.0027497648 -0.13184972 0.04520491 0.013086967
0000a0 e9 70 5e 3b ba 15 d1 bd f7 38 d8 bc 9a 8d 22 3d
       0.0033941811 -0.10209222 -0.02639435 0.039685823
0000b0 2e bc 6b bd e4 42 31 3d 94 ed 1e 3d 8a 51 99 bd
       -0.05755251 0.043276682 0.03880079 -0.074862555
0000c0 0f 7b 09 3d 78 9c 49 b9 d3 7c eb bc d8 85 e7 bc
       0.033564623 -0.00019227143 -0.028746044 -0.028262064
0000d0 25 bc 38 bd 07 37 4a bd 05 69 9c 3d 49 ca f8 b9
       -0.045101304 -0.049368884 0.076372184 -0.0004745296
0000e0 76 17 87 3c cc 88 80 3d 43 04 25 b9 b0 b4 a9 3d
       0.01649068 0.06276092 -0.00015737214 0.082864165
0000f0 06 53 ee bc 7f 5d 94 bd 67 90 85 3d 22 f9 53 3c
       -0.029092323 -0.072443955 0.06521683 0.012937816
000100 b0 32 d2 bd df 4b a8 3b c4 40 cf 3d b3 72 0f bd
       -0.10263574 0.0051359977 0.10119775 -0.035021495
000110 f3 d7 2b be 95 d5 3a bd 77 a3 9f 3b d0 69 5a bd
       -0.16781597 -0.045613844 0.0048717814 -0.053323567
000120 9d 9e d6 3c e6 e1 71 bd 24 4b 70 3d b5 e2 ff 3a
       0.02619868 -0.059053324 0.05866541 0.001952252
000130 d9 29 49 3d a9 9e a5 bc 55 2e fe bc ae d0 a1 bb
       0.049112175 -0.020217257 -0.031027952 -0.0049382066
000140 a2 a5 eb bd b4 4f ed 3b 25 6f 54 bc 11 40 1f bd
       -0.11506201 0.0072421674 -0.012965952 -0.038879458
000150 8b 66 f7 bd 12 77 01 be df e6 79 bd dd 7f 5b bd
       -0.120801054 -0.12643078 -0.06101119 -0.053588737
000160 43 4b a6 bd 5f d6 0f bd e1 2e 56 3c 2e 15 9a bd
       -0.08119824 -0.03511655 0.0130727 -0.07523571
000170 b8 60 66 b9 62 4e d9 bb d4 54 36 bd c1 df f0 3b
       -0.0002197054 -0.0066316584 -0.044514492 0.0073508923
000180 b4 ea 7b 3d bf f0 04 be 18 e0 e4 bc b1 7f ae bd
       0.061503127 -0.12982462 -0.027938887 -0.08520449
000190 60 44 b7 bc c6 71 63 3d a8 1c ec 3d 03 aa 60 3c
       -0.02237147 0.055528425 0.11528903 0.013712409
0001a0 20 46 bc bd 25 b9 36 bc 93 00 bb bd 77 6b 0c 3d
       -0.09193063 -0.01115254 -0.09130969 0.034282174
0001b0 3e 47 83 bd 64 76 1a bd b0 50 bf ba 32 79 aa 3d
       -0.06410073 -0.037710562 -0.001459619 0.083238974
0001c0 2a 90 27 be 7f a4 8c bc 75 b6 21 bd aa 4b 8d bb
       -0.16363588 -0.017168282 -0.039480645 -0.0043119984
0001d0 c7 cc d6 3d b1 e5 2e bb 14 8a 6d bd d0 4e ba bd
       0.10488277 -0.00266872 -0.05799301 -0.090970635
0001e0 76 67 67 3c f5 94 05 3d 0f 5b 00 3e bb a1 04 bd
       0.014123788 0.03261276 0.12534736 -0.0323808
0001f0 d0 ae 26 3e 0d 62 10 be 86 26 54 3d b0 88 12 3e
       0.16277623 -0.14099903 0.05179455 0.14309955
000200 b6 9b 94 bd e6 7b dc bc 28 f5 74 3d 14 f8 56 3d
       -0.07256262 -0.026914548 0.05980411 0.05248268
000210 18 1a ec 3c f5 5e c0 3c 12 bd be 3c 26 8e 89 bd
       0.028821036 0.023482779 0.023283515 -0.06716566
000220 41 b8 98 bb 99 44 b1 3d aa d8 19 be 80 70 50 bc
       -0.0046606367 0.08655662 -0.15024057 -0.012722135
000230 0e 60 93 bc 53 c7 f4 3d 14 40 6f 3d 87 42 a7 3d
       -0.017990138 0.119520806 0.05841072 0.08166986
000240 5c cd 34 bd cf 80 db bd d1 bb 17 3d 61 2b d0 bb
       -0.04414116 -0.10717928 0.03704435 -0.0063528274
000250 9e 57 9e 3d 7d ff af bd 86 ab 86 bc 4d 4c 3e 3d
       0.077315554 -0.085936524 -0.01643921 0.046459485
000260 3b 7a c6 bc 4c 44 a1 bc 95 20 c7 bb 90 1e 12 3d
       -0.024228206 -0.019685887 -0.006076882 0.035673678
000270 1e 5b 6f 3d d3 51 32 3d 24 55 4a 3d c5 fc d5 3c
       0.058436505 0.043535065 0.049397603 0.026121506
000280 8e 8f 0d 3c fa 16 14 3d 1f 66 35 bc 4e e5 74 bc
       0.008640183 0.036154725 -0.011071711 -0.014947249
000290 fc b0 8f bd ba 49 6d 3d 3c ea 7c 3d 8e 79 56 3c
       -0.07016179 0.05793164 0.06174682 0.013090504
0002a0 3e b8 8c 3d 3a 00 de 3d 53 9a 56 3d 25 dc 7e 3d
       0.06871079 0.10839887 0.05239327 0.062221665
0002b0 dc 4c 29 3d 15 07 36 3d 24 1f bd 3c 63 56 bb bd
       0.041333064 0.044440348 0.023086138 -0.09147336
0002c0 d6 66 b1 3d ad 18 83 bd 9a 0f 2e 3d f8 4a bf 3c
       0.086621925 -0.06401191 0.042495348 0.023351178
0002d0 38 8a b9 3c 85 12 a9 bd b1 5e 8e bd 78 1b ff 3c
       0.022648916 -0.082554854 -0.06951655 0.031141028
0002e0 65 4e e7 bc 40 83 2e 3d 64 78 ef bd 79 6e 51 bd
       -0.028235624 0.04260564 -0.116928846 -0.051130746
0002f0 b4 97 59 bd 2e 65 b4 bc 69 95 45 bd 8e ea a5 3d
       -0.05312319 -0.022020902 -0.04823819 0.081013784
000300 f9 f0 ea bd f5 44 88 3d 6c e1 ea 3d 99 02 8f bd
       -0.11471743 0.066537775 0.11468777 -0.06982917
000310 3f 3a 91 3d 2b 6d b1 bc 6d b9 50 bc 88 3a 34 3d
       0.07091188 -0.0216585 -0.012739521 0.044001132
000320 30 b9 89 bd 44 29 30 bd 1f e2 77 3d 21 39 a7 3c
       -0.06724775 -0.043008104 0.06051838 0.020412983
000330 6b db 0a bd 23 d9 6c bc f9 41 75 bd 8c be c4 3c
       -0.03390066 -0.014456066 -0.05987737 0.024016641
000340 be 60 a2 3c 6e ab a4 bd 20 ca f5 3c 48 83 e9 3b
       0.01982152 -0.0804051 0.030003607 0.0071262456
000350 55 4b 48 3c 16 97 b3 bd 8f 18 0a 3d 82 8d 7d bd
       0.012224992 -0.08769052 0.033714827 -0.06190253
000360 ed 00 83 3d 48 e5 01 3d 34 8d bd bd d0 41 7d bd
       0.06396661 0.0317128 -0.09255448 -0.06183034
000370 13 b2 f4 3a b1 07 2b bb 16 c5 ec 3c c5 4a 32 3d
       0.0018668793 -0.0026097114 0.028902572 0.043528337
000380 7e 21 e0 bc 14 9a 7d bd e1 95 16 3b e7 62 67 bd
       -0.02735972 -0.06191452 0.0022977518 -0.056490805
000390 c9 35 b1 bb 52 fe 8a 3c b9 14 d8 3d f2 bb f4 bd
       -0.005408023 0.016966973 0.105508275 -0.1194991
0003a0 1d 4c 45 bd 04 64 1f 3d 21 5d d3 bb e2 8a 83 bc
       -0.04816829 0.03891374 -0.006450311 -0.016057435
0003b0 ca 40 c3 ba 38 db 58 bd d1 12 af bc be a2 6c 3c
       -0.0014896628 -0.05294344 -0.021371277 0.014443098
0003c0 f5 50 d8 bc 4f c0 39 3d 8c 1b e5 bc e2 28 5b bd
       -0.02640579 0.045349415 -0.027967237 -0.053505786
0003d0 6c 7b e0 bc b1 ab e6 bd 43 f4 98 3d 3e e1 05 3c
       -0.027402602 -0.11263216 0.07468464 0.008171378
0003e0 ad af 8d bc 19 99 74 3c 6d 94 14 bc af 19 af 3d
       -0.017295683 0.014929079 -0.009068591 0.08549821
0003f0 5c 5f d7 3c 62 36 4f bd c4 74 ba bc 7c 1f 23 bc
       0.026290588 -0.050588973 -0.022760756 -0.009956237

fc1.bias f4 [64]
000000 4b 81 3e 3c 67 99 69 3d 35 e4 3d bd cb 8f 91 3d
       0.0116275055 0.05703106 -0.046360213 0.071075045
000010 24 91 8d bd bf c1 a5 bd e2 f6 85 3c 12 9f eb bc
       -0.06912449 -0.08093595 0.016353074 -0.028762374
000020 8a 05 22 3c 93 ca a4 bc 2f 1d 80 bc 8f 8d 04 3d
       0.009889016 -0.020116126 -0.015638916 0.032361563
000030 ef 67 5f 3d e3 38 81 3d c2 bc d7 3d c0 8a 03 3e
       0.05454248 0.063096784 0.105340496 0.12845898
000040 0d 9d 5e 3d dc e2 d8 3c 78 c3 1f bc 6e cc 95 3d
       0.054348994 0.026475362 -0.009751193 0.073143825
000050 68 ea a0 3d 47 8a 83 bd 6d dd d9 bd 1e 59 3e 3d
       0.078572094 -0.06422859 -0.10637937 0.046471708
000060 b5 28 11 3d 49 c4 70 bd fe 2e f5 3c a7 07 bb 3c
       0.035439212 -0.058780942 0.029929634 0.022830797
000070 92 1b 30 3d 4b 7a b7 3d 2d 1f 4e bd d5 e1 8d 3c
       0.042995043 0.089588724 -0.0503227 0.0173196
000080 81 b3 a7 bd d2 40 09 3d e3 30 83 bd 09 1d fc bc
       -0.081885345 0.033509083 -0.06405809 -0.030775564
000090 42 6b 83 3d 99 40 38 3d 05 5f 68 3d 25 10 62 bd
       0.06416942 0.04498348 0.056731243 -0.055191178
0000a0 ed 83 10 3c 17 45 78 3d 66 fa e5 bd 77 7e 32 3d
       0.008820516 0.060612764 -0.112294 0.043577638
0000b0 92 07 d5 3d 1c 27 45 3c fb 6f 75 3d 43 2b 6d 3d
       0.104018345 0.01203325 0.059921246 0.057902586
0000c0 de 49 18 3e 3b 22 fc 3c b6 33 89 3a 32 c9 91 bc
       0.14871928 0.030778041 0.0010467682 -0.017796133
0000d0 8d 6e 2e 3d f7 ec 05 3e 66 67 ac 3a 91 dd 4d bb
       0.0425859 0.13078676 0.0013153374 -0.0031412581
0000e0 81 6e 9d 3c f8 b8 af bc 62 0c a5 3d 00 2d 48 bd
       0.019217731 -0.021450505 0.080590025 -0.04887104
0000f0 4e b5 55 3d 08 7d 32 3e 55 cd ee bb d3 d3 55 39
       0.05217486 0.17430508 -0.007287661 0.00020392174

lstm.weight_ih_l0 f4 [256, 64]
000000 15 ba 8b bb fe c8 02 3e 6b a8 14 3e 07 0d e2 3b
       -0.004264126 0.12771985 0.14517371 0.0068985256
000010 ef 32 8e bd 15 9a 3e bd dd 22 13 3c 41 0c 7b ba
       -0.069433086 -0.046533663 0.00898048 -0.0009576716
000020 b0 44 5b 3d 26 5d a8 3d 71 50 3d 3d 5c a1 8d 3d
       0.053532302 0.08220892 0.046219293 0.069155425
000030 3e 20 53 3d 19 85 b9 3d 32 d4 b8 3c fc ac 1e 3e
       0.05154442 0.090585895 0.02256212 0.15495676
000040 0c 45 a9 bd 57 0f 67 bd 46 37 85 3d 5d 7c bf bd
       -0.08265123 -0.056411114 0.06504683 -0.09349892
000050 c6 15 cb 3d 7f 7b 4d 3d f5 0c 24 3d 1b 94 66 3d
       0.09916262 0.050166603 0.04005142 0.056293588
000060 ad 52 9d bd 57 9d 9e 3d c1 cc f8 3d 97 47 eb 3c
       -0.07681785 0.07744854 0.12148429 0.02872066
000070 17 52 93 3d ac 50 90 3d dc 0a 76 3d 3c 05 3b 3d
       0.07193392 0.07046637 0.06006895 0.04565929
000080 23 3e 47 bc 97 14 8f bd f4 a2 13 3e 13 49 85 bd
       -0.012160811 -0.06986349 0.1441763 -0.065080784
000090 5b 5e ba 3d aa 50 99 bd 77 c9 fa bb 24 77 32 bd
       0.09100028 -0.074860886 -0.007653411 -0.043570653
0000a0 c9 d4 c4 bd 18 d6 9e 3d a5 74 19 3d fa cf 80 bb
       -0.09610898 0.07755679 0.037464757 -0.0039310427
0000b0 39 e1 37 3d 5f b3 f5 3d 89 f3 dc 3d 1d c7 3e 3d
       0.044892523 0.11997103 0.10788638 0.046576608
0000c0 f7 4a af 3d 23 16 05 bd da 73 cb bd ba 1c 9b bc
       0.0855922 -0.032491814 -0.09934206 -0.018934596
0000d0 c8 a4 3c bd 41 3f c5 bd 5b 18 1d 3d 39 92 c9 3d
       -0.046055585 -0.09631205 0.038353305 0.09842343
0000e0 bf 8c d9 3d 7d 54 32 3c d8 f3 fb 3d 6e 5b 03 3e
       0.10622548 0.010884401 0.12302369 0.12827846
0000f0 01 1c f9 bc 59 e9 96 bd e2 13 5f bb d8 d4 bf 3d
       -0.030408861 -0.07368726 -0.003403895 0.093667686
000100 a6 f7 c3 bd d4 7a e9 3d ad 2c 07 3e 4b c1 b0 bd
       -0.095687196 0.11400381 0.13200636 -0.08630618
000110 e0 6a 4c bd 9e 94 cc 3d 7b 0c b7 bd 04 12 ec bd
       -0.04990661 0.09989284 -0.08937927 -0.11526874
000120 6a 4b c8 3d 86 c4 3a 3b 9c 7f d7 bd 15 2d bf bd
       0.09780009 0.0028498485 -0.105223864 -0.093347706
000130 94 ff 66 3c 71 b1 43 bd 7b ea a8 bd 93 d9 22 3d
       0.0140990205 -0.047776643 -0.082478486 0.039758276
000140 4e e4 8a bd 53 5a 90 3d e6 82 d2 bd 1b 18 e2 3d
       -0.06781827 0.07048478 -0.10278873 0.11039754
000150 a2 ff 5c 3b 02 61 ff bd 9d b6 95 3d 83 25 05 bd
       0.0033721705 -0.12469675 0.07310221 -0.032506477
000160 4a ad 96 3d af 58 c0 b9 8a 7b d4 bd d7 18 cc 3c
       0.07357271 -0.00036687168 -0.10375126 0.024914188
000170 8a ed 8a bd 69 4f e4 39 eb 39 20 3d e0 e4 d2 3c
       -0.06783588 0.00043546714 0.039117735 0.025743902
000180 79 29 71 3d 21 f2 55 bd 27 b3 b7 3d 40 74 a1 bd
       0.058877442 -0.052232865 0.089697175 -0.07883501
000190 21 aa cf bd e7 99 49 bd b4 22 8c bd 4a b3 5c 3d
       -0.101398714 -0.04921904 -0.068425566 0.05388192
0001a0 2f 66 09 3e f4 6f 9b bd a3 67 20 3d bf 2b 9b bd
       0.13417886 -0.07589713 0.039161336 -0.07576703
0001b0 79 f6 88 3d 22 06 7e 3c 24 20 b2 3d 2e 75 45 bd
       0.06687636 0.015504392 0.086975366 -0.048207454
0001c0 31 83 bd bd 7e d1 11 bd 00 7e a2 bb 3b 0d 05 3d
       -0.092535384 -0.035600178 -0.004958868 0.03248332
0001d0 0a 8d ad bd ba a1 33 bd df a1 56 bc fb 26 f6 3d
       -0.08474167 -0.043855406 -0.0131001165 0.12019154
0001e0 d8 5b b3 3c 30 cf bc 3d 90 31 66 bd d9 2c 22 3e
       0.02189438 0.092192054 -0.05619961 0.1583742
0001f0 33 78 e3 3d 02 f9 cc 3d fd 12 c5 3c 38 d3 81 3d
       0.111069106 0.10008432 0.024056906 0.06339115
000200 f9 82 c0 bc ac 5a c5 bd 39 5b 8c 3d 3d 81 7e 3d
       -0.023499953 -0.09636435 0.06853337 0.06213497
000210 e6 bc 9f bd 32 ef ab bd ed 3a 8f 3d 12 8f 62 3d
       -0.077997014 -0.08395232 0.06993661 0.055312224
000220 b0 bc ce 3c 33 de 8c 3d 46 3f d2 bd 17 05 1c 3e
       0.025236458 0.06878319 -0.10265975 0.15236317
000230 d8 7d f4 3d 3f 55 8a bd 3b cc 39 3b 3a c9 e3 3c
       0.11938065 -0.06754541 0.002835049 0.027805913
000240 07 67 24 3d 72 14 fa 3b bc 07 9d bd 50 3c fa 3d
       0.040137317 0.007631832 -0.07667491 0.12218535
000250 e0 df 4c bd 7b cb 2e bd f2 31 9c bd 2b ba ba 3d
       -0.05001819 -0.042674523 -0.07626714 0.0911754
000260 61 f4 86 bd d8 d3 d1 bd b2 58 bf bd 47 df 35 bd
       -0.0658958 -0.10245484 -0.09343089 -0.044402387
000270 2a 48 5d bc 5c 6f f5 bc 9b 9c d2 3d f1 f2 b9 bd
       -0.013505975 -0.029960327 0.102837764 -0.090795405
000280 f5 cc e0 bc 59 2a 9b 3d ce bc de 3d 28 ff c8 3d
       -0.027441481 0.075764365 0.108758554 0.09814292
000290 f1 4e 37 3d 4f 3f 90 3d 6a 34 1b bd 64 dc ae bd
       0.04475302 0.07043325 -0.037891783 -0.0853813
0002a0 8f f1 05 3d 74 0a 99 3d 07 83 8c bd 8a 3f f4 bd
       0.03270107 0.07472697 -0.06860929 -0.119261816
0002b0 6b e1 15 bd eb bd bc bd e3 5f 86 bc 40 bf 2c 3d
       -0.03659193 -0.092159115 -0.016403144 0.042174578
0002c0 ab f3 ae 3c e3 60 a4 3a b1 bf 1a 3d 3a b1 d2 3c
       0.021356424 0.0012541082 0.037780467 0.025719274
0002d0 83 04 5f 3d e2 3b b2 3d 24 39 85 bd b9 20 a8 bc
       0.054447662 0.08702828 -0.06505039 -0.020523416
0002e0 5d 36 7c 3d eb 86 d9 bd 83 c0 c6 3d 2d 4b 89 3d
       0.061575282 -0.10621437 0.097046874 0.06703792
0002f0 d6 dc bc 3d 82 04 14 bd c7 c3 0f be ac 36 f4 3d
       0.092218086 -0.03613711 -0.14039527 0.1192449
000300 29 e8 bd bd d5 15 81 bd 98 83 24 3d cb a1 c9 bb
       -0.09272797 -0.06302992 0.04016456 -0.0061533204
000310 f3 88 b6 3c bc 9e dc bd 0b 2f bb bd b3 1e 33 3d
       0.0222821 -0.10772464 -0.09139832 0.04373045
000320 f8 f4 14 bc 4d 72 18 3e d8 4f f3 3c b5 1b 83 3d
       -0.009091608 0.14887352 0.029701158 0.06401769
000330 d3 3d a0 3d 34 1d b4 3b 8f 81 e3 3d 41 df 10 3a
       0.07824292 0.0054966453 0.11108696 0.00055264315
000340 6e 7e ce bd 81 c5 2c bd 4e 04 a0 bb 3f 85 71 3c
       -0.10082708 -0.042180542 -0.0048833257 0.014741241
000350 a6 b0 d1 3d 64 f9 0e bd 6f ec 05 3e ed 96 ad 3d
       0.10238771 -0.034905806 0.13078474 0.084760524
000360 9d 20 06 3e 27 58 07 3e 19 1d 65 3d 85 44 34 bd
       0.13098378 0.13217221 0.055935953 -0.044010658
000370 8c 9b 2c 3d dc 9b a9 bd b0 58 95 3c 3a 7f 51 3d
       0.04214053 -0.08281681 0.018230766 0.051146723
000380 61 d8 90 3d 9b 80 6d 3d c4 fe 09 bd a1 b3 a5 3b
       0.07072521 0.057983976 -0.03369023 0.005056814
000390 40 5f b9 3d b3 ca f6 ba a4 9b 8f bd ce 93 2b 3c
       0.090513706 -0.001882872 -0.07012108 0.010472251
0003a0 e7 85 33 bc 2b 02 9e 3d d2 04 d5 bd ee 8b 1f 3d
       -0.010957218 0.07715257 -0.1040131 0.038951807
0003b0 85 4b 10 3e ed 48 19 3e 14 60 72 3d c7 d1 9a bc
       0.14091308 0.14969225 0.05917366 -0.018898858
0003c0 9f 29 c5 3d 7b 7f 05 3e ae 79 3e 3d eb d7 e1 bd
       0.09627079 0.13036911 0.04650276 -0.11027511
0003d0 3d 55 67 bc 34 96 a9 bd af 5d be 3d fe f7 16 3c
       -0.0141194435 -0.08280602 0.092952125 0.009214399
0003e0 1d 31 a8 bb 3c a6 6f 3d c3 f6 93 3d 10 a1 70 3b
       -0.005132808 0.058508143 0.072248004 0.0036717094
0003f0 fb 45 05 3e 8e f8 56 3c d2 8b cc 3d d5 51 9a bd
       0.13014977 0.0131207835 0.09987606 -0.075351395

lstm.weight_hh_l0 f4 [256, 64]
000000 15 27 b7 bc 87 fd 21 bc e1 30 61 bd 72 eb 67 bd
       -0.022357503 -0.009887106 -0.054978255 -0.056621023
000010 4e 89 87 bd 70 59 e3 ba 18 b6 0f 3b 5c 48 0b be
       -0.06617986 -0.001734538 0.0021928605 -0.13601822
000020 00 b1 03 3e eb 69 e3 bd 2a fa e5 3c b7 1b 2a bd
       0.12860489 -0.111041866 0.02807339 -0.041530337
000030 15 3b 82 3d 51 48 9c bd f3 c9 ab ba 50 b0 8b 3d
       0.06358925 -0.07630981 -0.001310645 0.06820738
000040 6e ae c3 3d 6c 71 d3 3d 7e f7 ce bd 32 ad 3b bc
       0.09554754 0.10324368 -0.10105799 -0.011454867
000050 1c 98 a9 3d da 82 e8 3d 22 80 16 3b 0c cc 0a 3e
       0.08280966 0.11353083 0.0022964557 0.135544
000060 2c 5c 08 3a e5 d8 fe bd 20 9c f8 bc 93 9b 6d bd
       0.0005201723 -0.12443713 -0.030347884 -0.058009695
000070 b6 ab da bd d4 a6 2a 3c bd 0b a2 3d a0 f0 83 3d
       -0.106772825 0.0104157515 0.07912395 0.0644238
000080 f1 b1 08 3e 41 ad ad 3c 04 ed 63 3d bb f6 ae bd
       0.1334913 0.021200778 0.055645958 -0.08543154
000090 f3 11 dc 3d 44 09 f9 bd 35 61 00 be 0d 32 86 3d
       0.10745611 -0.121599704 -0.12537082 0.06552515
0000a0 58 53 4b 3b bb f0 96 bc be 67 7f bd f9 38 03 be
       0.0031025019 -0.018425336 -0.062354796 -0.12814702
0000b0 cf 29 2a bd 50 a8 bf bd 9f da 92 bd 4f 22 a1 3a
       -0.041543778 -0.09358275 -0.07170605 0.001229355
0000c0 bc e5 d2 bd d8 a7 14 be f3 64 f5 3c ef f4 d8 3d
       -0.102977246 -0.14517152 0.029955363 0.105935924
0000d0 85 6e f1 3d c4 df 3f bd 2b 77 09 be 34 cf ac bd
       0.11788658 -0.04684426 -0.13424365 -0.08437958
0000e0 12 f1 87 bd 26 99 14 be 5c c5 09 3e 67 dd aa bb
       -0.066377774 -0.14511546 0.13454193 -0.0052143815
0000f0 b2 30 57 3d 61 5a 95 3d 85 bd 49 3d 7c 0d 95 3d
       0.052536674 0.07292629 0.049253006 0.072779626
000100 db 80 ba bd 5a ec 7d 3c 52 23 fc bb d0 41 5e bc
       -0.091066085 0.015498245 -0.00769464 -0.013565496
000110 fb 15 e8 3c b1 da 29 bd 86 70 c2 bd 21 5c e3 bd
       0.028330794 -0.041468326 -0.094941184 -0.111015566
000120 36 a8 bb bd c9 ed 86 bd c4 7f a2 3c 7f b7 8b 3c
       -0.09162943 -0.06588323 0.019836314 0.017055271
000130 df ed 8b 3c 98 ca b9 bd 32 be ce 3d df 99 be bd
       0.0170812 -0.09071845 0.100948706 -0.09306692
000140 5b bf 20 3d 69 9c 9b 3d f0 77 47 bd ae fc 3a 3d
       0.03924499 0.07598192 -0.048698366 0.04565113
000150 12 4b 10 bd 8c 46 92 3d eb b2 f0 bd 4c f8 98 3d
       -0.035227843 0.07142362 -0.11752876 0.07469234
000160 27 1f f5 3c 7f 9c c6 3d a9 b2 57 3c b8 4d 06 3d
       0.029922081 0.09697818 0.0131651545 0.032788962
000170 43 92 da bc e1 b3 1d be 01 ee a3 bd 94 40 41 bd
       -0.026681071 -0.1540065 -0.0800438 -0.047180727
000180 7f 09 10 bc cf 6e 78 bc 60 df c7 3d a3 e9 fa ba
       -0.008791327 -0.015163138 0.09759402 -0.0019143115
000190 ec dd d5 3d 68 95 80 bd f6 19 4b bd 80 b5 28 3d
       0.10442719 -0.06278497 -0.049585305 0.041188717
0001a0 ae da 8c bd 2d 0c 7d bd ab 28 3f 3d 57 55 5c 3c
       -0.06877647 -0.06177919 0.046669643 0.013448081
0001b0 65 da a8 3d 9b 38 63 3d fe 80 1e bb 8a 2e 0e 3d
       0.082447805 0.055473905 -0.0024185772 0.03471235
0001c0 79 aa b6 3d af 5c e2 bd 58 74 d3 3d 1f ca 88 bd
       0.08919234 -0.11052834 0.10324925 -0.066791765
0001d0 8e 2f c2 bd 25 8a 92 3d cd 8b 85 3d 4b 5d 26 bd
       -0.094817266 0.07155255 0.065208055 -0.040616315
0001e0 e5 0f cb bd be 0a fb bc 5b ee b3 3d be 4a 75 3d
       -0.09915141 -0.03064477 0.08785697 0.059885733
0001f0 34 97 1d 3c 89 88 82 bd 07 5e 9b 3d ce 27 86 bd
       0.009618569 -0.06373698 0.07586294 -0.06550561
000200 a0 28 85 3c 08 1d d2 3d b7 72 b3 3d e4 28 01 3d
       0.016254723 0.102594435 0.087621145 0.031533137
000210 02 4d 82 3d 85 51 cc 3d 5f 93 8f bd 6b 63 c2 3d
       0.06362344 0.09976486 -0.07010531 0.09491619
000220 b5 11 5b bd ba eb 74 3d 80 75 96 bd 12 75 a7 bd
       -0.053483684 0.05979512 -0.0734663 -0.08176626
000230 85 87 9f 3c 13 62 e9 bd 55 09 68 bd 7b 18 b8 3d
       0.0194738 -0.11395659 -0.056649525 0.08989044
000240 0a b9 3d 3c 19 1a 82 3c ca fb 99 3d 2c 75 a1 3d
       0.011579761 0.015881585 0.07518728 0.07883677
000250 f7 c1 5d 3d 5b fa e5 bd 64 65 bd 3d 84 f5 be bd
       0.054140057 -0.11229392 0.09247854 -0.09324172
000260 08 00 83 bd f3 07 ca bd 24 e4 e7 3c f7 3a 1f bd
       -0.0639649 -0.098647974 0.028307028 -0.038874593
000270 4b 72 84 bc 30 fb 85 3d ec 4c e3 bd 18 d3 41 3d
       -0.01616778 0.06542051 -0.11098656 0.047320455
000280 13 2e b9 3d d3 7a eb 3d 83 51 4f 3d 74 4e ae bc
       0.09041991 0.11498036 0.050614845 -0.021277644
000290 0e 9a eb bd b1 11 af 3d 0c 84 96 3d bc 55 96 3d
       -0.11503993 0.08548296 0.07349405 0.07340571
0002a0 25 f7 99 bb 56 5c e6 bb b1 02 3a bc 3f 71 3b 3b
       -0.0046986514 -0.0070300503 -0.011353181 0.0028601435
0002b0 dd 91 03 3d 33 55 89 bc 16 03 e4 3d 70 04 08 bc
       0.032121528 -0.016764259 0.11133401 -0.008301839
0002c0 4f df 37 3d 3f bb a3 bd e3 94 92 bc 3a c0 92 bd
       0.044890698 -0.07994699 -0.01789326 -0.071655706
0002d0 cf 47 0d 3d 06 b5 9a bd 19 4a 35 bd f8 fd e9 bd
       0.03449231 -0.07554059 -0.04426012 -0.11425394
0002e0 8b 23 c5 ba 3f dc dc bd fb 17 a4 bd 60 df df bd
       -0.00150405 -0.10784196 -0.080123864 -0.10931277
0002f0 38 ef d1 bd 97 a0 8b 3d 6c 28 04 3e 8a 2a 40 3c
       -0.102507055 0.068177395 0.12906045 0.011728892
000300 6a d8 bf 3d 39 2a a2 bc 70 83 d4 bd ca 8c 53 bc
       0.093674496 -0.019795524 -0.10376632 -0.012911985
000310 73 bc 8e bd f1 18 0a 3e f0 cd fe bd 62 9a 99 bc
       -0.069695376 0.13486077 -0.12441623 -0.018750373
000320 bc 15 10 3e 0b 7f 3f bd 3b 31 e8 bd b1 47 e6 3c
       0.14070791 -0.046752017 -0.11337515 0.028110357
000330 e6 ca e8 3c 2d 71 33 bd 4e 2f 8c bd a4 84 27 bd
       0.028417062 -0.043809105 -0.0684496 -0.04089798
000340 07 ca 1e 3e 40 24 b4 bd 79 cc bc 3d ca 9a 40 bd
       0.15506755 -0.08795977 0.092186876 -0.04702262
000350 cd 08 17 bd 0f c8 00 bd 67 10 16 be 8b bc 02 3d
       -0.036873627 -0.03144079 -0.14654694 0.03191809
000360 be db 4a bd 69 99 07 3d 1a bf ab 3d 29 96 84 3d
       -0.04952597 0.033105288 0.08386059 0.06473953
000370 72 64 98 3c ca 46 d5 3d bb 6c c6 3d 9f e0 11 3e
       0.018602584 0.104138926 0.096887074 0.14245842
000380 af ac 0b 3d 03 d2 22 3d 5e 8a c0 bd 75 c8 4d 3d
       0.03410023 0.039751064 -0.094013914 0.05024
000390 38 17 33 bd 6c 25 35 bd a0 be 1e 3d ef 98 0f 3e
       -0.043723315 -0.04422514 0.038756013 0.14023183
0003a0 e8 df 19 bc 9d 6b 6a 3d 05 59 00 be 45 9b 2d 3d
       -0.009391762 0.057231534 -0.12533958 0.042384405
0003b0 06 70 83 bd 75 59 89 bd ef 1c b2 bd 0a d6 00 bd
       -0.06417851 -0.06706516 -0.08696925 -0.031454124
0003c0 d9 69 01 be 16 79 18 be 18 99 cc 3d dc 01 4c bd
       -0.12638034 -0.1488994 0.09990138 -0.04980646
0003d0 e6 4e 07 3e cd 1b 3f 3d b9 ce f0 39 f9 af 08 3e
       0.13213691 0.046657372 0.00045930388 0.13348378
0003e0 69 e1 02 3e b2 83 51 3d 48 3b d3 39 ca 34 4a bd
       0.127813 0.051150985 0.00040289224 -0.04936675
0003f0 9d 33 10 3e 21 d7 08 bd c4 59 dc 3d 77 be df ba
       0.14082189 -0.033408288 0.10759309 -0.0017070313

lstm.bias_ih_l0 f4 [256]
000000 fa 18 66 3d 08 9a 04 3c 5f ef 5b bd fe 10 c9 3c
       0.056176163 0.008093365 -0.05369508 0.024544235
000010 41 5f 0c 3d 39 b5 c0 3d 93 7a c2 3c c0 1b b3 3d
       0.03427053 0.094095655 0.023740089 0.08745527
000020 d1 3d 4d bd 3c bb 71 bd d9 f4 8c bd 7b 4e 4e bd
       -0.05010778 -0.05901645 -0.068826385 -0.050367814
000030 1e aa b8 3d 18 99 cb bd be 51 3b 3d a4 dc 9a bc
       0.09016822 -0.0994131 0.045732252 -0.018904038
000040 a0 d0 d6 bd 62 dd 7f 3d 01 85 29 be 39 8f c7 3d
       -0.10489011 0.062466986 -0.16554643 0.097441144
000050 00 90 80 bb 28 3c a2 3d 45 d9 0c 3e 46 6b a8 3d
       -0.003923416 0.0792163 0.13754757 0.08223586
000060 53 34 7e bd b0 b2 57 3c 2b 9a e6 3c 3c 5a d9 3d
       -0.06206162 0.013165161 0.028149685 0.10612914
000070 50 17 01 be 95 c7 09 bd 08 45 1c 3d 49 d4 e7 3d
       -0.1260655 -0.033637602 0.03815177 0.11319787
000080 99 56 18 3d eb 7f ae bd 06 0b ea bc 8c 0e 5f 3d
       0.03719196 -0.08520492 -0.02856971 0.054457232
000090 85 34 ed bd 06 2b c8 3d 98 b4 dc 3d 97 56 de bd
       -0.11582283 0.09773831 0.10776633 -0.108563595
0000a0 f6 d6 da bd 0f ff 11 3c 46 04 9e bd ee da 95 3d
       -0.10685532 0.008910908 -0.07715659 0.07317148
0000b0 ad 02 89 3d ea e3 1a be dc f3 82 bc 0d ee e8 3c
       0.066899635 -0.15126005 -0.015985422 0.028433824
0000c0 b6 6e 1e 3d 16 14 b6 3d 32 8b aa bc 5c 81 18 3d
       0.0386798 0.0889055 -0.020818327 0.03723274
0000d0 93 30 f9 3d c0 3d 90 3d 36 8b 71 bd 9c d3 8a 3d
       0.12167468 0.07043028 -0.058970653 0.067786425
0000e0 db 66 3d 3d a5 15 ce 3d ed 3c 08 be ff 56 89 3d
       0.04624067 0.10062722 -0.13304491 0.06706046
0000f0 ee 26 2a 3d 2c 70 be 3d aa 9d 0e 3e 9a 09 2a 3e
       0.041541032 0.09298739 0.13927332 0.16605225
000100 d0 1d 23 3d 53 ac ab 3d aa c5 32 3d 9a fc a9 3d
       0.039823353 0.083824776 0.04364554 0.08300133
000110 87 f5 f6 3d e4 8e 53 3d 0f 56 7b 3d d2 95 d8 bb
       0.120585494 0.051649943 0.06136137 -0.006609657
000120 ee 99 b9 3c ed 05 ee 3d c1 37 9a bb fa 0a 92 3d
       0.022656407 0.11622224 -0.0047063534 0.07131
000130 db 87 8e 3d f5 01 b8 3d 4f 06 e5 3c b6 21 1e 3e
       0.06959506 0.08984748 0.02795711 0.15442547
000140 d1 f5 b4 bd d8 50 d6 bc 0b 74 7b bd 1d 1a c2 3d
       -0.08835948 -0.026161596 -0.061389964 0.09477637
000150 f9 ea 8c 3c d6 b9 6a 3c dc 0a 51 bd 1f 0c 2d 3d
       0.017201887 0.014326533 -0.051035747 0.042247888
000160 91 87 95 bd 45 8b c3 3d e4 86 aa 3c 62 d2 1e 3e
       -0.07301248 0.09548048 0.020816274 0.15509942
000170 cd 5a b1 bc 09 7c 3a bd 53 cb 26 be 14 2b d6 bd
       -0.021649742 -0.045528445 -0.162885 -0.10457435
000180 49 3a 8c bc 60 13 87 3d 7e 98 f3 3c d8 87 10 3e
       -0.017117636 0.06595492 0.0297358 0.1411432
000190 5d 02 f2 3b 0f 39 09 3e 1a b0 74 3b cd 76 67 3d
       0.0073855356 0.13400672 0.003733641 0.05650978
0001a0 a1 40 15 3d cb 7e 74 bd 60 a4 fb bc f6 01 86 3d
       0.036438588 -0.05969123 -0.030718029 0.06543343
0001b0 ea 88 ba bd 2d ff 05 be f6 36 ac 3d f3 c5 30 3e
       -0.091081455 -0.13085623 0.084089205 0.17263012
0001c0 ef ca 2e bd 99 1c 16 3e 0e 9c a0 3d 8e d4 f2 bd
       -0.042674 0.14659347 0.07842265 -0.11856948
0001d0 34 97 06 bb 92 f0 88 bd 54 16 ea 3c 51 69 59 bd
       -0.0020536901 -0.0668651 0.0285751 -0.053078953
0001e0 6e 64 e4 bd 9e da ab 3d 82 4c 2c bd 02 84 96 bd
       -0.11151968 0.08391307 -0.04206515 -0.07349397
0001f0 c8 15 9a bd 47 85 ae bc 57 e6 d6 3c 82 b9 0e 3d
       -0.07523686 -0.021303786 0.026232881 0.034844883
000200 eb 54 fc 3d ed 16 e9 3c 5e 51 ac 3d 9a d7 02 3d
       0.12320884 0.028453315 0.08413957 0.031943895
000210 99 f0 e5 bd 16 89 8a 3d dc 52 d8 bd cc 93 d7 3c
       -0.11227531 0.06764428 -0.10562679 0.026315592
000220 8e f8 31 bc 10 3d 9d bd b5 6e 16 be aa 28 58 bd
       -0.010862483 -0.076776624 -0.14690669 -0.052773155
000230 6b 6b 32 3b fd 2e 54 3d c7 b7 bb bd a7 f8 dd 3d
       0.002722467 0.051802624 -0.09165912 0.10838442
000240 22 68 3a 3c 2b af b3 3d c1 9b 06 be f0 c2 81 3c
       0.011377366 0.08773645 -0.13145353 0.015840024
000250 ab 2e 07 bd bd 84 df 3d 60 d5 bc bd 1a 5b 33 bd
       -0.03300349 0.1091399 -0.092203856 -0.043788053
000260 37 0c f3 3d ba 09 90 bd df 45 03 3e 88 87 84 bb
       0.11867564 -0.07033105 0.12819622 -0.004044477
000270 12 47 d1 3d 08 92 22 3d 9f 98 37 bd 6a 43 28 bd
       0.10218634 0.039690048 -0.044823285 -0.041079916
000280 87 8f f2 3d d4 65 d3 3b 4c b3 20 3d 62 d1 26 3e
       0.11843782 0.006451348 0.03923349 0.1629081
000290 3b 9c a0 bc 3d bd 1e be ad 5b b6 bd 54 c6 ae 3d
       -0.019605746 -0.15501876 -0.089042045 0.08533922
0002a0 71 9e 96 bc 2a 95 b7 bd c0 7d bf bd 52 aa 1f 3b
       -0.018386098 -0.08963998 -0.09350157 0.0024362993
0002b0 68 b1 0b be 92 67 fc bd af 94 a3 3d e0 43 38 3d
       -0.13641894 -0.12324442 0.079873435 0.044986606
0002c0 65 c5 f8 bd e3 4f 1d bd dc 35 07 3e ad 12 36 bd
       -0.12147025 -0.038406264 0.1320414 -0.044451404
0002d0 7d c1 14 3e 2e f2 f1 3c 8b 70 73 3c bc 1c 83 3d
       0.14526935 0.029534426 0.014858375 0.06401965
0002e0 7a 6d ab bd e7 cc 01 be 72 e2 79 3c 91 d5 85 3d
       -0.0837049 -0.1267582 0.015251743 0.06534875
0002f0 86 ef 43 bc 7e 79 c7 3d fc 44 7f bd 3a 0e f9 bc
       -0.011958962 0.0973997 -0.062321648 -0.030402292
000300 f1 43 9e 3d 28 78 93 3c a3 83 6e 3d ab b6 02 3e
       0.077278025 0.01800163 0.058231007 0.12764995
000310 02 ae 74 bd d7 15 3a bd 00 58 36 3e b8 72 2a 3d
       -0.05973626 -0.045430984 0.17807007 0.04161331
000320 14 cc 06 bd 9a 7e 4a 3d f7 0c 0a 3e 5c 4a cb bd
       -0.032909468 0.049437143 0.13481508 -0.09926292
000330 02 70 bf 3d 99 35 0d be a9 0b 23 bd 3f d8 21 3e
       0.09347536 -0.13789977 -0.039806042 0.15805148
000340 d5 f4 20 3e 3f 8c 0f be 06 97 f4 3b 4e 01 ef 3d
       0.15718396 -0.14018343 0.0074642925 0.11670171
000350 dd c7 ad 3c 99 59 00 be bd 5a ce 3d cd 16 ac bd
       0.021213466 -0.12534179 0.10075901 -0.084027864
000360 19 cd dd bd 0a 8d 0f 3d 20 2a 1f 3c c6 22 03 3e
       -0.10830135 0.035046615 0.009714633 0.12806234
000370 f2 da 83 3d 18 a5 83 3b 79 11 b5 bc 6d ac 39 bc
       0.06438245 0.0040174834 -0.022103058 -0.011332613
000380 dd 5a 0f 3e 64 8a cb bd 33 76 31 be 74 8a 3e 3d
       0.13999505 -0.09938505 -0.17330246 0.046518758
000390 a2 3b 1c be 3a db 48 bd d5 fd 6c bc 77 25 0d 3d
       -0.15257123 -0.049037196 -0.014464815 0.034459557
0003a0 d4 7c 28 be 27 ba 10 be 04 47 f1 bd f3 37 01 3e
       -0.16453868 -0.14133511 -0.11781123 0.12618999
0003b0 a2 de 25 be 7d a0 ce bd de 24 2d 3d db 9f 23 3d
       -0.16198209 -0.100892045 0.042271487 0.039947372
0003c0 be 2c 25 3c ff a5 db 3d 85 4e c3 3d 43 db a6 3d
       0.010081468 0.107250206 0.09536461 0.081472896
0003d0 ca 44 07 3d 91 4f 63 3d a9 df ab 3d 71 1f 9f 3c
       0.033024587 0.055495802 0.08392269 0.019424172
0003e0 63 9d 8b 3d 1b 0f b3 3c 32 bc 9b 3d 0a 64 38 3c
       0.068171285 0.021857789 0.07604255 0.01125432
0003f0 a0 f5 fb bd 3f 29 49 bd f8 e7 b6 bc 19 50 a3 3d
       -0.123027086 -0.0491116 -0.022327408 0.07974262

lstm.bias_hh_l0 f4 [256]
000000 7b 04 27 3c f3 c0 5a 3d 47 29 b4 3d 97 8f 43 3d
       0.010193939 0.053406667 0.087969355 0.04774436
000010 19 14 db bc 63 d9 9c bd 12 b6 69 3d c7 de 81 3d
       -0.026742982 -0.07658651 0.0570584 0.063413195
000020 6e 14 ff bc f9 51 af 3d 10 41 d9 3c 57 21 13 bd
       -0.031137671 0.08560557 0.026520282 -0.035920467
000030 a2 c4 b0 3d 54 47 77 3d 57 78 f8 bd a5 a1 06 bd
       0.08631255 0.06037076 -0.12132328 -0.032869
000040 c5 0e 0b be b3 66 18 3c cc 4f a1 bd e2 86 12 3e
       -0.13579853 0.009301829 -0.07876548 0.14309266
000050 0a 91 ab 3d b7 9d 1b 3e 37 85 0b 3e cd db d4 bd
       0.083772734 0.15196882 0.13625036 -0.10393486
000060 29 29 42 3d ca 91 b0 bc ee 13 e8 3d 15 03 79 bd
       0.047402535 -0.021553893 0.11331926 -0.060793955
000070 23 11 6f 3d 78 8f 03 3e 9a cd 38 bd df 3a 88 bc
       0.058365952 0.12847698 -0.045117952 -0.016629634
000080 a9 1d e7 bd c7 1a 8a bc 9f 50 58 bd a7 de 9e 3d
       -0.11284954 -0.016858472 -0.05281126 0.07757311
000090 d4 b7 c1 bd 70 19 1e bd fd 0e 36 3d 27 46 ab 3d
       -0.094588906 -0.038598478 0.044447888 0.0836299
0000a0 73 9e 83 3b 1f 41 ae bc 3f 25 e9 bd 48 72 c8 3c
       0.0040166914 -0.021271287 -0.11384057 0.024468556
0000b0 6f 14 ea bd f6 48 80 3d 9f c2 09 be ad 30 28 3e
       -0.11429679 0.06263916 -0.13453148 0.16424818
0000c0 d7 55 c0 bd 24 af cf 3c 14 42 be bd 0e a2 9b bc
       -0.09391373 0.025352068 -0.09289947 -0.018998172
0000d0 10 de 28 ba a9 b8 4a bd 50 f4 b8 3c 57 c2 6a bc
       -0.00064417813 -0.049492512 0.022577435 -0.014328561
0000e0 0b ce a9 bd f4 ad 9e bc fc d2 b8 bd 0d dc a0 3c
       -0.08291253 -0.019370057 -0.09024617 0.019636178
0000f0 bc bb 9e bd 1a 96 d8 bd 0f 3b a2 bd 58 09 31 bd
       -0.07750651 -0.105755046 -0.07921421 -0.0432218
000100 15 28 e6 3d cf 0a eb 3d f8 b1 83 3d 26 ef 7d 3d
       0.11238114 0.11476671 0.06430429 0.061995648
000110 57 1b 17 3e 57 ce 99 bd ef b9 24 3e 7b 39 13 3e
       0.14756523 -0.07510059 0.16086553 0.14377396
000120 5c 5f 61 3d a3 17 4c 3d 56 97 40 3d d1 64 38 3d
       0.055022582 0.04982723 0.047019325 0.04501802
000130 88 1e ac bc e0 30 55 bd 70 08 6e 3d 7c 27 64 3d
       -0.021010652 -0.052048564 0.058113515 0.055701718
000140 e0 81 c3 bb 5b 27 12 3e 9f 4b 05 3b 9d 68 27 bd
       -0.00596641 0.14272825 0.0020339263 -0.04087125
000150 d4 f8 a1 3d 94 52 96 3d 43 76 c9 3c 14 47 9e bd
       0.07908788 0.07339969 0.024592524 -0.07728401
000160 e4 87 58 bc 9d f5 09 bd 28 01 93 bd 2b 9a ad bd
       -0.013215993 -0.0336815 -0.07177955 -0.08476671
000170 29 76 55 bd a7 39 4b 3d 40 1a 36 3d 11 1c 69 3a
       -0.05211464 0.04961553 0.044458628 0.0008892427
000180 eb 88 1d 3c c4 8f e8 3c 63 25 a0 3d fa 94 c1 3c
       0.009615163 0.028388865 0.07819631 0.023630608
000190 e0 c6 14 be 97 2e a1 3d 7a c8 3d bd 3b 3b d4 3d
       -0.1452899 0.078702144 -0.046333767 0.1036286
0001a0 0f 8a 50 bd a8 70 d1 bd 1d f6 85 bc a8 94 59 3c
       -0.050912913 -0.102265656 -0.016352708 0.013280071
0001b0 9d 14 4d bd 31 07 34 be 92 d8 8b bd c5 90 af 3d
       -0.050068486 -0.17580868 -0.06828417 0.085725345
0001c0 40 d0 13 3d 66 25 eb 3d db 20 eb 3c 8d ef cc 3d
       0.036087275 0.114817426 0.02870219 0.10006628
0001d0 9e fe 0a 3e 52 c2 9e 3b 9a 45 42 ba 98 34 8a bd
       0.13573691 0.004844942 -0.0007410884 -0.06748313
0001e0 f9 e1 81 3c e8 e8 9e 3b 58 c0 b1 3d 9b 8a d7 3d
       0.015854822 0.004849542 0.08679265 0.10524484
0001f0 d9 0e 81 bb 29 36 c1 3d e6 31 e5 3d 20 fd bb 3d
       -0.0039385376 0.09434158 0.11191158 0.09179139
000200 95 64 30 3e 78 b9 81 3d 04 fd b4 3d fa 9b 1b be
       0.17225869 0.063342035 0.088373214 -0.15196219
000210 46 ef 8d bd eb 83 f4 bb d0 65 01 be 77 61 15 be
       -0.069304034 -0.007462015 -0.12636495 -0.14587961
000220 8e 41 bd bd 85 4f 23 3c 0e 05 03 be c6 6b e4 3d
       -0.09241019 0.009967689 -0.12794897 0.11153369
000230 2d c7 c4 bc 6e 23 ef 3d a1 2f 16 be 09 a8 09 3e
       -0.024020756 0.116766796 -0.14666606 0.13443007
000240 65 cd 10 3e 0b 71 7c 3d 0f 7e bf 3d 8d c1 e8 bd
       0.14140852 0.061631244 0.09350216 -0.11365042
000250 ac 9e d3 ba 75 0d 3a 3e a9 83 b3 bc f3 df e9 3d
       -0.001614531 0.18169196 -0.021913366 0.11419668
000260 9c 96 fc 3d 16 ff 27 be 3f 28 19 3d 8c 77 18 be
       0.12333414 -0.16405901 0.037391897 -0.14889354
000270 70 da ca bd 1e 74 3e bc 50 60 ee bd 54 5c 9f 3d
       -0.09904945 -0.011624364 -0.11639464 0.07781282
000280 82 84 00 3e ca b6 f9 bd e3 98 0d bd fa 07 d6 bc
       0.12550548 -0.12193067 -0.034569632 -0.02612685
000290 63 fd 3d bd c4 57 a4 bd 95 63 9b 3d 38 e6 0f 3e
       -0.046384227 -0.080245525 0.07587353 0.14052665
0002a0 8e 1d 54 3b 60 53 f2 3d 4e 20 b7 bd d5 4d 0f 3d
       0.0032366249 0.11832309 -0.089417085 0.034986336
0002b0 56 35 89 3d a5 e2 74 3d af 08 e0 3d 24 db c1 3d
       0.06699626 0.059786458 0.10939156 0.09465626
0002c0 c4 fa 06 bd a5 eb ef bd 2a ba 99 bd 26 f5 42 3d
       -0.032953992 -0.117148675 -0.07506211 0.047597073
0002d0 43 c4 cb 3d 98 e6 14 bd c2 ea ad bd 9e b9 1f 3c
       0.09949543 -0.036352724 -0.08492042 0.009748844
0002e0 4d ee 4b 3d fc 80 87 bd c7 3a 12 3c ed 42 11 3c
       0.04978781 -0.06616399 0.008925146 0.008866054
0002f0 6c cf fe 3d 09 a4 8a bd 63 5c 04 3e b6 9f 8b bd
       0.12441906 -0.067695685 0.12925868 -0.06817572
000300 5b 78 05 bd b0 06 0e bd fd 5c b9 bd 06 0f 2f 3e
       -0.032585483 -0.034674346 -0.09050939 0.17095575
000310 62 b4 0f 3e 4f 41 10 be d2 ba ef 3d 56 07 01 3e
       0.14033654 -0.14087413 0.11705555 0.12600455
000320 cb 37 48 bd 27 cb 69 bb 14 a2 1b 3e a4 6c 59 bd
       -0.048881333 -0.0035674067 0.15198547 -0.053082123
000330 94 00 eb bd 70 49 b8 3d bd c4 08 bc cc 2d e4 3b
       -0.1147472 0.08998382 -0.008347687 0.006963467
000340 28 07 8b bc 7b 41 a2 bd a8 8e 38 3d 94 52 eb 3d
       -0.016971186 -0.07922646 0.045057923 0.1149036
000350 88 50 35 3e 20 92 82 bd be 79 eb 3b 70 ea e7 bd
       0.17706501 -0.063755274 0.0071861437 -0.11324012
000360 9a de bc bc 5c 90 d9 3d 32 7a b7 bd 16 4a b6 3d
       -0.023055363 0.106232375 -0.08958854 0.089008495
000370 92 39 58 3d a0 53 c5 bc 6f 70 82 3c f7 bc 56 bb
       0.05278928 -0.024087727 0.015922753 -0.003276644
000380 1d 9b b0 bd 74 84 0d bd 2c 2e 9d bd 23 7e 76 bd
       -0.086233355 -0.034550145 -0.07674822 -0.060178887
000390 d6 6e fe bd cf 3c 96 3d 8c 93 da 3d fd c6 34 3d
       -0.12423484 0.07335817 0.106726736 0.044135083
0003a0 2d 66 30 be 21 6f 7f bd 5e 4c 49 3d 94 aa e3 3d
       -0.17226477 -0.06236184 0.049145095 0.111165196
0003b0 be 04 e8 bd 26 a2 4c bd 3c 60 1d be 65 e4 33 3e
       -0.113290295 -0.049959324 -0.15368742 0.17567594
0003c0 45 e7 bf 3c 7b 1a 90 bd 99 01 b5 bc 22 33 6d 3c
       0.023425708 -0.07036301 -0.022095488 0.014477523
0003d0 5e f2 3d bd 7f 76 10 3d ff 1b 97 3d 74 aa 0c bc
       -0.046373717 0.035269257 0.07378387 -0.008585561
0003e0 c2 08 03 3e 6e d7 8f bd 58 ad 93 3d 5b b3 5b 3d
       0.1279631 -0.07023512 0.07210797 0.053637844
0003f0 ad 39 b3 bd 39 16 ab bd 40 46 d2 3c 6d 7d e9 bd
       -0.08751235 -0.08353848 0.025668263 -0.11400876

fc3.weight f4 [1, 64]
000000 19 df dc bd 19 99 82 bc 09 bf 1d bc 3b 4e b7 3d
       -0.1078474 -0.015942143 -0.009628066 0.08950468
000010 69 e3 a7 3d 1e 7b b5 bd 6d a5 f2 3d c3 fd 2f 3d
       0.08197672 -0.08861373 0.11847959 0.042966615
000020 45 a9 a9 bd 2a 6f 69 3d 8f a7 f4 3d 8f 5e c9 3c
       -0.08284239 0.05699078 0.11946022 0.024581222
000030 e5 2f 0b 3d 88 f4 b7 bd cf fc 03 3d 92 53 09 be
       0.033981223 -0.089821875 0.03222352 -0.13410786
000040 ba 93 43 bd 03 27 84 bc 9e 9e 62 3d 28 e6 a3 3d
       -0.047748305 -0.016131883 0.05532705 0.08002883
000050 08 92 d9 bd b5 75 8e bd d9 f6 75 3c a7 d6 d9 bc
       -0.106235564 -0.069560446 0.015012466 -0.026591612
000060 e4 d4 16 3c bb 45 90 3d 03 a8 55 3c ef 9b 21 3d
       0.0092060305 0.0704455 0.013040545 0.03945535
000070 25 74 5d 3d ec f3 dd 3d 25 c8 97 bc 29 0b 88 bd
       0.054065842 0.1083754 -0.018528054 -0.06642754
000080 ef 42 ae bc f3 80 06 38 44 e2 9f 3d e3 9e 3a bd
       -0.02127215 3.2068183e-05 0.078068286 -0.045561682
000090 52 14 1f 3c 50 07 40 3d de 9e 50 3d e9 40 d2 3b
       0.009709435 0.046881974 0.050932758 0.0064164293
0000a0 24 c1 f0 bc 49 ce a9 bb ed cc 9c bb 53 2c 64 3d
       -0.029388972 -0.005182062 -0.0047851712 0.055706333
0000b0 6f e4 82 3d 2c 70 4b 3c 52 4d 87 3a 60 71 9e bd
       0.063912265 0.012416881 0.0010322726 -0.07736468
0000c0 35 79 71 bb 9e 0d 8a 3d e5 8c a4 bc 5f 7e d2 bc
       -0.0036845927 0.067408785 -0.020086715 -0.025695024
0000d0 07 f1 c6 bd b0 1a 31 bd 99 9d f8 b9 73 2f 02 3c
       -0.09713941 -0.04323834 -0.00047419665 0.007945883
0000e0 8e 85 1f bd ca 50 51 3d 20 c6 8a bd 4b 76 ca bd
       -0.038945727 0.051102437 -0.067760706 -0.09885844
0000f0 d1 14 31 bc 3d 7c 2d bd a0 23 1e bc f8 78 06 3d
       -0.010808186 -0.04235481 -0.009652048 0.03283021
