a_t/u_t_continuous/a_t_model/epoch_2_ut_train.pth (torch_old, 185441 bytes, 11 tensors)

u_t_model.fc1.weight f4 [64, 64]
000000 c3 d7 74 be 04 6c c6 3d 00 6a 83 be db 6d 8f be
       -0.23910432 0.09688571 -0.2566681 -0.280135
000010 92 e3 19 be b3 55 25 be 85 b5 41 bd 38 23 49 3c
       -0.15028217 -0.16145973 -0.04729225 0.012276463
000020 23 9b 58 3e 69 b7 8e 3e df a5 5f be bc 05 f0 be
       0.2115293 0.27874306 -0.21840619 -0.46879375
000030 a7 9e 57 3e d6 8b d6 3d 83 4d 87 be 32 d1 e6 3d
       0.21056615 0.1047589 -0.26426324 0.112703696
000040 29 c0 21 3e 14 ac 8e be c0 96 55 bd 7f 32 f7 bd
       0.1579596 -0.2786566 -0.05214572 -0.12070178
000050 6b c7 9a 3e 75 6a 85 3c ef 2d 9c 3d 16 67 54 3e
       0.3023027 0.016286114 0.07625949 0.20742449
000060 5a 29 78 3d b2 1a b6 3d 11 54 04 bd 27 7e 0f 3c
       0.06058631 0.088918105 -0.032306734 0.008758104
000070 27 2f 61 be 34 03 8a 3c f8 aa 21 3e fb 3d 17 bf
       -0.21990643 0.01684723 0.15787876 -0.5907895
000080 aa 2d 59 be 77 72 83 3e 27 5e 25 be ac 01 44 3f
       -0.21208826 0.25673267 -0.16149198 0.7656505
000090 1b f7 88 3e 6c bc c7 3e 50 06 14 b8 16 7f e6 3d
       0.26751027 0.39010942 -3.529183e-05 0.112547085
0000a0 8f cd 62 be d1 aa 32 3e 2d 50 36 be 7c 7f cc bd
       -0.22148727 0.17447974 -0.17804022 -0.09985253
0000b0 77 3e f6 bd 16 e1 a9 3e 76 3d 1f be f4 5e de 3d
       -0.12023633 0.3317954 -0.15550789 0.108579546
0000c0 d0 58 30 be 01 56 f5 be 12 51 d5 bd 89 71 ea 3d
       -0.1722138 -0.47917178 -0.104158536 0.11447436
0000d0 e4 17 04 be f5 17 f8 be a3 1d 53 be 68 95 27 bd
       -0.12899739 -0.48455778 -0.20616774 -0.04091397
0000e0 34 5b a1 be 32 a8 68 bb dc 32 47 3e 88 15 89 3d
       -0.31514895 -0.0035500643 0.19452995 0.0669356
0000f0 9c e6 87 be 65 d3 8c 3a 39 9b 99 3e fc aa 56 bf
       -0.26543128 0.0010744153 0.30001238 -0.8385465
000100 ad 84 ba be b5 81 bc 3d 39 c4 1b be 1d d3 47 be
       -0.3642935 0.09204427 -0.15211572 -0.19514127
000110 13 39 0f be d0 e0 f3 39 92 81 da bd 06 8a e0 3d
       -0.13986616 0.0004651607 -0.10669245 0.10963826
000120 a4 55 02 3e b7 66 8a 3e 25 d3 22 be 46 9f f2 be
       0.12727982 0.2703149 -0.15900858 -0.4738714
000130 27 fe 2e 3e 7a f9 d1 3d 01 6b 9f be ce c7 92 bd
       0.17089139 0.10252662 -0.31136325 -0.07167016
000140 0c 4c 31 3e bf 1f 0b be 0b 6f eb bd 9d ea e1 bd
       0.17314166 -0.13586329 -0.11495789 -0.11031077
000150 17 ed 8f 3e f2 87 cb bd db 89 c5 3d 14 53 02 3e
       0.28110573 -0.09938039 0.096454345 0.12727004
000160 5d 08 cc 3c e5 04 13 3e 89 ff de bd 9a ee c0 3d
       0.024906332 0.14357336 -0.10888583 0.0942051
000170 35 5a 93 be 84 1f fd bc 73 80 4f 3e b3 46 1e bf
       -0.2877976 -0.030898817 0.20263843 -0.6182663
000180 ee 70 39 be f1 8d cc 3d f5 6f bf 3d 48 ba 06 3f
       -0.18109486 0.09988011 0.09347526 0.5262799
000190 07 ab c9 3e 48 68 e2 3e 98 eb a4 3d d9 87 42 3e
       0.39388296 0.44220185 0.080527484 0.18997134
0001a0 e3 18 b2 be 93 30 5d 3e 48 44 44 be 23 70 0e 3d
       -0.34784612 0.21600561 -0.19166672 0.03477491
0001b0 a2 1d ac be 75 41 a1 3e b1 f5 eb 3d c2 f7 17 3e
       -0.33616358 0.31495252 0.11521471 0.14840606
0001c0 dc d8 31 be a9 ec d8 be 08 dd 48 bd 2f 42 2d 3d
       -0.17367882 -0.42368057 -0.049038917 0.042299446
0001d0 12 9d 8b be 2a 05 b9 be 9f 01 8f bd 3a 05 fd 3d
       -0.27268273 -0.36136752 -0.06982731 0.123545125
0001e0 be d5 e8 be a3 f6 7a bd 26 6b a5 3e 52 17 81 3d
       -0.45475572 -0.061270367 0.3230831 0.06303276
0001f0 95 a9 be bd 3f c4 0f bc 65 98 69 3e 42 9e 4b bf
       -0.09309689 -0.008774816 0.2281204 -0.7953836
000200 f3 d5 d7 3c f8 10 b4 3e 2b 63 ef bd 6e ab e8 3e
       0.026347136 0.35169196 -0.11688837 0.4544329
000210 7d 3b b9 bd 87 7f 8c 3e c2 7b 86 be dc 51 92 bd
       -0.090445496 0.27441046 -0.26266295 -0.0714452
000220 c9 99 e3 3c 2f 7b 91 bd 2b a2 d1 be b9 de 57 3e
       0.027783291 -0.071035735 -0.40944037 0.21081056
000230 33 72 8b 3d 78 38 3b be 67 3a d7 be 37 24 83 bd
       0.06808891 -0.1828326 -0.42036745 -0.06403392
000240 0a 75 4e be 8a ce a1 be a0 17 d1 be eb d6 45 3e
       -0.20161834 -0.3160289 -0.40838337 0.19320266
000250 2c 11 24 3e f6 75 d3 be d6 a2 a3 3e b2 52 aa 3d
       0.16022176 -0.41300935 0.3196017 0.08316554
000260 bd 64 3c 3f 33 f3 3b bf 1e 93 06 be b5 00 1b 3e
       0.73591214 -0.7341797 -0.13142058 0.15136988
000270 41 11 27 3c 71 b0 3c bf 92 2f 96 bd a0 e9 06 be
       0.010196985 -0.7370673 -0.07333292 -0.13175058
000280 5c d8 35 3e cb eb 85 be a8 45 af 3e 7f af 3a bf
       0.17758316 -0.26156458 0.3423283 -0.72924036
000290 d7 5c 82 3f dc 5a 02 3e 1c b9 62 3e 8f 5e a3 3e
       1.0184582 0.12729973 0.22140926 0.3190808
0002a0 5c 9e 36 be a6 7d f2 3e 02 49 09 3e 64 5c 2e 3e
       -0.17833847 0.47361487 0.13406757 0.17027432
0002b0 e7 ed 49 3d 53 7d 1b bf 5a 41 f4 3c ca 46 47 3f
       0.049299147 -0.60738105 0.029816318 0.7784239
0002c0 cf 6d d1 3e 0d 3a cd 3e 49 c7 4c bd 1e 5b 1c 3e
       0.4090409 0.40083352 -0.04999474 0.15269133
0002d0 b7 eb a0 be 1e a7 47 be 73 6f 3a 3c 3e f6 46 3f
       -0.31429836 -0.19497344 0.011379111 0.77719486
0002e0 b9 c2 2e bd a0 f9 9c 3d 0f 50 26 be 27 46 7e bd
       -0.04266617 0.076648 -0.16241477 -0.06207862
0002f0 9b d3 c5 3e 63 8e f0 3e 17 3c f9 3e 6c f9 b8 be
       0.38638005 0.46983632 0.48678657 -0.36127794
000300 69 10 b8 3e b3 51 47 3d e8 fb 0d 3f d1 a9 be bd
       0.3595002 0.0486619 0.55462503 -0.09309734
000310 01 18 f5 3a 0c 0e 40 3b ca 4a f9 bd 16 e2 e7 be
       0.001869917 0.0029305248 -0.12172468 -0.45289677
000320 8b 0f a2 3e 68 aa 25 be bb a1 3f 3f d7 40 f2 bb
       0.31652483 -0.16178286 0.74856156 -0.0073929834
000330 ed 21 9f 3e a1 eb 27 be 8f 53 4c be 31 6d a1 be
       0.3108057 -0.16398479 -0.1995375 -0.3152862
000340 7b 97 bb 3c bd 62 60 be f1 53 8d 3e 17 13 04 3e
       0.02289938 -0.21912666 0.27603105 0.12897907
000350 86 05 b1 be f0 5c ae be 36 0c 6f be d8 78 e5 bc
       -0.34574527 -0.3405528 -0.23344502 -0.028011724
000360 5e 1f cf be f7 4a e4 3d a7 ff 49 3e b4 17 2b bd
       -0.4045362 0.11147111 0.1972643 -0.041770652
000370 18 42 8d 3e 03 68 d6 3e 77 36 e3 be d4 38 88 be
       0.27589488 0.4187623 -0.4437749 -0.26605856
000380 50 34 ec bd b7 67 62 be 14 6d 50 be 8f 32 e1 be
       -0.11533415 -0.22109877 -0.2035411 -0.43983886
000390 76 d0 21 be a6 33 63 3e e7 3f 00 be 1d 64 d1 3e
       -0.15802178 0.22187671 -0.12524377 0.40896693
0003a0 86 cc 91 3e 28 86 4e 3f c4 bc 16 bf da 75 88 3d
       0.28476351 0.80673456 -0.58881783 0.066631034
0003b0 e4 ed 8c be ab 23 e1 3c f9 88 90 3e c3 54 cd 3c
       -0.27525246 0.027482828 0.28229502 0.025064832
0003c0 a8 41 dd be 2b 25 0d 3e d8 7c e2 bd 72 ac de 3d
       -0.43214154 0.1378371 -0.11058968 0.10872735
0003d0 4f 40 00 3e d7 f3 28 be 2d 7e ed 3e 9e 17 c4 be
       0.12524532 -0.16499268 0.46385327 -0.38299268
0003e0 66 da 87 3c ac 35 77 3e c7 5c ad be de 6e b0 3c
       0.016583633 0.24141568 -0.33859846 0.02153724
0003f0 3b d5 d0 3d ed da 08 be 2a ed 96 bd 21 ac f9 3e
       0.101969205 -0.13364764 -0.07369454 0.48764136

u_t_model.fc1.bias f4 [64]
000000 6d a8 5f be 83 56 c0 be 66 64 ee be 58 a7 40 3e
       -0.21841593 -0.37566003 -0.46560973 0.18813837
000010 d0 6e cd 3d 63 3f 02 bd 78 20 67 3e 6f 1c 76 be
       0.100309014 -0.03179873 0.2257098 -0.24034284
000020 4a ba e4 bd cc ef 17 be 92 4d f8 be 21 81 c5 be
       -0.11168344 -0.14837569 -0.4849668 -0.3857508
000030 93 c5 14 be 7e 34 5e 3d 0b c0 96 be 6c 32 39 3e
       -0.14528494 0.05424928 -0.29443392 0.1808564
000040 c9 8b ed be b6 83 3c be fa 24 a5 3c 14 82 52 be
       -0.4639571 -0.18409619 0.020159233 -0.20557433
000050 58 d4 c7 be 16 0d 23 3e 93 2b b7 bd 24 b4 ae be
       -0.39029193 0.1592296 -0.08943858 -0.3412181
000060 4e 8a 5c be 8f 27 bf be c7 e5 48 3e 6e f9 68 be
       -0.21537134 -0.37334868 0.19618903 -0.227514
000070 8e 9a 14 3d 3a c3 c0 be 24 9d de be 00 36 4e bc
       0.036280207 -0.37648946 -0.43479264 -0.012586117
000080 0e 90 b0 be 6d fb f6 be fe ce af bd 90 10 94 bd
       -0.34484905 -0.48238698 -0.085844025 -0.072297215
000090 9b 25 e5 bd 31 4f ca be 1d 76 65 be 2f 62 83 be
       -0.11188813 -0.39513543 -0.22408338 -0.25660846
0000a0 90 6a 71 3d 55 32 77 be 69 24 70 be 36 61 f7 be
       0.058939517 -0.24140294 -0.2345139 -0.48316354
0000b0 09 5b ea be 1d 2b 19 be 90 8d 4c be de 5e 3f be
       -0.4577258 -0.14957853 -0.19975877 -0.18688533
0000c0 96 aa dd be 2b e6 02 bf 63 49 b9 be 3a 5d 08 bf
       -0.4329421 -0.5113246 -0.36188802 -0.5326725
0000d0 2c 7d 33 bd 7f 07 c5 be 5a f1 c0 be 18 66 33 3d
       -0.043820545 -0.38482282 -0.37684137 0.043798536
0000e0 6f cf ff be 28 04 b6 be 8d 5d d3 be fe 20 ad be
       -0.49962947 -0.35550046 -0.4128231 -0.33814234
0000f0 b2 5e de bd 9a 04 52 3e 5b 2e 3f 3d ba 98 a5 be
       -0.108579054 0.20509568 0.046675067 -0.32343084

u_t_model.fc2.weight f4 [2, 64]
000000 0a 24 f4 3b 10 05 8b 3c 2c e8 7c be c2 8e 80 3d
       0.0074505853 0.016970187 -0.24697942 0.06277229
000010 0a 3c 3c 3d 03 46 9a 3d 8e 30 1b 3e 0b 3d d9 bd
       0.045955695 0.07532885 0.15155241 -0.10607346
000020 75 1b bd bd ac 15 c2 3d 7a ba a6 bd a1 d0 b0 bd
       -0.09233753 0.0947679 -0.08141036 -0.08633543
000030 bc 27 f1 3c ee d3 d4 3d 34 d4 81 3e 2b 64 f1 3d
       0.029437892 0.10391985 0.2535721 0.11786684
000040 36 90 88 bd ba e8 8c bd ca bb ca 3d 00 2c 62 3d
       -0.06668131 -0.068803266 0.09899099 0.055217743
000050 12 44 b9 3d 68 b9 fa 3d 08 46 44 be 9c ab e3 bd
       0.090461865 0.12242395 -0.1916734 -0.11116716
000060 78 0b 36 3e dd 43 0f be 65 b5 47 3d 3e b8 04 3e
       0.17777812 -0.13990732 0.048756976 0.12960908
000070 04 f1 ba 3d 79 68 a8 bd cd 89 a7 bc 90 2b ed 3d
       0.09128001 -0.082230516 -0.02045145 0.115805745
000080 27 51 82 3d ce 8d 0e bd bc 1b 83 3d 34 29 11 3e
       0.06363135 -0.034803204 0.06401774 0.14175874
000090 48 97 dc 3d 2e ee e9 be 9a 6e 96 3c 13 95 be 3d
       0.10771042 -0.4568953 0.018363286 0.093057774
0000a0 3f 2a 2c 3e c2 11 17 bd 89 7e 0e 3e 86 1f 86 bd
       0.1681299 -0.03688217 0.13915457 -0.06548981
0000b0 7e a1 4a be 64 17 6d bd b1 c9 a3 3c 7a 9c 86 bc
       -0.19788167 -0.057883635 0.019993635 -0.016432036
0000c0 53 44 84 bd 20 12 25 be 41 3b 61 bc dc 38 83 bd
       -0.06458344 -0.16120195 -0.013747037 -0.064073294
0000d0 68 83 11 3e 9f 04 45 bd 28 33 df bd e7 02 b6 3c
       0.14210284 -0.04810011 -0.10898429 0.02221818
0000e0 33 77 31 3c e4 b1 4b be 36 73 05 be 3c 4d 3d be
       0.010831642 -0.19892079 -0.1303223 -0.18486494
0000f0 3a d9 31 3d ca 9b 16 3e a9 3b 1f 3d 08 e3 9b bd
       0.043420054 0.14707866 0.038875256 -0.07611662
000100 c6 18 92 3d be c3 b5 3d 95 3d aa 3e 8e 4d 82 bd
       0.071336314 0.088752255 0.33250108 -0.06362449
000110 4a 09 32 be e8 18 49 be 58 7b 56 3d e7 7e d6 bc
       -0.17386356 -0.19638407 0.052363724 -0.026183559
000120 f4 98 96 3d 0d 8a f1 bd ac c9 a9 3d a2 a4 68 3e
       0.07353392 -0.11793909 0.08290419 0.22719052
000130 29 fb db bd 01 5f fb bc 57 ee 17 be 5c 9e 00 3c
       -0.107412644 -0.03068495 -0.14837013 0.007850256
000140 de 14 88 3d 5e 9c 34 3e 6c f4 9b bd 83 aa 8f be
       0.06644605 0.17637774 -0.07614979 -0.28059778
000150 51 e5 2a be c3 8d dd 3c f4 ff 43 bd a3 8a 20 3e
       -0.1668904 0.027045136 -0.047851518 0.15677886
000160 09 7f 1c be c9 b1 2d 3e 29 b2 1e be 48 14 29 be
       -0.15282835 0.16962351 -0.1549765 -0.16511643
000170 86 ab b8 bc c8 08 0c 3e cb bb ba 3d db 1e f6 3b
       -0.022542726 0.13675225 0.0911785 0.0075110025
000180 a7 d0 25 3e 95 c3 d6 3d 1b a4 a5 bd bd 89 37 be
       0.16192876 0.10486523 -0.08087941 -0.17923637
000190 f9 5c 32 bd 7c 1f b0 3e 4c f0 08 3e 93 13 9f bd
       -0.043545697 0.3439902 0.13372916 -0.07767405
0001a0 c2 bf 19 3d 80 7c ed 3d 56 54 03 be 1e b7 38 3e
       0.03753639 0.11596012 -0.1282514 0.18038604
0001b0 6a 2b 5f 3e a3 dc 77 3c 47 ff 23 be fd 55 04 be
       0.21793905 0.0151282875 -0.1601535 -0.12923427
0001c0 3a df ae 3c 64 9f 99 3d 08 d6 92 3d 16 c8 e9 3d
       0.021346677 0.075011045 0.071697295 0.114151165
0001d0 96 d5 47 3d 9f eb e9 3d 48 a1 4d 3e 59 ba ba bd
       0.048787676 0.11421894 0.20081055 -0.09117574
0001e0 07 8a 0e 3e 0a 9c 09 3d 40 31 1c 3e 47 c2 e9 3d
       0.13919841 0.033596076 0.15253162 0.114140086
0001f0 ef 45 e4 bd 28 fb 7d 3d 78 be 01 be 7f 1c 2a 3e
       -0.11146151 0.0620071 -0.12670314 0.16612433

u_t_model.fc2.bias f4 [2]
000000 f1 76 c9 be 5f 9c 88 3e
       -0.39348558 0.26681802

fc1.weight f4 [64, 128]
000000 72 7b 64 be ab df 9c bd 46 4b 4d be c6 8b b7 3d
       -0.22312716 -0.07659849 -0.20048246 0.089622065
000010 a8 7a ea 3d 04 58 a5 3b 35 4e c7 bc da 18 ae 3c
       0.11449176 0.0050458927 -0.024329284 0.021252085
000020 c9 ca c0 bd af 3d 90 be 70 e8 88 3e d5 47 82 3d
       -0.09413678 -0.2817206 0.26739836 0.06361357
000030 5e 97 2f be fd 5f 7d bd 2b 76 b5 bd c8 ff 1b be
       -0.17147586 -0.06185912 -0.088604294 -0.15234292
000040 9c 98 7e 3e b4 0b 2b 3e f4 c4 e8 ba 54 60 7e be
       0.24862903 0.16703683 -0.0017758892 -0.24841434
000050 b0 ca 8c 3d 57 f3 bd 3d 4f bd 8d bd 3c 06 99 bb
       0.06874597 0.09274929 -0.069208734 -0.0046699326
000060 3f 6b a6 be 31 71 59 3e 69 b0 07 be af 46 8f 3d
       -0.32503697 0.21234585 -0.13250889 0.06995904
000070 18 ff 9a bd 45 8f 10 3e 2c d3 33 3d 77 03 be bd
       -0.075681865 0.14117153 0.04390256 -0.092780046
000080 fa 30 a5 3d 40 73 4a bd ea 73 9f 3d 19 ed 8b 3d
       0.08065982 -0.049426317 0.07785781 0.06832332
000090 59 bd 30 3e 21 d0 c8 3c 14 b7 28 be 5c 73 0b 3e
       0.1725973 0.024513306 -0.16476089 0.13618225
0000a0 b4 74 b4 3d 9c b2 09 3d c4 09 2d be 52 27 0b 3e
       0.08811322 0.0336176 -0.16898257 0.13589218
0000b0 55 9e f2 bd 0f 17 94 3e 0a 21 77 3e 55 fb ba bd
       -0.11846606 0.28923842 0.24133697 -0.09129969
0000c0 0d f2 56 3e bf d5 8e bd f1 5d 08 3e 04 c0 b0 3d
       0.20990773 -0.069743626 0.13317086 0.08630374
0000d0 a4 54 46 be 1f 27 a4 bc d7 2b 4a be e0 28 90 3e
       -0.19368225 -0.020038186 -0.19743286 0.28156185
0000e0 26 85 dc bb ef f0 c9 bd 03 95 8b 3e 1e 6d e5 bb
       -0.0067297397 -0.098604076 0.27262124 -0.007001533
0000f0 5e 89 50 3d dd 93 91 3d fd a3 2d 3e 9d 91 5b bd
       0.050912254 0.07108281 0.16957088 -0.053605665
000100 33 b7 6b 3e 49 4e 9a 3c c8 28 4c be 3c a6 a8 3e
       0.23019104 0.018836157 -0.19937432 0.32939327
000110 49 e3 89 bb 54 c1 75 3e d9 81 c9 bd 30 51 74 3e
       -0.0042080027 0.2399953 -0.098392196 0.23859096
000120 c0 3e 4e 3d 2c aa a5 be a6 21 08 3d d3 4a 75 bc
       0.05035281 -0.32356393 0.033235215 -0.014971453
000130 6b ea a7 be ab 94 c4 bc 3a b1 cf 3d 9c f4 87 3d
       -0.32796034 -0.023996672 0.10141225 0.066384524
000140 69 6d 8f 3b 30 a6 d2 3d 28 94 92 be f4 31 9a bd
       0.0043770564 0.10285604 -0.2862866 -0.07529059
000150 28 7a 1d be 5d b9 f9 3d a9 3b 58 bd 7e 8d 3c 3e
       -0.1537863 0.12193558 -0.05279127 0.1841335
000160 53 4a 1a be 0f 25 4e be d0 95 04 3e 70 12 45 3e
       -0.15067415 -0.20131324 0.12947774 0.19245315
000170 bc 0e 22 be 78 76 c7 bc 68 b8 23 3d da e7 56 39
       -0.15825933 -0.024348482 0.039970785 0.00020495002
000180 ba 1b 00 3e 7c 58 a0 bc 09 07 25 3e d5 92 0e 3e
       0.12510577 -0.019573443 0.16115965 0.139232
000190 36 51 8f 3e b2 47 25 3e 54 b3 a4 be 20 1a 52 3e
       0.27991647 0.16140631 -0.32168067 0.20517778
0001a0 f9 cb 02 3d c0 8b fd bb 80 20 87 be 12 b9 83 3e
       0.031932805 -0.0077376068 -0.26391983 0.25727135
0001b0 55 ce 1e be 28 a4 5f 3e f5 d6 b8 3e de 38 f2 3d
       -0.15508397 0.21839964 0.361015 0.11827253
0001c0 7c c5 b5 3b d2 28 05 be db 19 22 3e 44 92 0f be
       0.0055472236 -0.13003853 0.15830176 -0.1402064
0001d0 52 17 65 be ee 57 c1 3e 48 c5 80 be 9a 07 53 bd
       -0.22372177 0.37762398 -0.25150514 -0.05152092
0001e0 2c 2f 8f be 29 34 84 be 2b 75 60 3e b5 e4 40 3e
       -0.27965677 -0.25821045 0.21919696 0.18837245
0001f0 d1 ae c5 be b2 f4 88 3d e9 87 76 be 48 22 eb bd
       -0.38609937 0.06687297 -0.24075283 -0.11481148
000200 6e bd 8b 3e e0 9f 6d bd 2a 74 c0 3d bc 60 11 bd
       0.2729296 -0.058013797 0.093971565 -0.035492644
000210 57 a5 ae 3c 08 50 24 3e 85 c3 17 3d 16 60 82 be
       0.021319075 0.16046154 0.037051696 -0.25463933
000220 be 8e 36 3d d6 58 8f 3e ee 6a fc 3d ee e5 a8 bc
       0.044569723 0.27997464 0.12325083 -0.020617452
000230 f5 4d fd 3e c7 7d 85 3d 29 7f 8d 3c b6 ec 21 bb
       0.4947354 0.06518131 0.017272549 -0.002470774
000240 54 31 7b 3d d1 6c 11 bb 67 fb 25 3e 5f 7c 43 bd
       0.06132634 -0.0022190104 0.16209184 -0.04772603
000250 cd bf 37 3e f3 07 3d 3d e0 f6 eb bd aa e1 22 bd
       0.1794426 0.04615016 -0.11521697 -0.03976599
000260 3f 8e ac 3e 5a 7d 79 3d 4e d4 84 be 74 b0 80 be
       0.33702275 0.06091056 -0.25943226 -0.25134623
000270 16 f4 01 3e 2a c3 8e 3d d1 87 46 3d 78 2b 3e 3d
       0.12690768 0.06970818 0.04846937 0.046428174
000280 f8 d4 27 3e 09 19 a4 bd 49 ce 1f 3d 51 7f 01 be
       0.16389835 -0.080125876 0.03901509 -0.12646224
000290 cb 9a ff bd c3 ac b3 3e ca 5f e8 3d fd 8a 94 bd
       -0.12480696 0.35092744 0.11346395 -0.072530724
0002a0 20 20 bb 3d 8e 20 4d be 87 29 49 3e de 76 ae 3b
       0.09136987 -0.2003195 0.19644748 0.0053242287
0002b0 6a ab b9 3d a6 c3 e9 bb 47 0c ad be 2a af 12 bd
       0.09065898 -0.007133919 -0.3379843 -0.03581158
0002c0 e2 4a 27 be 12 15 4a 3e 12 85 38 3e 3f c6 a4 3e
       -0.1633716 0.197346 0.18019512 0.321825
0002d0 1e 51 4a bc 82 a5 99 bd 2f a1 ae 3e be 54 19 3d
       -0.012348441 -0.07502271 0.34107348 0.037434332
0002e0 c7 61 f4 3a d6 b8 97 3e fc fa 59 be 2d 26 8c 3e
       0.0018644863 0.29633206 -0.21287149 0.27372876
0002f0 6d 46 6a bd b5 ad 35 3d 4b f1 ef bd ad 6e a0 3d
       -0.05719607 0.044355113 -0.11715945 0.0783361
000300 0f 16 f8 bd 78 55 cf bd 1c 8a 1e 3e 66 e1 1b 3e
       -0.12113582 -0.10123724 0.15482372 0.15222701
000310 93 c7 95 3d 6e 90 6f 3e 3a d6 ac 3d 54 77 14 be
       0.073134564 0.2339494 0.08439298 -0.14498645
000320 a9 01 77 3e 4c 1b af bd 0b 48 3d be 30 92 43 3e
       0.24121727 -0.08550128 -0.18484513 0.19098735
000330 52 86 0b 3e fc 3e 25 3d d7 d7 24 be 76 7c 08 3e
       0.13625458 0.04034327 -0.16097961 0.13328728
000340 bd 51 b5 bd 99 93 6f bc 55 b0 ef 3d 41 d1 32 3d
       -0.08853481 -0.014622592 0.117035545 0.04365659
000350 a4 1d 94 3e 85 8d 61 be 0e 2e 8b bd dd 15 9a bc
       0.28928864 -0.22026642 -0.067958936 -0.018809253
000360 dc e8 dc 3e 3f f0 a0 3e 77 42 0a be 26 6c 23 be
       0.43146408 0.31433293 -0.13501917 -0.15959224
000370 32 4a b1 3c a4 fd d8 3d 60 8a 11 bd 6c 7b 88 be
       0.021641824 0.10595253 -0.035532355 -0.26656663
000380 c1 dd ba 3d f5 0f ae 3e 61 1b 2c 3e fe 30 6e be
       0.091243275 0.3399655 0.16807319 -0.23260877
000390 05 13 25 be ac 92 b5 3e e7 60 b6 bd 3a 0d d9 3c
       -0.16120537 0.35463464 -0.089052014 0.026495565
0003a0 14 db 40 3e 7d ec d4 bc 78 2e a1 3e f4 2a 3e be
       0.18833572 -0.025991673 0.31480765 -0.18571073
0003b0 7a 1c 94 3e d7 bd e6 bd a5 8d b8 be 72 0a 00 3e
       0.28927976 -0.11266678 -0.36045566 0.12503985
0003c0 23 3d 2a be ba 4a 10 be 89 4f 90 bb ea 6d 2a 3d
       -0.16624884 -0.14091006 -0.0044040126 0.04160873
0003d0 5e d1 7c 3e 6f 3e c4 bd f4 c9 9d 3e e2 7c 6a be
       0.24689242 -0.09582221 0.3081814 -0.22899202
0003e0 cb d3 f5 3e eb 20 91 3e c3 d8 11 bf 4d 88 69 be
       0.48013148 0.28345427 -0.5697138 -0.22805901
0003f0 dd 69 5d bd 07 a6 80 3e 8a 6f 1f 3e da 34 2d 3e
       -0.054056037 0.2512667 0.15569893 0.16914693

fc1.bias f4 [64]
000000 b9 59 32 3e 18 5c e5 bc 61 94 1a 3e 3a 14 b6 3c
       0.17417039 -0.027998015 0.15095665 0.022226442
000010 97 0a d7 bc 3d cd ae 3d df a6 64 3e 74 6e fd bd
       -0.026250167 0.0853524 0.22329281 -0.12374583
000020 21 20 90 bc 7f f5 64 bd 46 0c c2 3d fb 63 ed 3b
       -0.017593445 -0.055898186 0.09474997 0.0072445846
000030 29 bb c7 bd 51 65 79 bd d1 98 d3 bd 45 70 4a bc
       -0.09752495 -0.06088764 -0.10331882 -0.012355869
000040 0d 0c 25 3d ef c8 94 bd 72 28 3c be a5 e6 35 be
       0.040294696 -0.072648875 -0.18374804 -0.17763765
000050 c8 b4 d1 3d 8d d1 2d 3d 30 bd 48 bb f2 7c 91 3c
       0.102395594 0.04243617 -0.0030630343 0.017759774
000060 c8 2f 61 3e c0 f5 85 bd 1b 56 6d 3d f5 67 1e 3e
       0.21990883 -0.06541014 0.057943445 0.15469344
000070 b4 8d a4 bd ec 56 c4 bd 7b e7 61 bd 2d 20 93 bd
       -0.0803484 -0.095868915 -0.055152398 -0.071838714
000080 19 62 86 bc 56 9a 8a bc 67 25 a7 3c e2 38 9b 3d
       -0.016404198 -0.016919296 0.020403577 0.07579209
000090 fc 96 b2 3d 01 49 9e 3d 75 64 5b bd 74 0a 52 bd
       0.08720204 0.07728768 -0.0535626 -0.0512795
0000a0 21 e8 0d bd 37 f7 b8 bc f5 ae 0c 3d bf a5 a4 bc
       -0.034645204 -0.022578819 0.03434654 -0.020098565
0000b0 ad 07 ee 3c 0c 45 c0 bd a3 c1 00 bc c0 be 3c 3d
       0.029056394 -0.0938817 -0.007858667 0.04608035
0000c0 a9 de 7d bc 26 06 0b be 65 e2 c6 bd 7e f1 30 bd
       -0.015494981 -0.13576564 -0.0971115 -0.043199055
0000d0 47 02 8c 3d c1 19 c5 3d 3e 14 b9 bd 54 47 a3 bd
       0.06836372 0.09624053 -0.09037064 -0.07972589
0000e0 0f 83 ba bd ef df 92 3c 7e 37 e9 bd 75 89 ac 3d
       -0.09107029 0.017929045 -0.113875374 0.08424655
0000f0 dd d1 78 bb 4f d9 14 3d e3 f8 27 3c 8f a8 74 3d
       -0.0037966885 0.036340054 0.01025221 0.059731063

lstm.weight_ih_l0 f4 [256, 64]
000000 fd 6f c7 3c 9a 55 11 3e 94 87 21 3e a3 15 59 3d
       0.024345392 0.1419281 0.15774375 0.05299915
000010 1a 78 60 3e 00 5e 8c 3d e5 9e d5 bb c8 10 d6 3b
       0.21920815 0.068538666 -0.006519186 0.006532762
000020 78 de 91 bd 96 32 49 3d a8 64 57 3e f7 62 a0 3c
       -0.07122511 0.049120508 0.21034491 0.01957844
000030 98 9c b8 bd 4f 57 77 3d d4 ea 75 bd 41 40 51 3d
       -0.09014243 0.060386 -0.060038403 0.051086668
000040 dd 69 0f 3e c1 c2 e2 bd ed b8 4f bd a0 43 a5 3d
       0.14005227 -0.110723026 -0.05071347 0.08069539
000050 14 6b f6 ba 36 c2 20 3e 63 34 52 3d 00 45 0d bd
       -0.0018800222 0.15699086 0.05131949 -0.03448963
000060 68 50 df 3d 8e 7f df 3a 68 5b 2b 3d fd ac 7a 3c
       0.10904008 0.0017051564 0.04183522 0.015300033
000070 a2 b3 ad 3d 52 c8 64 3c 09 84 06 be 7d fe 51 3c
       0.08481528 0.013963776 -0.13136305 0.012817022
000080 2d 0e 3e bd 0d 96 4c 3d 20 e9 67 3e 2e cf 3a 3e
       -0.046400238 0.049947787 0.22647524 0.18243095
000090 98 86 72 bb bf 8c ef 3d ab cc 99 bc c4 ef d0 3c
       -0.0037006494 0.11696767 -0.018774351 0.025504954
0000a0 17 f1 49 3e 2e b4 d9 3d e7 10 ba 3d a6 27 fb 3d
       0.19720875 0.1063007 0.09085255 0.12263422
0000b0 10 18 d9 3d e6 ec d0 bc b1 db 76 3c 2e f0 93 bd
       0.10600293 -0.025503587 0.015067027 -0.07223545
0000c0 5c 38 bb 3d ff 87 fe 3d b2 2d 3a bd 41 63 98 bd
       0.09141609 0.12428283 -0.045453735 -0.07440806
0000d0 e1 53 9d 3d f9 87 15 3e 87 6e b1 3d a3 28 c1 3d
       0.07682014 0.1460265 0.086636595 0.09431579
0000e0 74 0b bd bd 2d c0 3e 3d 4d 74 9d 3d da 24 be 3d
       -0.092307 0.04656999 0.07688198 0.09284373
0000f0 ad 5b 0b 3e 80 98 46 3e 72 54 a6 3d bc 29 cd 3d
       0.1360919 0.19394112 0.081215754 0.10017726
000100 97 87 16 bc 3f 10 c2 3d ab 22 9e 3e 1e 53 19 3e
       -0.009187601 0.09475755 0.30885825 0.14973113
000110 07 99 7b bc df b1 8d 3e 98 81 e9 ba 69 08 d0 bd
       -0.015356309 0.27674767 -0.0017815111 -0.10157854
000120 dd a9 44 3d b2 3c 25 bd 84 2c 82 3e 37 df 9c 3d
       0.048013557 -0.040341087 0.25424588 0.07659762
000130 c8 17 4e 3e 6c e8 3e 3c 54 49 c3 bc 93 7d 9e 3d
       0.2012626 0.011652093 -0.023838677 0.07738795
000140 da 88 10 bd dd cb c9 bd 7b ba 50 bc d4 83 29 3d
       -0.03528676 -0.09853337 -0.012739773 0.041385487
000150 dc a2 15 3d 6b 1f 02 3d 28 33 2c 3b a4 87 1b 3e
       0.036532268 0.031768244 0.0026275609 0.15188462
000160 37 0d a9 bb a6 7c 98 3d 56 c6 07 3d 3d 5b 60 3e
       -0.005159046 0.0744565 0.033148132 0.21909805
000170 d1 29 d9 3d a1 cd 1d 3e 81 c2 d5 3c 0a 56 9d 3d
       0.10603679 0.15410472 0.026093723 0.07682426
000180 d4 2f b4 bc 75 e7 97 3b 8a 09 8a 3d 60 63 ad 3d
       -0.021995462 0.004635746 0.06740101 0.0846622
000190 83 3e 0c 3e c4 ac cd 3d e6 49 2e 3d 63 d7 44 3e
       0.13695721 0.10042718 0.042550944 0.19222789
0001a0 09 23 ba 3d 91 6c 1c 3e 77 34 56 3e 0b 9b 0d 3d
       0.09088714 0.1527579 0.20918451 0.03457169
0001b0 87 51 16 3d c2 87 3b 3e e1 25 45 3d 03 4f da bc
       0.036698844 0.18313506 0.048131827 -0.026649004
0001c0 0d 32 ce 3c db 5a 86 3d 86 3a 62 3c dc c3 e9 3d
       0.02517035 0.06560298 0.013807898 0.1141431
0001d0 c0 8e e9 bd 70 24 fa 3d 9b 6b 0d 3c 87 dd b1 3c
       -0.114041805 0.12213981 0.008631612 0.021712078
0001e0 93 a4 b5 bc 40 3b 0d 3e 0c 52 27 bc c4 ec a6 3d
       -0.022173202 0.13792133 -0.010212433 0.08150628
0001f0 35 2a fa 3d 52 7b 58 3e 89 17 b1 3d 6e 51 09 3e
       0.122150816 0.21140793 0.08647067 0.13409969
000200 8a fd 2f bd 2a 98 a4 bc e1 88 0f 3e 4d 88 9f 3d
       -0.042966403 -0.020092089 0.14017059 0.07789669
000210 e7 0d f2 3d d6 41 b6 3c d9 ad c1 3d bc 7b 85 3d
       0.11819058 0.02224819 0.09456987 0.06517741
000220 00 3c fa bd 01 78 0a be e3 96 ff bb 98 f2 32 bd
       -0.12218475 -0.1352234 -0.0077999695 -0.043688387
000230 92 8d f8 3d 90 58 34 3e 42 46 4f bc de 6d 56 3e
       0.121363774 0.17611909 -0.012651028 0.20940349
000240 34 7c e7 bc 14 f3 de 3d 43 39 a1 3d 8d 2c 20 3c
       -0.028257467 0.10886207 0.0787225 0.009776247
000250 38 90 b6 3c 91 d4 8b bd d0 1f 63 3a 56 6d c9 3d
       0.022285566 -0.06827653 0.0008664103 0.09835307
000260 f2 a5 38 bd 42 83 53 3d 49 e1 b9 3d 24 04 11 bd
       -0.045080133 0.05163885 0.09076173 -0.03540434
000270 08 75 e6 bc c7 94 1d 3e c2 d5 28 3d 80 bf 9a 3d
       -0.028131977 0.15388785 0.04121948 0.07556057
000280 4f 80 0b 3c 0f 38 62 bd de 5a 9a 3d 55 1d fe 3d
       0.008514478 -0.055229243 0.07536863 0.124079384
000290 d0 71 00 3d a4 e0 92 3d 37 8e f2 bd a2 8a c5 bc
       0.03135854 0.07171753 -0.118435316 -0.024113957
0002a0 95 24 8e 3d b0 59 e5 3d 2f 89 d8 3c 65 4a 8c 3d
       0.06940571 0.11198747 0.026432602 0.06850127
0002b0 b9 85 e0 3d 82 30 1a 3d dc d8 08 3e b3 e8 4d 3d
       0.109630056 0.037643917 0.13363975 0.050270747
0002c0 d6 aa 20 3d eb 46 53 3d 27 1d c9 3d 42 eb b4 bd
       0.03922542 0.051581305 0.098200135 -0.08833934
0002d0 9f c4 ce 3d 7b ed c2 3c 5c e4 ca 3c 66 02 02 bd
       0.10096096 0.02379488 0.024767093 -0.03174057
0002e0 54 7c 6f bd 4f c2 bf 3c 9e ae fc bc 32 32 f4 ba
       -0.058468178 0.023408083 -0.030844983 -0.0018630682
0002f0 64 3a 90 bc 2c 72 28 3e 3d 05 6b bd d5 5a 4e bd
       -0.017605968 0.16449803 -0.057378042 -0.050379593
000300 85 45 3c 3d 33 2d 50 3c 5f 5b 04 3e 62 41 5a bd
       0.045964736 0.012706089 0.1292548 -0.05328501
000310 3d 44 16 3d 88 f8 bb 3d 71 cc 3a bc ca 74 e9 ba
       0.03668617 0.09178263 -0.011401282 -0.0017811295
000320 ca f2 d5 3c 96 ce ac 3d e6 05 a9 bc 50 59 20 bd
       0.026116747 0.08437841 -0.020632695 -0.039147675
000330 95 64 b8 bd 63 7b a7 3d f4 e6 63 bb f6 8c de 3b
       -0.090035595 0.08177831 -0.003477511 0.006791706
000340 31 07 1e bd f8 cc 1c bd 3f 6a cb bd a3 d1 9a 3d
       -0.038581077 -0.03828141 -0.09932374 0.07559516
000350 5d 86 0f 3e f5 b1 f8 3d ae 25 d7 bd 90 d8 43 3d
       0.140161 0.121433176 -0.10505234 0.047813952
000360 f9 27 08 3d a3 04 a0 bd e3 c6 f3 3b 14 02 39 3d
       0.033241246 -0.078133844 0.0074394806 0.045167997
000370 36 85 5c 3d d7 f2 69 3d 92 c6 98 3c 8f 00 d4 3d
       0.053837977 0.057116356 0.018649373 0.10351669
000380 76 9a 04 3e 9c dc 69 3d 97 42 18 3e 93 5d 06 bd
       0.12949547 0.057095155 0.14869152 -0.032804083
000390 12 e6 f0 3d 55 04 e2 3d 4a e8 a1 3d ed 81 1d 3e
       0.117626324 0.110359825 0.07905634 0.15381594
0003a0 21 3e c3 3c 58 74 72 bc d1 d2 51 3e 1d f5 23 3d
       0.023833336 -0.014798246 0.20490576 0.04002868
0003b0 b9 89 df 3d f7 78 20 3e c9 9b e9 3d 20 80 ca 3d
       0.109149404 0.15671144 0.11406667 0.09887719
0003c0 40 cc 7c bd ac f3 92 3c 08 6c 04 be b8 cf 80 bd
       -0.061718225 0.017938457 -0.12931836 -0.06289619
0003d0 05 71 5f bc 38 55 4d 3e d8 20 bb bd f2 b6 f0 bd
       -0.013637786 0.2005204 -0.09137124 -0.11753644
0003e0 c5 ea 6a bd 67 79 01 3e a9 ee 2a 3d 84 38 bb bd
       -0.0573528 0.12643968 0.04173151 -0.09141639
0003f0 12 70 5c 3d 71 70 c6 3d 64 b2 50 bd b6 94 56 bc
       0.053817816 0.09689415 -0.050951377 -0.013096979

lstm.weight_hh_l0 f4 [256, 64]
000000 ce 0e 8f bc 09 b7 05 be 1b 8d 82 3c b7 06 d5 3d
       -0.017463114 -0.13058104 0.015936425 0.104016714
000010 52 1f fc 3c eb c5 1d be 85 97 48 be 0d b6 99 3c
       0.030776653 -0.15407531 -0.1958905 0.018763566
000020 85 65 d3 bd ee 8c 30 3a 69 3b ab bc 90 e9 7e 3d
       -0.10322098 0.00067348673 -0.020902352 0.06223446
000030 08 c6 0a 3e fc ce c5 3d a8 47 9b bd db 9e 81 ba
       0.13552105 0.0965862 -0.07582027 -0.0009889262
000040 29 85 04 3d bd 32 28 3e 64 b1 b4 ba 0d 1c 1d 3d
       0.032353554 0.16425605 -0.0013785777 0.03835683
000050 60 f1 b1 3d 40 ab 50 3a e4 a0 ca bd f7 b5 4e 3d
       0.08688617 0.00079600886 -0.09893969 0.050466504
000060 0b fb 5a bd 8f 81 bf bd f1 8c 8d bc a7 ae 57 3d
       -0.05346207 -0.09350883 -0.01727912 0.052656796
000070 e8 90 0f 3e b8 76 b6 3b be c8 37 bd 68 ce 83 bd
       0.14020121 0.0055683516 -0.044869177 -0.06435853
000080 6d e3 14 3d 70 ca a0 bc d7 cf 20 3e be 2f af 3c
       0.036349703 -0.01962778 0.15704285 0.02138507
000090 b1 59 03 be af 14 61 3c ce f0 a2 bc d1 5b cb 3c
       -0.12827183 0.0137378415 -0.019890215 0.024824055
0000a0 b3 6d aa 3c 3b 5c d0 bd 00 2f 1c 3e 76 14 97 bd
       0.020804262 -0.101738416 0.15252304 -0.073769495
0000b0 ae ea 3c 3e f6 17 17 3e b0 a7 9e 3d 96 ff 11 be
       0.18448898 0.14755234 0.077468276 -0.14257655
0000c0 ae 07 da 3d 5e 53 bc bd f6 51 da 3c 0d d5 25 3e
       0.10645996 -0.091955885 0.02665041 0.16194554
0000d0 c3 40 43 3d ae 25 a0 3d b1 fb 1f bd 39 83 16 be
       0.047669183 0.07819687 -0.03905839 -0.14698495
0000e0 be 71 f8 bd 9c e7 02 be e2 a2 a6 bd 92 de 9a bd
       -0.121310696 -0.12783664 -0.08136536 -0.07561983
0000f0 ff 3f 8c 3d 94 46 4e be 5b 76 93 bd d7 44 e0 bd
       0.06848144 -0.20144111 -0.07200309 -0.1095063
000100 af fd 67 bd ee 6b 2f 3d f9 9f 43 bd 71 36 99 3c
       -0.056638416 0.04282754 -0.047759984 0.018702717
000110 7d 86 e6 bd 98 5e cd bd 00 07 07 be ec 65 48 3d
       -0.1125612 -0.10027808 -0.13186264 0.048925325
000120 3b 2d a7 bd e9 e3 04 bd 50 e9 ea 3d b3 ca e8 3d
       -0.08162924 -0.032443915 0.11470282 0.11366787
000130 76 97 16 3e e7 ec 12 3e e0 8b c8 bb ba 3b cf bd
       0.14706215 0.14348184 -0.00612019 -0.10118814
000140 67 d3 c0 3d 1b c5 e2 3d 91 93 be bd 66 7d 70 bd
       0.09415322 0.11072751 -0.0930549 -0.05871334
000150 29 a6 b7 bc e7 62 48 3d 54 ea e1 bc d4 99 38 3e
       -0.022418099 0.048922446 -0.027577557 0.18027431
000160 f3 f6 a1 3d 74 ef 59 3d db b9 b4 3d 4c b9 34 bd
       0.0790843 0.053206876 0.088245116 -0.044122025
000170 aa 82 02 3d 29 e4 eb bd 8e 75 0d 3d 69 b4 49 3d
       0.031862892 -0.115181275 0.034535937 0.04924432
000180 c6 aa 3d be 20 c4 50 bd 11 df b2 3c 1b d6 4b 3b
       -0.18522176 -0.05096829 0.021834882 0.0031102959
000190 66 c6 e3 3d b1 bb 41 3c 13 96 16 3e 2f 4d d4 3c
       0.11121826 0.011824534 0.14705686 0.02591571
0001a0 37 fa eb bd be f6 18 bd 20 da b3 bd 10 64 eb bb
       -0.11522334 -0.037344687 -0.087818384 -0.0071835592
0001b0 fc 2e 14 3d d5 78 96 3e da c9 08 bc 26 35 6d bd
       0.03617762 0.29389063 -0.008348906 -0.057912014
0001c0 95 b6 17 3e e1 39 82 3d 26 00 76 3c be 2b 70 3e
       0.14815743 0.06358696 0.015014684 0.23454186
0001d0 17 a9 ce bd 7a 1a af 3c 4f 44 33 3d c3 77 28 be
       -0.10090845 0.02137493 0.043766316 -0.16451935
0001e0 2c 9b d3 bd 58 01 10 be de b1 18 be 4d 73 3c be
       -0.10332331 -0.14063013 -0.14911601 -0.18403359
0001f0 ef b8 cd 3d e3 60 a2 bd e2 5b 5a bd c6 ee 32 3d
       0.10045039 -0.07928636 -0.053310283 0.043684743
000200 a3 bd 88 bc 01 a3 a3 3d eb 04 89 bd ff 49 f9 3d
       -0.016691988 0.07990075 -0.06690391 0.12172317
000210 2d 5e 49 3d 23 b1 8d bc 5a 18 1f bd 8c c8 c3 3a
       0.04916208 -0.01729638 -0.038841583 0.0014937087
000220 0e c9 ad 3d 30 d1 5b 3c 8e fe 8d 3c a5 65 16 3e
       0.08485614 0.013416573 0.017333295 0.14687212
000230 e7 68 a5 3d 3e 82 ae 3d bc 76 1c be e8 55 d9 bd
       0.08076649 0.085209355 -0.15279669 -0.106120884
000240 c9 69 50 bd b6 24 fd 3d d0 c8 c2 3d 82 1f 10 bd
       -0.050882135 0.12360518 0.09510958 -0.0351863
000250 c6 41 a4 bd e3 4e 6a 3d 59 38 da bc 6a 18 0e bd
       -0.08020358 0.05720414 -0.026638197 -0.03469125
000260 93 a7 94 bd 9e 29 16 be 82 9a a3 3d 90 0b 68 3d
       -0.07258525 -0.14664313 0.079884544 0.05665165
000270 89 aa 9d bc 15 1e 91 b9 6a 9f b2 bc 2a 7f 42 3d
       -0.019246357 -0.00027678968 -0.02180453 0.047484554
000280 1f 23 d8 bd a9 ab 25 bd c5 ef d0 3d 85 19 40 bd
       -0.10553574 -0.04044691 0.102019824 -0.046899337
000290 8e 2f 21 bd 2e 43 34 bd b0 c9 0b 3c 0a b7 9a bd
       -0.039351992 -0.04400938 0.008531973 -0.07554443
0002a0 f7 b5 9e 3d 30 4c 06 be 62 c4 46 3d 68 96 d8 bc
       0.07749551 -0.13115 0.04852713 -0.026438907
0002b0 39 b2 d8 3d 1e a5 1c 3e 45 9d 2f bd ad 45 0a be
       0.10580868 0.15297362 -0.042874593 -0.13503142
0002c0 1b 41 3f bc 2f 21 15 3e de 0f 56 bd 6a 27 fe 3d
       -0.011673237 0.1456344 -0.052261226 0.124098614
0002d0 15 7b 99 bb f6 5d ca 3d d1 06 16 3e 7b 9b db bc
       -0.004683862 0.09881203 0.14651038 -0.026807537
0002e0 aa 53 a3 bd ec 98 5f 3c 88 6e 0c be ab 34 30 3d
       -0.07974942 0.013647299 -0.1371404 0.043018978
0002f0 aa 12 75 bc cf 45 16 be 9d cf 22 3d 05 f8 53 3c
       -0.014958063 -0.14675067 0.039748777 0.01293755
000300 59 82 b5 bd 2d 90 a3 bd 58 8c 2e 3d d3 cd 25 3d
       -0.088627525 -0.07986484 0.04261431 0.040479492
000310 45 ad 0f 3d 53 c2 fc bd 9b 53 e2 bc 7e dc 46 3c
       0.035077352 -0.12341752 -0.027627757 0.01213753
000320 56 42 8c bd 1e c5 8b 3d 90 ff ec 3c 1a 04 4b bd
       -0.0684859 0.068247065 0.028930455 -0.04956446
000330 fc a7 1d bc ac ed e6 3d df 01 b8 3d 21 09 b5 bd
       -0.00962257 0.11275801 0.08984732 -0.08839632
000340 8c c9 f1 bb c5 2d f8 3c c5 b0 c3 bd 4e 0e f7 bd
       -0.0073787626 0.030295262 -0.095552005 -0.12063275
000350 c0 09 52 3b b9 c3 fd 3d 53 68 ff 3d 1c 57 b5 bd
       0.0032049268 0.12390847 0.1247107 -0.088545054
000360 71 ae 03 bc 26 5e aa 3c a2 7f 04 3e 32 c9 08 be
       -0.008037196 0.020796847 0.12939313 -0.13358
000370 d9 4b c5 bd a7 a4 29 be 7d 6a b9 bd ff b3 90 bc
       -0.096336074 -0.16566716 -0.09053514 -0.017663954
000380 36 ad bc bd ef e7 28 3d 7c 4e 2e 3d 8f ef 85 3d
       -0.09212725 0.041236814 0.042555317 0.06539833
000390 97 62 82 3d f0 f7 b7 bd 9d c6 93 bd 8a f2 c6 bd
       0.06366461 -0.08982837 -0.07215617 -0.097142294
0003a0 a0 39 8f 3d 0e 74 a5 bb 9a de c1 bd fd 97 59 bd
       0.06993413 -0.005049235 -0.09466286 -0.053123463
0003b0 27 ed 2e 3d 57 57 01 bc 22 0c 00 3e 67 04 6f 3c
       0.042706635 -0.007894359 0.12504628 0.014588452
0003c0 24 20 95 bd 36 7a 87 bd ee da 8b bd ee ca 5b bd
       -0.07281521 -0.06615107 -0.06828867 -0.053660326
0003d0 79 35 96 bc f6 4c c9 3c 95 b7 b5 bd 0a 08 2f 3d
       -0.018336045 0.02457283 -0.08872906 0.042732276
0003e0 6a 40 17 be 4b e8 65 bd 76 e5 63 3b c5 8f 00 be
       -0.14770666 -0.056129735 0.003477422 -0.12554844
0003f0 b1 33 33 3d f0 6d 1a 3d 4a ba 49 bd 28 e4 60 bd
       0.04375047 0.0377025 -0.049249925 -0.054905087

lstm.bias_ih_l0 f4 [256]
000000 93 ae 4c 3c 15 b6 c6 bb 38 18 25 3e 85 ee 2a 3d
       0.012492794 -0.0060641863 0.1612252 0.041731376
000010 35 81 07 3e ff f6 44 3e 18 5b 25 bc e8 1a 8c 3d
       0.13232882 0.19234847 -0.010092519 0.068410695
000020 7d a0 71 bc ef e8 8d bd 28 e3 18 3e 4b 33 cb bc
       -0.014747736 -0.06929194 0.14930403 -0.024804732
000030 78 ac 6b 3e fb de c3 3d 10 dd 5b 3d 19 7f 9f 3d
       0.2301501 0.095640145 0.05367762 0.07787914
000040 bd 38 73 3e ae 61 c0 3d 10 7a 02 3e 33 c3 8d bd
       0.23752113 0.09393631 0.12741876 -0.06921997
000050 d5 51 b2 3d 49 59 89 bd 0a 97 85 bb 20 0c 16 3e
       0.087070145 -0.06706483 -0.004076843 0.14653063
000060 19 87 85 3c aa 1a 4d bd 5f 2e d8 3d f4 a9 e7 3d
       0.016299771 -0.050074257 0.105557196 0.11311713
000070 40 78 2a 3d a7 e8 2b 3b 42 67 17 be c0 b9 5b bb
       0.041618586 0.00262312 -0.14785483 -0.0033527464
000080 0e 27 73 3d 16 68 88 3d be 2e 9e bc 8f 7a 0f be
       0.059363417 0.06660478 -0.019309398 -0.14011596
000090 7e 5d ac bc 3a bd fb 3d dc c8 97 3d 76 14 f4 3d
       -0.021040674 0.122919515 0.07411358 0.11917965
0000a0 78 5b 93 3d ec ed 02 3e 24 ec 30 3e 9b 30 ca 3d
       0.07195181 0.12786072 0.1727758 0.09872552
0000b0 d7 2c 12 3e 6d 1b ca bb 32 57 3f 3e a7 32 74 3e
       0.14274918 -0.00616782 0.18685606 0.23847447
0000c0 27 72 d8 3c c0 9e 0a be 66 ad dd bc 22 fb f2 bd
       0.02642162 -0.13537121 -0.027060222 -0.11864306
0000d0 ec 2e 2e 3e 30 3a d0 3d 87 e4 e3 bc 7e 38 34 3e
       0.17010087 0.101673484 -0.027818931 0.17599675
0000e0 6d 97 8a 3d 4c 1b 0a be 00 8d 6d 3d 22 50 ed bd
       0.067671634 -0.13486975 0.057995796 -0.1158755
0000f0 d5 d5 b2 bc ea fc 3e bd 37 ae 94 bc 2d 4a 3b 3e
       -0.021830479 -0.046627916 -0.018149478 0.18290015
000100 60 de 0f 3e 25 a8 27 3d 44 0a 15 3e 7a 26 fb 3d
       0.14049673 0.04093184 0.14554697 0.12263198
000110 a6 a1 40 3e aa 77 28 3d 87 74 28 be 49 f1 c0 3d
       0.18811664 0.041129746 -0.16450702 0.094210215
000120 22 fa ac bd f6 fd bd bd cb 0c 48 3d 0c 54 3b 3d
       -0.084461465 -0.09276955 0.048840325 0.04573445
000130 91 9a 21 be c7 c3 3d 3d ad 94 bc bd 7e 3d b6 bc
       -0.15781619 0.046329286 -0.09208045 -0.022246119
000140 ca ef 39 be 21 a4 70 3d 00 8f 06 3e 6d a2 0d be
       -0.18157879 0.058750276 0.13140488 -0.13831492
000150 b8 24 6e 3c 00 a6 a8 ba 7b d1 f4 3d bb 08 cb bd
       0.014535122 -0.0012866855 0.11954018 -0.099137746
000160 2b 12 65 3d ec d6 3d 3d 85 1e 32 3d a2 12 e4 bd
       0.05592553 0.046347544 0.043486137 -0.111363664
000170 21 42 48 3d 9d 7b b5 3d 6d a2 36 3c 18 fe ec 3c
       0.04889119 0.08861468 0.011147124 0.028929755
000180 d0 8a 82 bd 0d 8c f3 bd f6 43 55 3e c6 79 4c be
       -0.06374133 -0.11891947 0.20826706 -0.19968328
000190 f6 f2 ae bd 2a 0a 6f 3d e6 8a c1 3b ca 32 ab 3d
       -0.08542435 0.058359303 0.0059064506 0.083592966
0001a0 1a 63 46 3e 44 78 c7 3d 83 2c 2d be 11 4c 9f 3d
       0.19373742 0.09739736 -0.16911511 0.077781804
0001b0 e5 ec b0 3d c4 0e 17 be a5 67 c2 bd 38 c1 5d bc
       0.08638934 -0.14751726 -0.09492425 -0.0135348365
0001c0 e6 fd ef bc e3 d4 5c 3e 54 19 0a be bf 13 b7 be
       -0.029295873 0.21565585 -0.13486224 -0.35757253
0001d0 11 18 59 be 75 5c 89 3d 6a 89 83 bd 5b 38 86 3c
       -0.21200587 0.06707088 -0.06422694 0.016384294
0001e0 7f e4 9f 3c 4f c7 be bd bc 5a 84 3d ae eb 9b be
       0.019518135 -0.09315359 0.06462619 -0.30453247
0001f0 90 91 60 3d 61 e9 89 be 17 72 55 3e 2b 45 9a 3d
       0.05482632 -0.26935866 0.20844303 0.07532724
000200 89 74 90 3d 4c fa 06 be c5 db 09 3d 01 0d 39 3d
       0.07053477 -0.13181418 0.033656854 0.045178417
000210 39 42 2b be c5 8f c2 bb 49 f9 f2 bd 98 4c 1b be
       -0.1672448 -0.005937549 -0.118639536 -0.15165937
000220 d3 04 a9 3c 9d 9c cc bd d7 b8 fc 3d d2 85 fa 3d
       0.020632183 -0.09990809 0.12339943 0.122325554
000230 3f 0b 24 3e 0d 6e 34 be 8d bf 9d bd 10 5b c5 bb
       0.16019915 -0.17620106 -0.07702551 -0.0060228184
000240 3d db 87 3e 32 91 43 3e 06 fe 1f 3e 12 5b de bc
       0.26534453 0.19098356 0.15624246 -0.027143035
000250 12 f5 ad 3d b7 28 2d 3e 43 ca 74 bc 6b 46 ca bd
       0.08494009 0.16910063 -0.014940801 -0.098767124
000260 0f 69 e5 bd 85 46 09 be 78 54 52 3c 3d 2c 52 3e
       -0.11201679 -0.13405807 0.012837522 0.20524688
000270 73 05 85 bd d1 f6 8c bb 0b ab 73 bd b6 6c 08 be
       -0.0649518 -0.0043018837 -0.05948929 -0.1332272
000280 ec 18 59 3d c1 85 49 be 42 d1 48 bd 66 23 12 bd
       0.053002283 -0.1967993 -0.04902769 -0.03567829
000290 17 52 43 3c a8 d6 8d 3d d8 75 6e bd 53 7b 1a be
       0.011921427 0.06925708 -0.058217853 -0.15086107
0002a0 16 fc bd bd 34 88 0b be ae 05 d6 3d a1 fb bd 3c
       -0.09276597 -0.13626176 0.10450302 0.023191275
0002b0 08 af 6c 3d 0d 44 e5 3c 89 7f a0 3e aa fb 2f be
       0.05778411 0.02798655 0.31347302 -0.17185846
0002c0 a8 e9 ea 3d 28 55 b2 bd 1e f9 d3 3d 3b 13 84 3d
       0.11470348 -0.087076485 0.1035025 0.064489804
0002d0 1a 61 d2 bd 8d af f2 3d 3b 0b e0 3d b6 9a 30 be
       -0.10272427 0.1184989 0.10939642 -0.17246518
0002e0 da c0 d5 bd b9 88 6b bd 9e 03 28 bd 8b 1b f2 bd
       -0.10437174 -0.057503436 -0.041019075 -0.1182166
0002f0 32 52 26 3e 62 a2 89 be 83 25 30 be f1 78 6c be
       0.16242293 -0.268817 -0.1720181 -0.2309301
000300 0b 00 c9 bd 17 de c0 bd e9 2e c9 3e 5d 7d 43 3e
       -0.09814461 -0.0941736 0.39293602 0.19090791
000310 7c 51 c7 bd e8 b7 ac 3d 53 64 2a be 3f 9f a0 be
       -0.09732339 0.08433515 -0.16639833 -0.31371495
000320 b7 46 93 bd 7a f0 a4 bb 13 17 08 be 6d b3 35 bc
       -0.07191222 -0.00503355 -0.13290052 -0.011090142
000330 6e 43 ca 3d 8c 2b 3c be c3 43 1e 3e d2 81 90 bd
       0.098761424 -0.18375987 0.15455537 -0.07056011
000340 8e 77 2a bd ca c1 5e bd ac 28 c6 bd 9b f0 a4 3b
       -0.041617922 -0.05438403 -0.09675726 0.005033565
000350 62 b6 9c 3e ad 95 44 be b6 34 03 be e9 fc 6c 3d
       0.30607897 -0.19197722 -0.12813076 0.05785838
000360 b1 5e d2 3c e3 70 3f be 34 fd 1e 3e 1e 1a 54 3e
       0.025679918 -0.18695407 0.15526277 0.20713088
000370 ee 8b 28 be f6 75 0a 3e d4 56 a2 be 78 f9 09 be
       -0.16459629 0.13521561 -0.3170687 -0.13474071
000380 68 4b 99 3c 19 d0 a5 3e dc fb 61 3d 0d 8f 57 3d
       0.018712714 0.32385328 0.055171832 0.05262666
000390 a6 aa 51 be f5 b9 41 be 7e 47 47 bd f1 5b 88 3d
       -0.20475253 -0.18918593 -0.048652165 0.066581614
0003a0 04 72 46 bd 7c 9b 2b bd 8e 94 c7 3d 52 7c b7 be
       -0.048448578 -0.04189633 0.097451314 -0.35837036
0003b0 b6 27 a4 3e ac 71 75 3e 8a d0 2f be 6b 4e e7 3c
       0.32061547 0.23969144 -0.17169395 0.028235635
0003c0 28 d4 c1 bd 18 c2 09 3e 06 32 8b 3e 1c a8 a6 bd
       -0.09464294 0.13452947 0.27186602 -0.08137533
0003d0 a3 c3 ed 3c 7b a6 5f be 53 33 b3 3a 45 b0 09 3a
       0.02902395 -0.21840851 0.0013671912 0.00052524015
0003e0 cd 1d f2 bd c8 79 47 3e cc f2 c7 3e dd eb 25 3e
       -0.1182209 0.1948005 0.39052427 0.16203256
0003f0 ce a8 cf bd 6d 52 20 bd 7e ae ab 3d 11 d5 fd bd
       -0.10139619 -0.039141107 0.08382891 -0.12394155

lstm.bias_hh_l0 f4 [256]
000000 7c 36 a3 3c 93 e6 ec 3d 20 13 a4 3d a3 99 58 3d
       0.019923441 0.11567416 0.0801146 0.052880894
000010 bc ee 95 3c 11 0f d5 bb 00 e5 55 3d e8 a0 42 3d
       0.018302314 -0.00650204 0.052220345 0.047516733
000020 45 7f 29 3e 7c c6 07 bd 45 29 2e 3e 96 47 12 3e
       0.16552456 -0.033148274 0.1700793 0.1428512
000030 6d ad 20 3e 06 55 89 bb e6 d0 ce 3d db 31 23 3b
       0.15691157 -0.004191044 0.10098438 0.0024901542
000040 31 bb be 3d f3 f9 71 bb 4a 58 0c 3d a0 3b aa bd
       0.09313048 -0.0036922663 0.034263887 -0.08312154
000050 55 00 60 3d 10 f2 ba bc 20 44 a9 3d d1 48 e0 3d
       0.054687817 -0.022820503 0.08264947 0.109513886
000060 59 2e 1d 3e c2 62 e9 3d 69 3c 0a bd 01 b1 7e 3e
       0.15349711 0.1139579 -0.033749018 0.24872209
000070 dd 36 86 3d 67 52 35 3d 46 17 e3 bd 79 6d 02 bd
       0.06553433 0.044268038 -0.110884234 -0.031842683
000080 74 94 34 3e 23 06 11 be a8 84 0e bd 74 3e b2 bd
       0.17634755 -0.14162497 -0.03479448 -0.08703318
000090 78 c6 46 3d ef 17 f8 3d 0c a3 ea 3d 13 2c 66 bd
       0.04852912 0.1211394 0.1145688 -0.056194376
0000a0 52 a1 4b 3e 41 4f 8f 3d c4 c3 db 3d 3d 31 5c 3d
       0.19885758 0.06997538 0.10730699 0.053757895
0000b0 c7 57 5a 3d 15 dc 23 3e fb 5e 3d bc 97 06 41 3e
       0.053306367 0.16001923 -0.01155829 0.1885017
0000c0 6c fb 1e 3e dc b9 97 bd 12 d8 1f bd 71 ca 28 be
       0.15525597 -0.07408497 -0.03902442 -0.16483475
0000d0 e4 36 43 3e 0f 2a 42 3e a2 46 07 3d fc 86 12 bc
       0.19063908 0.18961357 0.033026345 -0.008943316
0000e0 a6 66 2b bd eb 7d 3a bd fd 27 c4 3d 32 40 8b bd
       -0.04184594 -0.04553024 0.0957794 -0.06799354
0000f0 cb e2 01 3e 28 d6 3c be ba 2d a5 bc 6a c4 8f 3c
       0.12684171 -0.18441069 -0.020163406 0.017549712
000100 9a 95 06 3e 0f 73 07 bd 86 01 19 3c 89 f5 95 bd
       0.13143006 -0.033068713 0.009338742 -0.07322223
000110 b8 ab 96 3c b1 f3 d7 3d d8 28 3a be c2 48 1b 3c
       0.018392429 0.10544527 -0.18179643 0.009477796
000120 c7 44 80 3b ed a8 2b be 7d 1d fd 3a 92 44 87 3d
       0.003914449 -0.16763659 0.0019311156 0.066048756
000130 c7 26 63 be b5 24 ee 3b 1f 78 e9 bc 40 9a ca 3d
       -0.22182761 0.0072675594 -0.028499661 0.09892702
000140 fd 83 ee bd 08 98 82 3d 79 9d 1b 3e 25 75 91 be
       -0.116462685 0.06376654 0.1519679 -0.28409687
000150 68 0c 8e 3d d6 37 ff 3c ac 37 98 bc d2 89 c4 bd
       0.0693596 0.031154554 -0.018581234 -0.095966
000160 e4 82 96 3d 94 9b 70 3d a1 ea be bb 11 b5 18 be
       0.07349184 0.05874212 -0.00582631 -0.14912821
000170 09 b1 13 bd c3 c5 0e 3c e0 17 87 bd f3 fa bf bd
       -0.036057506 0.008714142 -0.06596351 -0.09374037
000180 06 df 0b 3c 95 87 5e be 7f 1b 31 3d 93 36 4c be
       0.00853706 -0.21731408 0.043239113 -0.19942693
000190 47 ef a4 3c ab d2 3d 3d 1e 99 29 3e ee c9 d9 3d
       0.020133628 0.046343487 0.16562316 0.10634218
0001a0 a8 00 1e 3e 35 71 fe 3c 7a 87 9a bd 57 cd 1b bd
       0.15429938 0.03105984 -0.07545371 -0.038037624
0001b0 58 47 8f bc 66 0f 32 be 1f 48 ab bd d4 5b 0f 3d
       -0.017490074 -0.17388687 -0.083633654 0.034999683
0001c0 b1 f8 20 3e f8 06 7f 3e f6 40 dc bb da 3d b1 be
       0.15719868 0.24905002 -0.006721611 -0.34617501
0001d0 72 c6 d5 bd bb 07 dd 3d 0b 84 88 3a 24 cd 27 3e
       -0.10438241 0.1079249 0.0010415328 0.16386849
0001e0 2c 5f d2 3d 24 f8 f7 3c 11 f5 f1 bc 17 14 17 be
       0.10272059 0.03026969 -0.029535802 -0.14753757
0001f0 92 eb 9d 3d ca 5f 9a be da 17 f1 3c df 64 3e 3d
       0.07710947 -0.30151206 0.029430319 0.046482917
000200 51 7e 94 bd b2 70 15 be db 22 97 bd d3 5d 66 bd
       -0.072506554 -0.14593771 -0.07379695 -0.05624182
000210 fd 2f 91 bd ac e9 c1 3c 00 7b 16 be 14 22 a1 bd
       -0.07089231 0.023670994 -0.14695358 -0.07867828
000220 a5 68 ed bd 7f 70 ee bb a3 03 29 3e 81 66 8c 3d
       -0.11592225 -0.007276594 0.16505294 0.068554886
000230 86 fd 7e 3d fd fa 3c be db f8 07 be 55 48 81 bc
       0.062253498 -0.1845512 -0.13278525 -0.01578156
000240 79 3a 7c 3e 59 33 1b 3e 92 56 fc 3c bf 41 62 bd
       0.2463168 0.15156306 0.030802999 -0.05523848
000250 0e ff 50 3e 6f da 29 3e 77 16 f4 3d b5 a5 11 be
       0.20409796 0.16587232 0.11918347 -0.14223368
000260 c2 e2 ad bb 85 7b 0e bd de cc c5 3d bc ec bd 3c
       -0.0053065727 -0.034785766 0.09658216 0.023184173
000270 ee 6d 5f 3d 72 b6 cd 3c 95 5a ba bd 69 42 12 be
       0.054548196 0.02511141 -0.090993084 -0.14283146
000280 dd 5c 21 3e dd 5a 65 be 87 2e ec bc 96 e7 bd 3d
       0.15758081 -0.22397943 -0.02883078 0.09272687
000290 76 68 9a 3d c3 8b e3 3d 5e ff 32 3e 3d c9 3c bc
       0.075394556 0.11110642 0.17480227 -0.011522588
0002a0 65 3d d8 bd 1a 02 f7 bd 08 68 9c 3c 89 47 7c bb
       -0.10558585 -0.12060948 0.019092575 -0.0038494787
0002b0 69 e9 46 3e 27 07 07 3d b7 27 61 3e a1 6b 01 be
       0.19424976 0.032965805 0.21987806 -0.12638713
0002c0 10 91 05 bd 73 4c 42 be 20 25 f0 3d 7f b4 0a be
       -0.032609046 -0.18974476 0.11725831 -0.13545416
0002d0 ea e0 32 3d 13 fa 2a 3b c2 9d e0 3c 75 9e c4 bd
       0.043671526 0.0026088997 0.027418975 -0.09600536
0002e0 99 75 bb bd 6d f3 26 bd ca 36 87 bd e3 33 f5 bd
       -0.09153289 -0.040759493 -0.06602247 -0.11972787
0002f0 6c 67 30 3d e2 a2 84 be 47 04 ec bd 1e 33 11 bd
       0.04306738 -0.2590552 -0.11524253 -0.03544914
000300 a0 d3 a7 3c 37 cd e0 3d b1 cc c2 3e 8a de 97 3e
       0.020486653 0.109766416 0.38046792 0.2966197
000310 2a e8 76 be 10 cc 80 3d 64 e6 30 bd ee 1c 7a be
       -0.24112001 0.06288922 -0.043188468 -0.24425098
000320 47 5d fe bd 92 ad 41 bc a5 51 24 be b9 15 e0 bc
       -0.12420135 -0.011821168 -0.1604677 -0.027354108
000330 c8 56 61 3d 1e d8 f0 bd 64 ce f6 3c 55 11 44 3d
       0.0550144 -0.11759971 0.030127712 0.04786809
000340 03 7e 80 bd 0b fd 1a be 00 20 3c bb 35 7f 0d 3e
       -0.06274035 -0.1513559 -0.0028705597 0.13818057
000350 32 bf 6f 3e 48 02 2c be 56 4c 16 be b7 9e c7 3d
       0.23412779 -0.16797745 -0.14677557 0.09747069
000360 d5 cf 8b bd a7 dc 80 be 97 f1 5a bd 22 89 65 3e
       -0.0682675 -0.25168344 -0.053453054 0.22415593
000370 30 e7 8e be 2a b8 10 3e 18 66 a0 be ad 60 82 bd
       -0.27910757 0.14132753 -0.3132789 -0.06366096
000380 c8 94 91 3c 66 dd b9 3e 62 90 8e bd 0a 4d 89 bc
       0.01777114 0.36301726 -0.069611326 -0.016760368
000390 55 98 f4 bd 68 90 36 be d9 18 11 3c 5f 46 68 3d
       -0.119431175 -0.17828524 0.008856022 0.056707736
0003a0 96 25 38 bd f0 5e 15 be ef 79 95 bd 0f 9b 25 be
       -0.04495772 -0.14586997 -0.072986476 -0.16172431
0003b0 f0 08 92 3e 5d cb a0 3e 09 bb f1 bd c4 b3 15 be
       0.28522444 0.31405154 -0.11803252 -0.14619356
0003c0 68 d0 7e bd e1 5f 01 3d 02 38 8b 3e 16 b6 00 be
       -0.06221047 0.031585578 0.27191168 -0.1256946
0003d0 2f 4e ea 3d cb 53 25 be cf 6b 8a bc f6 cf 23 be
       0.114406936 -0.16145246 -0.01689711 -0.159973
0003e0 61 c7 04 be c6 6f 67 3e e4 54 c1 3e c1 c1 89 3d
       -0.12966682 0.22601232 0.3776008 0.06726409
0003f0 b2 cc 3d 3d f3 da 91 3d 6d 18 76 3d e6 c1 15 be
       0.04633779 0.071218394 0.060081888 -0.14624748
