a_t/u_t_continuous/a_t_model/epoch_1_ut_train.pth (torch_old, 185441 bytes, 11 tensors)

u_t_model.fc1.weight f4 [64, 64]
00000000: c3d7 74be 046c c63d 006a 83be db6d 8fbe
00000010: 92e3 19be b355 25be 85b5 41bd 3823 493c
00000020: 239b 583e 69b7 8e3e dfa5 5fbe bc05 f0be
00000030: a79e 573e d68b d63d 834d 87be 32d1 e63d
00000040: 29c0 213e 14ac 8ebe c096 55bd 7f32 f7bd
00000050: 6bc7 9a3e 756a 853c ef2d 9c3d 1667 543e
00000060: 5a29 783d b21a b63d 1154 04bd 277e 0f3c
00000070: 272f 61be 3403 8a3c f8aa 213e fb3d 17bf
00000080: aa2d 59be 7772 833e 275e 25be ac01 443f
00000090: 1bf7 883e 6cbc c73e 5006 14b8 167f e63d
000000a0: 8fcd 62be d1aa 323e 2d50 36be 7c7f ccbd
000000b0: 773e f6bd 16e1 a93e 763d 1fbe f45e de3d
000000c0: d058 30be 0156 f5be 1251 d5bd 8971 ea3d
000000d0: e417 04be f517 f8be a31d 53be 6895 27bd
000000e0: 345b a1be 32a8 68bb dc32 473e 8815 893d
000000f0: 9ce6 87be 65d3 8c3a 399b 993e fcaa 56bf
00000100: ad84 babe b581 bc3d 39c4 1bbe 1dd3 47be
00000110: 1339 0fbe d0e0 f339 9281 dabd 068a e03d
00000120: a455 023e b766 8a3e 25d3 22be 469f f2be
00000130: 27fe 2e3e 7af9 d13d 016b 9fbe cec7 92bd
00000140: 0c4c 313e bf1f 0bbe 0b6f ebbd 9dea e1bd
00000150: 17ed 8f3e f287 cbbd db89 c53d 1453 023e
00000160: 5d08 cc3c e504 133e 89ff debd 9aee c03d
00000170: 355a 93be 841f fdbc 7380 4f3e b346 1ebf
00000180: ee70 39be f18d cc3d f56f bf3d 48ba 063f
00000190: 07ab c93e 4868 e23e 98eb a43d d987 423e
000001a0: e318 b2be 9330 5d3e 4844 44be 2370 0e3d
000001b0: a21d acbe 7541 a13e b1f5 eb3d c2f7 173e
000001c0: dcd8 31be a9ec d8be 08dd 48bd 2f42 2d3d
000001d0: 129d 8bbe 2a05 b9be 9f01 8fbd 3a05 fd3d
000001e0: bed5 e8be a3f6 7abd 266b a53e 5217 813d
000001f0: 95a9 bebd 3fc4 0fbc 6598 693e 429e 4bbf
00000200: f3d5 d73c f810 b43e 2b63 efbd 6eab e83e
00000210: 7d3b b9bd 877f 8c3e c27b 86be dc51 92bd
00000220: c999 e33c 2f7b 91bd 2ba2 d1be b9de 573e
00000230: 3372 8b3d 7838 3bbe 673a d7be 3724 83bd
00000240: 0a75 4ebe 8ace a1be a017 d1be ebd6 453e
00000250: 2c11 243e f675 d3be d6a2 a33e b252 aa3d
00000260: bd64 3c3f 33f3 3bbf 1e93 06be b500 1b3e
00000270: 4111 273c 71b0 3cbf 922f 96bd a0e9 06be
00000280: 5cd8 353e cbeb 85be a845 af3e 7faf 3abf
00000290: d75c 823f dc5a 023e 1cb9 623e 8f5e a33e
000002a0: 5c9e 36be a67d f23e 0249 093e 645c 2e3e
000002b0: e7ed 493d 537d 1bbf 5a41 f43c ca46 473f
000002c0: cf6d d13e 0d3a cd3e 49c7 4cbd 1e5b 1c3e
000002d0: b7eb a0be 1ea7 47be 736f 3a3c 3ef6 463f
000002e0: b9c2 2ebd a0f9 9c3d 0f50 26be 2746 7ebd
000002f0: 9bd3 c53e 638e f03e 173c f93e 6cf9 b8be
00000300: 6910 b83e b351 473d e8fb 0d3f d1a9 bebd
00000310: 0118 f53a 0c0e 403b ca4a f9bd 16e2 e7be
00000320: 8b0f a23e 68aa 25be bba1 3f3f d740 f2bb
00000330: ed21 9f3e a1eb 27be 8f53 4cbe 316d a1be
00000340: 7b97 bb3c bd62 60be f153 8d3e 1713 043e
00000350: 8605 b1be f05c aebe 360c 6fbe d878 e5bc
00000360: 5e1f cfbe f74a e43d a7ff 493e b417 2bbd
00000370: 1842 8d3e 0368 d63e 7736 e3be d438 88be
00000380: 5034 ecbd b767 62be 146d 50be 8f32 e1be
00000390: 76d0 21be a633 633e e73f 00be 1d64 d13e
000003a0: 86cc 913e 2886 4e3f c4bc 16bf da75 883d
000003b0: e4ed 8cbe ab23 e13c f988 903e c354 cd3c
000003c0: a841 ddbe 2b25 0d3e d87c e2bd 72ac de3d
000003d0: 4f40 003e d7f3 28be 2d7e ed3e 9e17 c4be
000003e0: 66da 873c ac35 773e c75c adbe de6e b03c
000003f0: 3bd5 d03d edda 08be 2aed 96bd 21ac f93e
-0.23910432 0.09688571 -0.2566681 -0.280135 -0.15028217 -0.16145973 -0.04729225 0.012276463
0.2115293 0.27874306 -0.21840619 -0.46879375 0.21056615 0.1047589 -0.26426324 0.112703696
0.1579596 -0.2786566 -0.05214572 -0.12070178 0.3023027 0.016286114 0.07625949 0.20742449
0.06058631 0.088918105 -0.032306734 0.008758104 -0.21990643 0.01684723 0.15787876 -0.5907895
-0.21208826 0.25673267 -0.16149198 0.7656505 0.26751027 0.39010942 -3.529183e-05 0.112547085
-0.22148727 0.17447974 -0.17804022 -0.09985253 -0.12023633 0.3317954 -0.15550789 0.108579546
-0.1722138 -0.47917178 -0.104158536 0.11447436 -0.12899739 -0.48455778 -0.20616774 -0.04091397
-0.31514895 -0.0035500643 0.19452995 0.0669356 -0.26543128 0.0010744153 0.30001238 -0.8385465
-0.3642935 0.09204427 -0.15211572 -0.19514127 -0.13986616 0.0004651607 -0.10669245 0.10963826
0.12727982 0.2703149 -0.15900858 -0.4738714 0.17089139 0.10252662 -0.31136325 -0.07167016
0.17314166 -0.13586329 -0.11495789 -0.11031077 0.28110573 -0.09938039 0.096454345 0.12727004
0.024906332 0.14357336 -0.10888583 0.0942051 -0.2877976 -0.030898817 0.20263843 -0.6182663
-0.18109486 0.09988011 0.09347526 0.5262799 0.39388296 0.44220185 0.080527484 0.18997134
-0.34784612 0.21600561 -0.19166672 0.03477491 -0.33616358 0.31495252 0.11521471 0.14840606
-0.17367882 -0.42368057 -0.049038917 0.042299446 -0.27268273 -0.36136752 -0.06982731 0.123545125
-0.45475572 -0.061270367 0.3230831 0.06303276 -0.09309689 -0.008774816 0.2281204 -0.7953836
0.026347136 0.35169196 -0.11688837 0.4544329 -0.090445496 0.27441046 -0.26266295 -0.0714452
0.027783291 -0.071035735 -0.40944037 0.21081056 0.06808891 -0.1828326 -0.42036745 -0.06403392
-0.20161834 -0.3160289 -0.40838337 0.19320266 0.16022176 -0.41300935 0.3196017 0.08316554
0.73591214 -0.7341797 -0.13142058 0.15136988 0.010196985 -0.7370673 -0.07333292 -0.13175058
0.17758316 -0.26156458 0.3423283 -0.72924036 1.0184582 0.12729973 0.22140926 0.3190808
-0.17833847 0.47361487 0.13406757 0.17027432 0.049299147 -0.60738105 0.029816318 0.7784239
0.4090409 0.40083352 -0.04999474 0.15269133 -0.31429836 -0.19497344 0.011379111 0.77719486
-0.04266617 0.076648 -0.16241477 -0.06207862 0.38638005 0.46983632 0.48678657 -0.36127794
0.3595002 0.0486619 0.55462503 -0.09309734 0.001869917 0.0029305248 -0.12172468 -0.45289677
0.31652483 -0.16178286 0.74856156 -0.0073929834 0.3108057 -0.16398479 -0.1995375 -0.3152862
0.02289938 -0.21912666 0.27603105 0.12897907 -0.34574527 -0.3405528 -0.23344502 -0.028011724
-0.4045362 0.11147111 0.1972643 -0.041770652 0.27589488 0.4187623 -0.4437749 -0.26605856
-0.11533415 -0.22109877 -0.2035411 -0.43983886 -0.15802178 0.22187671 -0.12524377 0.40896693
0.28476351 0.80673456 -0.58881783 0.066631034 -0.27525246 0.027482828 0.28229502 0.025064832
-0.43214154 0.1378371 -0.11058968 0.10872735 0.12524532 -0.16499268 0.46385327 -0.38299268
0.016583633 0.24141568 -0.33859846 0.02153724 0.101969205 -0.13364764 -0.07369454 0.48764136

u_t_model.fc1.bias f4 [64]
00000000: 6da8 5fbe 8356 c0be 6664 eebe 58a7 403e
00000010: d06e cd3d 633f 02bd 7820 673e 6f1c 76be
00000020: 4aba e4bd ccef 17be 924d f8be 2181 c5be
00000030: 93c5 14be 7e34 5e3d 0bc0 96be 6c32 393e
00000040: c98b edbe b683 3cbe fa24 a53c 1482 52be
00000050: 58d4 c7be 160d 233e 932b b7bd 24b4 aebe
00000060: 4e8a 5cbe 8f27 bfbe c7e5 483e 6ef9 68be
00000070: 8e9a 143d 3ac3 c0be 249d debe 0036 4ebc
00000080: 0e90 b0be 6dfb f6be fece afbd 9010 94bd
00000090: 9b25 e5bd 314f cabe 1d76 65be 2f62 83be
000000a0: 906a 713d 5532 77be 6924 70be 3661 f7be
000000b0: 095b eabe 1d2b 19be 908d 4cbe de5e 3fbe
000000c0: 96aa ddbe 2be6 02bf 6349 b9be 3a5d 08bf
000000d0: 2c7d 33bd 7f07 c5be 5af1 c0be 1866 333d
000000e0: 6fcf ffbe 2804 b6be 8d5d d3be fe20 adbe
000000f0: b25e debd 9a04 523e 5b2e 3f3d ba98 a5be
-0.21841593 -0.37566003 -0.46560973 0.18813837 0.100309014 -0.03179873 0.2257098 -0.24034284
-0.11168344 -0.14837569 -0.4849668 -0.3857508 -0.14528494 0.05424928 -0.29443392 0.1808564
-0.4639571 -0.18409619 0.020159233 -0.20557433 -0.39029193 0.1592296 -0.08943858 -0.3412181
-0.21537134 -0.37334868 0.19618903 -0.227514 0.036280207 -0.37648946 -0.43479264 -0.012586117
-0.34484905 -0.48238698 -0.085844025 -0.072297215 -0.11188813 -0.39513543 -0.22408338 -0.25660846
0.058939517 -0.24140294 -0.2345139 -0.48316354 -0.4577258 -0.14957853 -0.19975877 -0.18688533
-0.4329421 -0.5113246 -0.36188802 -0.5326725 -0.043820545 -0.38482282 -0.37684137 0.043798536
-0.49962947 -0.35550046 -0.4128231 -0.33814234 -0.108579054 0.20509568 0.046675067 -0.32343084

u_t_model.fc2.weight f4 [2, 64]
00000000: 0a24 f43b 1005 8b3c 2ce8 7cbe c28e 803d
00000010: 0a3c 3c3d 0346 9a3d 8e30 1b3e 0b3d d9bd
00000020: 751b bdbd ac15 c23d 7aba a6bd a1d0 b0bd
00000030: bc27 f13c eed3 d43d 34d4 813e 2b64 f13d
00000040: 3690 88bd bae8 8cbd cabb ca3d 002c 623d
00000050: 1244 b93d 68b9 fa3d 0846 44be 9cab e3bd
00000060: 780b 363e dd43 0fbe 65b5 473d 3eb8 043e
00000070: 04f1 ba3d 7968 a8bd cd89 a7bc 902b ed3d
00000080: 2751 823d ce8d 0ebd bc1b 833d 3429 113e
00000090: 4897 dc3d 2eee e9be 9a6e 963c 1395 be3d
000000a0: 3f2a 2c3e c211 17bd 897e 0e3e 861f 86bd
000000b0: 7ea1 4abe 6417 6dbd b1c9 a33c 7a9c 86bc
000000c0: 5344 84bd 2012 25be 413b 61bc dc38 83bd
000000d0: 6883 113e 9f04 45bd 2833 dfbd e702 b63c
000000e0: 3377 313c e4b1 4bbe 3673 05be 3c4d 3dbe
000000f0: 3ad9 313d ca9b 163e a93b 1f3d 08e3 9bbd
00000100: c618 923d bec3 b53d 953d aa3e 8e4d 82bd
00000110: 4a09 32be e818 49be 587b 563d e77e d6bc
00000120: f498 963d 0d8a f1bd acc9 a93d a2a4 683e
00000130: 29fb dbbd 015f fbbc 57ee 17be 5c9e 003c
00000140: de14 883d 5e9c 343e 6cf4 9bbd 83aa 8fbe
00000150: 51e5 2abe c38d dd3c f4ff 43bd a38a 203e
00000160: 097f 1cbe c9b1 2d3e 29b2 1ebe 4814 29be
00000170: 86ab b8bc c808 0c3e cbbb ba3d db1e f63b
00000180: a7d0 253e 95c3 d63d 1ba4 a5bd bd89 37be
00000190: f95c 32bd 7c1f b03e 4cf0 083e 9313 9fbd
000001a0: c2bf 193d 807c ed3d 5654 03be 1eb7 383e
000001b0: 6a2b 5f3e a3dc 773c 47ff 23be fd55 04be
000001c0: 3adf ae3c 649f 993d 08d6 923d 16c8 e93d
000001d0: 96d5 473d 9feb e93d 48a1 4d3e 59ba babd
000001e0: 078a 0e3e 0a9c 093d 4031 1c3e 47c2 e93d
000001f0: ef45 e4bd 28fb 7d3d 78be 01be 7f1c 2a3e
0.0074505853 0.016970187 -0.24697942 0.06277229 0.045955695 0.07532885 0.15155241 -0.10607346
-0.09233753 0.0947679 -0.08141036 -0.08633543 0.029437892 0.10391985 0.2535721 0.11786684
-0.06668131 -0.068803266 0.09899099 0.055217743 0.090461865 0.12242395 -0.1916734 -0.11116716
0.17777812 -0.13990732 0.048756976 0.12960908 0.09128001 -0.082230516 -0.02045145 0.115805745
0.06363135 -0.034803204 0.06401774 0.14175874 0.10771042 -0.4568953 0.018363286 0.093057774
0.1681299 -0.03688217 0.13915457 -0.06548981 -0.19788167 -0.057883635 0.019993635 -0.016432036
-0.06458344 -0.16120195 -0.013747037 -0.064073294 0.14210284 -0.04810011 -0.10898429 0.02221818
0.010831642 -0.19892079 -0.1303223 -0.18486494 0.043420054 0.14707866 0.038875256 -0.07611662
0.071336314 0.088752255 0.33250108 -0.06362449 -0.17386356 -0.19638407 0.052363724 -0.026183559
0.07353392 -0.11793909 0.08290419 0.22719052 -0.107412644 -0.03068495 -0.14837013 0.007850256
0.06644605 0.17637774 -0.07614979 -0.28059778 -0.1668904 0.027045136 -0.047851518 0.15677886
-0.15282835 0.16962351 -0.1549765 -0.16511643 -0.022542726 0.13675225 0.0911785 0.0075110025
0.16192876 0.10486523 -0.08087941 -0.17923637 -0.043545697 0.3439902 0.13372916 -0.07767405
0.03753639 0.11596012 -0.1282514 0.18038604 0.21793905 0.0151282875 -0.1601535 -0.12923427
0.021346677 0.075011045 0.071697295 0.114151165 0.048787676 0.11421894 0.20081055 -0.09117574
0.13919841 0.033596076 0.15253162 0.114140086 -0.11146151 0.0620071 -0.12670314 0.16612433

u_t_model.fc2.bias f4 [2]
00000000: f176 c9be 5f9c 883e
-0.39348558 0.26681802

fc1.weight f4 [64, 128]
00000000: 77b8 63bd a2cd 6b3c dd87 f6bd b386 283d
00000010: 8c86 bc39 dad3 8fbd 5c21 d3bc f7d1 e8bd
00000020: f123 45be 2044 08be 691a f23d 2296 1cbd
00000030: c77a 16bd e15b bcbd 5658 d6bc be13 dbbd
00000040: 4170 123e cd15 aa3d 5be2 e83b a005 6abe
00000050: 188d 17bc b3e7 543d 7d65 1b3c 91fc 8cbd
00000060: 723f 1abe 34a2 713e 19a5 b5bd 7cf9 adbb
00000070: b93c 4bbd 53d1 313d e114 8fbd 2530 2cbd
00000080: 15ea 7a3c 04c8 7cbd 6371 de3c 6a6e 353d
00000090: 793e 35bc 55df bdbc 6681 013c b2c3 da3c
000000a0: fe9f 5b3e 1527 453d 43a0 3ebd c960 ccba
000000b0: 4bf9 bcbd 974d da3d 0571 7a3e 6588 11be
000000c0: bc04 423e e446 52bd 297f 6c3d 4c55 ee3d
000000d0: afa0 01be 5c17 04bd da45 98bd 31c5 3b3e
000000e0: 1633 143d 9906 fcbd 15e2 9d3d 7b6d 9abc
000000f0: 39c9 523d 79d4 7bbc 6d4e 683e 276e 3f3c
00000100: 108f c23d 9695 3e3d 3834 adbd c917 2e3e
00000110: 6ff7 90bd af51 063b 9957 4d3d 71e9 633e
00000120: 6e78 f5bd c37f 23be b531 d53c fec5 95bd
00000130: a152 aebe 34f1 8bbd e1c2 d13d 09ab c83d
00000140: 9ee0 c1bd da91 ea3c 215b b7be d6c8 d0bd
00000150: 19d2 34be 4cd4 2a3d d7f6 803c 43fa de3d
00000160: a912 5ebe d6fd 843c 0956 8c3d 5b06 f83d
00000170: 285a 87bd d25e 2fbd 71eb c5bd 13af 1dbe
00000180: 0a70 463d 26eb c0bd 4130 3c3e 1ed8 193d
00000190: 0f81 cb3d 3da2 033d 6a3b f6bd 4106 673c
000001a0: 37b9 bfbd a765 d3bc b80b 30be 8fdd 1f3e
000001b0: bb5e 22be 49d7 da3d b440 9f3e c5e5 37bd
000001c0: 585f 353e 19c1 b1bc da51 ac3d e216 c2bd
000001d0: 6ae6 b2bc 3de7 6e3e 249e 80be 9a5c a03c
000001e0: 0cea ebbd 03a6 9cbe 734f 183e 868f c4bb
000001f0: 5321 45be 6870 ccbd a3ce 94bc 84c8 8fbc
00000200: 3bee 6c3e 0315 50bb 26f3 0d3e ae5d 213c
00000210: f7cf 29bd e57e 1c3e 68b7 f73c ca1d 1cbe
00000220: a86c 953d 7ceb 0b3e 8b5d feba 0649 fbbb
00000230: 92dc e03e d927 5f3e d193 35be a2f2 5f3d
00000240: 942d 673c 4855 55bd 700a 0b3e ddc7 0b3e
00000250: fd34 d13d 8e49 543d 6660 93bd eeed 0d3e
00000260: 2d3e 383e 54a1 653c 38bb 01be 3cf7 83be
00000270: 9352 9cbc d554 323e 172f a93d d3c8 893d
00000280: 21b4 d03d effd d03d a83d 0b3d 66da 30be
00000290: 5c72 61bc bf29 8d3e 0b31 783d 68b7 133e
000002a0: 4b4b 0d3e a758 7abe bf60 6d3e 3fb8 9dbc
000002b0: defa e33c 8e8f 3c3b b1c4 24be b1b7 72bc
000002c0: 7392 0cbe e10a 3c3d 2b37 c63d f4cb 213e
000002d0: dba6 883d ef2a 593b c6de 8a3e 03f8 14bd
000002e0: eb1c a8bb dcf4 7f3e f17c cdbd 5953 653e
000002f0: 782c 04be 9aa0 91bd 9b70 25be ef3f 623d
00000300: caeb b7bc 95ca 5abd 2d70 883e 1012 0b3c
00000310: 86c7 563c 0377 223e 028a 083c 48f4 f8bd
00000320: d9d4 fe3d 8db8 95bc 2f29 bdbe e766 7a3e
00000330: 66fd 8a3e 6a58 b23d 30d6 d7bd 1248 ae3c
00000340: 8f15 13bd 93b1 48bd 5fa3 353e bdfe 8a3d
00000350: 0d11 8a3e 4961 f1ba 4310 d5bc 4903 a33d
00000360: fa16 b63e 3571 11bc de6f 22be 476f 92be
00000370: cd7f 26bd d121 ed3d ec0c 48bc efdb 00bd
00000380: db4d 573d 7499 483e 18a5 253e 912f a4be
00000390: 3f97 39be 1d61 963e 1691 b23d 2df3 b43c
000003a0: 2bd6 803e 4d62 1bbe f0da 013e 6ea0 c4bd
000003b0: aaa6 4e3e 28dc 06be 0f19 a6be 2e0a 1e3e
000003c0: 8f2d 1ebe e6f2 34be 2e68 42bd 54d4 413b
000003d0: a78d 513d de0b 60be d90a a33e 8006 efbd
000003e0: 4096 313e 2429 be3e d1b2 03bf 6f35 333d
000003f0: b843 8cbd 1781 883d 10b7 fe3d 8ea8 593d
-0.05559584 0.014392288 -0.120376326 0.041144084 0.000359584 -0.07022829 -0.025772743 -0.113681726
-0.19251992 -0.13307238 0.118214436 -0.038229115 -0.036738183 -0.09197212 -0.026165169 -0.10697125
0.14300634 0.083049394 0.007107062 -0.22853708 -0.009249948 0.051978778 0.009484646 -0.06884111
-0.15063265 0.23597032 -0.088693805 -0.005309282 -0.049618457 0.043412518 -0.06986404 -0.0420381
0.015314599 -0.061714187 0.027153676 0.044294752 -0.011062258 -0.023177782 0.007904386 0.026704643
0.21447751 0.048132975 -0.046539556 -0.0015592809 -0.09227236 0.1065933 0.24457176 -0.14212187
0.18947119 -0.051337138 0.057738457 0.11637363 -0.12658952 -0.03224884 -0.07435198 0.18336941
0.03618153 -0.12305946 0.07709137 -0.018851032 0.051461432 -0.015370482 0.22686167 0.011683977
0.09499943 0.046529375 -0.084572256 0.17001261 -0.07078444 0.0020495465 0.050132368 0.2225702
-0.11985861 -0.15966706 0.026024679 -0.07313155 -0.34047416 -0.06833115 0.10242248 0.09798247
-0.094666705 0.028634 -0.35811713 -0.101945564 -0.17658271 0.04170637 0.015742702 0.108875774
-0.21686806 0.01623432 0.068523474 0.12110587 -0.06608993 -0.042815037 -0.096640475 -0.15398817
0.048446693 -0.09419851 0.18377782 0.03755962 0.09936725 0.032137144 -0.12023051 0.014100612
-0.09361499 -0.025805308 -0.1719197 0.15611862 -0.1585645 0.10685594 0.31104052 -0.04489686
0.17712152 -0.021698521 0.084140494 -0.09477021 -0.021838386 0.23330398 -0.25120652 0.019575406
-0.1151925 -0.30595407 0.14874057 -0.0059985546 -0.19250993 -0.09982377 -0.018164938 -0.017551668
0.23137753 -0.0031750805 0.13862285 0.009848995 -0.041458096 0.15282781 0.030238822 -0.15245739
0.07296115 0.13664049 -0.001940654 -0.007668617 0.43918282 0.21792544 -0.17732169 0.054674752
0.014109988 -0.052083284 0.135782 0.1365046 0.10215185 0.05182796 -0.07196121 0.13860294
0.17992468 0.014015514 -0.12669075 -0.25774562 -0.019082343 0.17415173 0.08260935 0.06727757
0.10190607 0.10204684 0.033994347 -0.17270812 -0.013760176 0.27570912 0.060593646 0.14425433
0.13798253 -0.2444788 0.23181437 -0.019252894 0.027829584 0.0028772089 -0.16090657 -0.014814303
-0.13727741 0.045908812 0.09678491 0.15800458 0.0667245 0.0033137163 0.27123088 -0.036369335
-0.0051304004 0.2499575 -0.10033596 0.22395076 -0.12907588 -0.071107104 -0.16156237 0.055236753
-0.0224513 -0.053415854 0.26648083 0.008488193 0.0131090935 0.15865712 0.008333685 -0.12155968
0.12442941 -0.018276477 -0.36945483 0.24453317 0.27146453 0.0870827 -0.105389 0.0212746
-0.03590923 -0.048997473 0.17738102 0.06786869 0.26966134 -0.0018415834 -0.02600873 0.07959611
0.35564405 -0.008877088 -0.15862986 -0.28600523 -0.040649224 0.115787156 -0.012210112 -0.031459745
0.052564483 0.19589788 0.1617626 -0.3206754 -0.18124102 0.29370967 0.08719079 0.022088611
0.25163397 -0.15174218 0.12681174 -0.09600912 0.20180765 -0.1316992 -0.32440993 0.1543357
-0.15447067 -0.17670783 -0.047462635 0.002957602 0.05116048 -0.21879527 0.31844214 -0.11671162
0.17342472 0.37140763 -0.5144473 0.04375213 -0.06848854 0.06665247 0.1243726 0.053139262

fc1.bias f4 [64]
00000000: 214d c83d 43e2 7bbd f261 023e 7fbb 773c
00000010: 5753 0f3d 1768 4c3d 3351 f13d 3ca7 bebd
00000020: 1719 90bc ba12 3f3d 10bb 1f3e 5b4d 953c
00000030: 7e5b d3bd 7342 5f3c 35c6 aabd 0eaf 223d
00000040: 6362 4c3d 14d5 83bd 0d40 d3bd f7b6 22be
00000050: a41b 363e 28c5 5c3d acba 5c3c 7ca4 413d
00000060: d002 283e 8214 63bc ed57 d03d 6e12 2e3e
00000070: 3cf8 90bd 5d18 9ebd 2f50 48bd ada2 87bd
00000080: 7f3d b43c b4fd d73b 4ecd e43d d829 f33d
00000090: af25 9e3d 918e 833d 7564 5bbd ca9d 06bd
000000a0: 43c5 093d 70bd e83c 3f25 7f3d c4d5 b1bd
000000b0: 93de 7fbd 769e d6bd 8cf7 9a3c 88ab 21ba
000000c0: d974 12be 7860 a2bd ae86 6cbd a772 29bd
000000d0: b638 713b 0510 af3d eb6c 8abd 83fd 94bd
000000e0: 675f 53bd a94c 863d 1379 e9bd a3e1 7abc
000000f0: e8f9 813d b0a8 a739 2b85 633c 469f d73d
0.09780336 -0.061495077 0.12732676 0.015120386 0.03499159 0.049903955 0.11783066 -0.09309241
-0.017590089 0.04664872 0.15598702 0.018225363 -0.10320185 0.013626683 -0.08338586 0.039717726
0.049898516 -0.06437126 -0.10314951 -0.15890108 0.17783982 0.05389896 0.01347224 0.047276005
0.16407323 -0.01385987 0.101730205 0.16999218 -0.07078597 -0.07719491 -0.048904594 -0.06622825
0.02200198 0.006591523 0.11171971 0.118732154 0.07722031 0.06423677 -0.0535626 -0.032865323
0.03363539 0.028410643 0.06229138 -0.08683351 -0.062468123 -0.10479443 0.018916868 -0.0006167223
-0.14302386 -0.07928556 -0.057745628 -0.041369107 0.0036807484 0.08547977 -0.06759056 -0.07274916
-0.051604655 0.065575905 -0.11400046 -0.015312585 0.06346494 0.00031978404 0.01388673 0.10528426

lstm.weight_ih_l0 f4 [256, 64]
00000000: d528 c73c 6532 e23d 08fe 013e 6b96 583d
00000010: ce9f 2f3e c258 ff3b c6ab 84bd 2610 d63b
00000020: 78de 91bd f590 54bc 370f 2d3e f762 a03c
00000030: e5c4 eabd 1052 323d ff76 b5bd 4425 a93c
00000040: 6869 0f3e c1c2 e2bd 8520 50bd a043 a53d
00000050: 15eb 07bd 7db8 f93d 6334 523d 3b6d b0bd
00000060: 1598 aa3d 650d f9bc b4af 2b3d 39be 40bd
00000070: faf3 ef3d 7c74 763b 0984 06be 1cca 523c
00000080: dead 7abd 0021 993c 20d3 363e a042 153e
00000090: f55b 4fbd 7a06 9c3d abcc 99bc ac9a bb3b
000000a0: 49b0 103e cdcd 713d a9d3 443d 2731 ca3d
000000b0: 5411 d93d 05bc 4abd ce8a 82bc 99f0 93bd
000000c0: 1138 bb3d ff87 fe3d b22d 3abd 4163 98bd
000000d0: aa34 943d 3f30 ec3d 0f71 6e3d aa24 9c3d
000000e0: 740b bdbd 9408 dcbb 4d74 9d3d 781a be3d
000000f0: 197e d93d 9afb 253e 7254 a63d 0a9a 533d
00000100: 9387 16bc 9208 c23d 4a8a 8f3e 0650 193e
00000110: eb32 27bd f355 803e 58ad b2bc 6908 d0bd
00000120: dda9 443d 9e36 92bd 9c66 7f3e 37df 9c3d
00000130: 0513 4e3e 6ae3 3e3c 864d c3bc 5274 9e3d
00000140: e70f 11bd ddcb c9bd 24bb 50bc d483 293d
00000150: a593 d13b 46ac da3b f74d 253b f93a fd3d
00000160: 49b9 ddbb 1e6e 983d 8ec5 073d fab0 403e
00000170: b627 d93d c967 1d3e 81c2 d53c 1c4f 9d3d
00000180: ca5e b4bc 22da ccbc 684d 153d cb05 ab3d
00000190: 8c3d db3d e47f cd3d e649 2e3d 3467 443e
000001a0: b326 753d e10e 013e 15d6 4a3e ec9a 0d3d
000001b0: 634d 163d 6f86 3b3e f10e 453d 1fcb dabc
000001c0: 8a30 ce3c db5a 863d 863a 623c dcc3 e93d
000001d0: 613b ebbd 92d9 c63d ae6a 0d3c f5dc b13c
000001e0: 93a4 b5bc ce32 043e 0c52 27bc 80b5 a63d
000001f0: dc11 fa3d 7695 3c3e 8917 b13d 71cd d43d
00000200: 726d 92bd 01a7 24bd f96c 0f3e 125c 413d
00000210: 70f0 083e a905 ee3c 9347 bb3d 7ee8 233d
00000220: 8165 fcbd 7d13 ddbd da3c bdbc 98f2 32bd
00000230: 5855 c53d 9777 153e 6090 c9bc 9a1a 3d3e
00000240: 624a 74bd 14f3 de3d 0158 713d 8d2c 203c
00000250: 0a53 053d 2cd2 7abd 0ade f7bc e327 003e
00000260: 590d 86bd 2b17 913c 843b 883d b513 4fbc
00000270: 2c20 4fbd 772b 133e 7c61 203d ac15 953d
00000280: 2450 54bc c4cb 40bd 7f64 aa3d 9b89 ce3d
00000290: 84e2 7e3d 02c3 3b3d 378e f2bd c8aa 4cbd
000002a0: 2ebc cb3d 3bc6 0a3e 096b b53c 4566 7b3d
000002b0: 824e c93d ef13 083d 0d9f cf3d 8897 a23c
000002c0: d6aa 203d de0e da3c d487 c73d 62c9 b5bd
000002d0: b133 c93d 0da3 ad3c cf46 3b3c 6602 02bd
000002e0: 7827 95bd 687b 0b3d acc7 03bd 7c1f 07bd
000002f0: 739e 47bd 78b7 463e 3d05 6bbd 1543 b8bc
00000300: bd5a 3c3d f40b cf3b 292b 003e 85f3 5abd
00000310: 54ff e33c c008 b53d a73a 6abc 3e54 e9ba
00000320: ecf1 d53c da69 843d 4c3d 04bd 5059 20bd
00000330: 396c b8bd 1f99 a63d e38d a0bb f1f5 b23b
00000340: b2e7 1dbd f8cc 1cbd b0a7 cbbd a3d1 9a3d
00000350: 6325 0a3e e041 ee3d e826 d7bd 675b 183d
00000360: db2e 013d 171d aebd 9f5f ee3b 3cbd b33c
00000370: e02e 5a3d 20f0 573d 47c5 983c 69d8 d33d
00000380: ab6e 043e bc60 523d 4f00 0f3e 30a7 20bd
00000390: 4153 d33d 4f13 cd3d 4ae8 a13d b3d5 1b3e
000003a0: 32aa c03b 25c7 acbc c8aa 563e a014 223d
000003b0: 5f33 df3d c1e8 1e3e a1ec e33d f784 ca3d
000003c0: 40cc 7cbd b3e5 923c 226c 04be d7cf 80bd
000003d0: 7854 5bbc a377 4a3e 3d79 bbbd 8e79 f1bd
000003e0: 79ed 6abd 5c6e fe3d 2bee 2a3d 6a0f bbbd
000003f0: 15de 583d 8966 bb3d 64b2 50bd f937 9cbc
0.024311462 0.11044768 0.12694561 0.052877825 0.17150804 0.007792563 -0.06478076 0.0065326868
-0.07122511 -0.012974014 0.16900335 0.01957844 -0.11463336 0.043535292 -0.08860587 0.020647652
0.14005053 -0.110723026 -0.050812263 0.08069539 -0.033183176 0.121933915 0.05131949 -0.08614584
0.083297886 -0.030401895 0.04191561 -0.04705641 0.11716457 0.0037606051 -0.13136305 0.012865569
-0.06120097 0.018692493 0.17853975 0.14576197 -0.050624806 0.07618423 -0.018774351 0.0057252254
0.14129747 0.059034158 0.048053417 0.09872656 0.10599008 -0.049495716 -0.015935328 -0.07223625
0.09141553 0.12428283 -0.045453735 -0.07440806 0.072366074 0.1153264 0.05821329 0.076241806
-0.092307 -0.00671489 0.07688198 0.09282392 0.10619754 0.1620926 0.081215754 0.051660575
-0.009187597 0.09474291 0.28035194 0.14971933 -0.040820044 0.25065574 -0.021811172 -0.10157854
0.048013557 -0.07139324 0.24941486 0.07659762 0.20124443 0.011650899 -0.023840677 0.0773703
-0.035415556 -0.09853337 -0.01273993 0.041385487 0.0063957744 0.0066733686 0.0025223473 0.12364764
-0.0067664725 0.07442878 0.033147387 0.18817511 0.106032774 0.15371622 0.026093723 0.076811045
-0.022017855 -0.025006358 0.036450773 0.08350714 0.107050985 0.10034159 0.042550944 0.19179994
0.05985136 0.12603332 0.19808228 0.034571573 0.036694895 0.18313001 0.048109952 -0.026708184
0.02516963 0.06560298 0.013807898 0.1141431 -0.11485935 0.09709467 0.008631391 0.021711806
-0.022173202 0.12910005 -0.010212433 0.08140087 0.12210438 0.1841639 0.08647067 0.10390747
-0.07149781 -0.04019833 0.14006414 0.047206946 0.1337297 0.029055433 0.09144511 0.040016644
-0.12324048 -0.10794733 -0.023100305 -0.043688387 0.09635419 0.14596401 -0.024604976 0.18467179
-0.05964125 0.10886207 0.058921818 0.009776247 0.032549895 -0.06123559 -0.030257244 0.12515216
-0.065455146 0.017711243 0.06651977 -0.012638976 -0.05056779 0.1437205 0.03915547 0.07279524
-0.01295856 -0.047069326 0.08319949 0.1008484 0.06222774 0.04584027 -0.118435316 -0.049967557
0.09948002 0.13552181 0.022145765 0.06137683 0.09829427 0.033222135 0.101377584 0.019847646
0.03922542 0.026618417 0.09742704 -0.08876301 0.098243125 0.021195913 0.011430456 -0.03174057
-0.07282919 0.034053236 -0.032172844 -0.03298901 -0.048735093 0.19405925 -0.057378042 -0.022492925
0.045984972 0.0063185636 0.12516464 -0.053454895 0.02783171 0.088395596 -0.01429621 -0.0017801595
0.026116334 0.06465502 -0.03228502 -0.039147675 -0.09005017 0.08134674 -0.0048997267 0.0054614474
-0.03855104 -0.03828141 -0.09944093 0.07559516 0.13490824 0.116336584 -0.10505468 0.037196543
0.031538825 -0.08501642 0.0072745825 0.02194082 0.05326736 0.052719235 0.018648757 0.10344011
0.12932841 0.051361784 0.13964961 -0.039221942 0.10318614 0.100134484 0.07905634 0.15218239
0.005879664 -0.021091053 0.20963585 0.03957045 0.1089847 0.15518476 0.11129118 0.09888642
-0.061718225 0.017931795 -0.12931874 -0.06289642 -0.013386838 0.197722 -0.09153984 -0.11790763
-0.057355378 0.12423393 0.04173104 -0.091337994 0.05294617 0.091504164 -0.050951377 -0.019069659

lstm.weight_hh_l0 f4 [256, 64]
00000000: d5f0 b73c ef20 b7bd 9e00 5b3d 7659 803d
00000010: cef5 403d ed53 e6bd 1504 53be ad27 9a3c
00000020: 5fab bcbd 31a4 efbb fcce 82bd fce0 d03c
00000030: 2292 3e3e 0392 103e 29ba 7dbd 8c07 a6bc
00000040: 8aa9 9f3d 5d25 fc3d 09a9 46bc 67ae 003d
00000050: 028f 7f3d 7679 26bd 944e 71bd b3b7 c43d
00000060: 41d8 abbc 72a6 9fbd 4a71 2ebd d9df 6c3b
00000070: 3e6b fa3d 6cf6 2a3c fe9d 37bd 497c 24bd
00000080: d277 163d 27a8 e8bc 7c33 4f3e c282 b83a
00000090: a313 d4bd dd6f efbc 379a 5dbd 695b 543d
000000a0: 9b9d 783d ac0f abbd 0415 d43d 4639 8fbd
000000b0: 4ca3 113e ff6f 1d3e 5734 803d 54a1 00be
000000c0: 4be5 e23d 4b23 46bd 58d3 c03c 6eca 4b3e
000000d0: 3828 cd3c c3e6 2a3d 4836 7fbd 6352 debd
000000e0: 3f82 a4bd a9c0 f9bd 6db0 2fbd e552 a0bd
000000f0: f780 f63c 7816 64be 3ed3 40bd 5839 85bd
00000100: e732 5abd 9f86 3e3d 443d 39bd 5657 783c
00000110: 6628 e0bd b7ab c5bd 0076 0dbe 656a 483d
00000120: 962b a7bd 1e25 05bd 6539 e43d 2958 e33d
00000130: 6473 1e3e dada 193e e64e c6bb 4b40 cfbd
00000140: 6299 ce3d d75e dc3d c037 babd ea55 83bd
00000150: 6ec7 b7bc c37d 3b3d d4ed bcbc a34a 403e
00000160: e00a a63d b67b 663d 3e45 b43d 8798 4bbd
00000170: 6303 e43c e44c eabd 3075 0d3d 79eb 493d
00000180: c9ed 44be 753f 50bd d97f ec3c 21d7 94bb
00000190: f107 e43d 961d c73b c34e 143e 5726 d93c
000001a0: 6582 e5bd d4c5 08bd 683b bdbd cab7 d8bb
000001b0: 436c 073d 9d6b 9a3e e8a6 e6bb 564e 69bd
000001c0: 407b 173e bfde 8f3d 5482 753c 99b7 763e
000001d0: 0866 d0bd 5542 893c 13e0 323d 39f5 25be
000001e0: 1fdb cbbd a205 10be 9dd9 15be 5373 3cbe
000001f0: 9565 c83d cd18 aebd b70b 5dbd 8c01 4a3d
00000200: d881 7fbb 180e bc3d 7a8e 59bd 848c de3d
00000210: 94b2 7d3d 98ef b7bb 3e59 05bd 25e8 ce3a
00000220: 9c1a b93d 0fd0 da3b 1f4f 9a3b d834 083e
00000230: 2946 723d f18b 9a3d bf54 06be 8727 eebd
00000240: 7322 28bd 0f4f e33d dc16 623d c614 94bc
00000250: a2b6 a4bd 8ce6 353d 9729 42bd 2c3d c0bc
00000260: 030e 69bd dac6 08be d211 983d fb9e 3d3d
00000270: fb6e fcbc 629c d2bb 3ca6 b2bc 0de7 3a3d
00000280: 2b50 c1bd cadc 13bd 6198 d83d 9d3f 1dbd
00000290: 0ed9 1bbd 448e 19bd 55b7 84bb c140 52bd
000002a0: 07d3 b73d d8e1 f2bd 4371 453d 5395 9ebb
000002b0: c070 bd3d af1b 263e 9b96 43bd 2ab8 06be
000002c0: cf8e 05bd 3f58 fc3d e8a2 6abd c3f1 cf3d
000002d0: 468f f53c bdb3 cb3d 62d6 063e 0e23 61bc
000002e0: 26d6 89bd 6016 633c 4ed5 fdbd 0385 333d
000002f0: 6dde e0bc 58b5 0cbe 204d 9c3d 87d9 d03c
00000300: 68db b2bd 5579 9fbd e5b5 363d 1e6d 1c3d
00000310: eef1 133d 8b35 f9bd a160 e8bc 8fe1 463c
00000320: 514d 8bbd 2bee 8a3d 8464 e13c 195a 51bd
00000330: 1f94 09bc cea4 e93d 39e1 b83d 7349 b6bd
00000340: 1fe0 d3bb c36f ea3c d0d6 c1bd 5042 f8bd
00000350: 03ef 0f3b 811b fb3d a205 ff3d 9cfd b0bd
00000360: d90b c1bb 1132 b33c c66e 033e 6617 0abe
00000370: e470 c7bd 09de 29be f96a b9bd ec17 88bc
00000380: 7f47 c0bd f7eb 263d a22a 383d b041 863d
00000390: a753 843d 9899 b9bd c747 96bd 15b6 c4bd
000003a0: a83c 923d 3b20 80bb 3dda c4bd a783 54bd
000003b0: e2c2 263d 603d efbb 3c07 fe3d 32cc 6d3c
000003c0: 7260 96bd 5808 88bd faea 8bbd e476 5fbd
000003d0: 318c 96bc 0d5d c73c f76c b7bd 55ab 343d
000003e0: 14cc 15be 35e6 65bd 5fb4 b43b 475f 00be
000003f0: e9f9 2d3d 49e1 183d 7b0d 41bd c961 56bd
0.022453705 -0.089418285 0.053467385 0.06267063 0.047109418 -0.11246476 -0.20607026 0.018817747
-0.09212374 -0.0073132743 -0.063871354 0.025497906 0.18610433 0.14118199 -0.061945114 -0.02026727
0.07796009 0.12311814 -0.012125262 0.031416323 0.062392242 -0.040643178 -0.05891283 0.0960535
-0.020977141 -0.07795419 -0.04258851 0.0036144166 0.12227486 0.010434728 -0.044828407 -0.04015759
0.036735363 -0.028400494 0.20234483 0.0014077055 -0.10355308 -0.029228145 -0.05410215 0.051844988
0.06069718 -0.083525985 0.10355571 -0.06993346 0.14222449 0.15374754 0.06259983 -0.12561542
0.110788904 -0.0483735 0.023538277 0.1990144 0.025043592 0.041723978 -0.062307626 -0.10855558
-0.08032655 -0.1219495 -0.042892862 -0.07828311 0.030090792 -0.22274196 -0.047076456 -0.06505078
-0.0532712 0.046515103 -0.045224443 0.015157541 -0.109452054 -0.09651893 -0.13814545 0.04892959
-0.0816261 -0.0325061 0.1114376 0.111007996 0.15473706 0.15024891 -0.006051886 -0.10119685
0.10087849 0.10760277 -0.09092665 -0.06412871 -0.022433963 0.045774233 -0.023062624 0.18778472
0.08107543 0.056270324 0.088022694 -0.04970601 0.027833646 -0.11440447 0.034535587 0.04929683
-0.19231333 -0.050841767 0.028869556 -0.004542247 0.11134327 0.006076525 0.1448317 0.02650754
-0.112065114 -0.03339179 -0.092398465 -0.0066137062 0.03306223 0.30160227 -0.0070389397 -0.056959473
0.1479311 0.07024907 0.014984686 0.24093474 -0.10175711 0.016755262 0.043670725 -0.16206826
-0.099539034 -0.14064649 -0.14633794 -0.18403368 0.09785 -0.08500824 -0.05396625 0.04931788
-0.0038987305 0.09182376 -0.053114392 0.10866645 0.061937883 -0.0056132786 -0.03255581 0.0015785737
0.090382785 0.0066776345 0.004709139 0.13301408 0.05914894 0.07546223 -0.13118266 -0.11628633
-0.04104848 0.110990636 0.05519758 -0.018076312 -0.08042647 0.04440932 -0.047402944 -0.023466669
-0.05689813 -0.13357106 0.07425274 0.046294194 -0.030814638 -0.0064273337 -0.021807782 0.045630503
-0.09439119 -0.036099233 0.10575939 -0.038390744 -0.038048796 -0.03748919 -0.004050175 -0.051331285
0.08975797 -0.118594825 0.048203718 -0.004839578 0.09250021 0.16221498 -0.04775105 -0.1315619
-0.032606896 0.12321519 -0.057284266 0.10153534 0.029975545 0.09946392 0.13167718 -0.013741268
-0.06730299 0.013860315 -0.123942 0.04382802 -0.02744981 -0.13741052 0.07631898 0.02549435
-0.08733255 -0.07786814 0.044607062 0.03819 0.036119394 -0.12168416 -0.028366389 0.012138738
-0.06801856 0.06783708 0.02751375 -0.051111314 -0.008397131 0.11408387 0.09027333 -0.08900728
-0.0064659263 0.028617745 -0.094648 -0.12122023 0.002196253 0.12261105 0.12452246 -0.08642122
-0.005891305 0.02187446 0.12835225 -0.13485488 -0.09738329 -0.16588606 -0.090536065 -0.01661297
-0.09388637 0.040752377 0.044962533 0.06555498 0.06461268 -0.09062499 -0.07337909 -0.09605042
0.071404755 -0.003910092 -0.09611938 -0.051883366 0.0407132 -0.0073010176 0.124037236 0.014514016
-0.07342614 -0.066422164 -0.068319276 -0.054556742 -0.018377395 0.024336362 -0.0895633 0.044108707
-0.14628631 -0.056127746 0.005514666 -0.12536345 0.04247466 0.037324224 -0.047131997 -0.05233935

lstm.bias_ih_l0 f4 [256]
00000000: 49a7 27bd 04e5 cfbc 8ddd 293e 741d 1e3d
00000010: fe7c d83d 1074 5a3e cc6c 6b3d a2de a23d
00000020: 8d48 8abd f726 b9bd 6f04 f43d 24b5 66bd
00000030: abed 033e 791e 233d 1f8d 993b 3c3f 9f3d
00000040: 21fc 613e 9335 863d d2a9 0b3e 28a8 18bd
00000050: 5447 88bc ddcc 8ebd 5d13 803d fdce bf3d
00000060: 221d 73bd cbda 9fbd a609 b53d 8d4c b23d
00000070: a0c0 1d3d d4f6 13bd ae85 c6bd afbf 42bc
00000080: dbdd ad3d cd5a 273d 4e7c 40bd 0e76 07be
00000090: aa49 863d 2570 083e e8a1 d03c 8422 b43d
000000a0: 8346 8e3d a171 f23d df8c a43d 83ce f73d
000000b0: a94d f13d 02d8 943c b797 1e3e 04ad 2f3e
000000c0: 138d da3c fc1b 23be dba1 02be 0c22 4cbd
000000d0: 8865 a93d 4d7a 953d 1c37 07bd de0f 153e
000000e0: 5f78 143d 20bf 8cbe fcbe a83d dedb 7ebe
000000f0: 1a69 1b3d 6d95 6e3c 0efa 4cbd 99e4 433e
00000100: 548f 013e 38f2 263d 61e7 013e 7e5e e63d
00000110: 0dce 3f3e d4e4 8e3d 7dcc f6bd ebe4 b53d
00000120: 8de2 15be ba78 4ebd 5d08 353d d147 833c
00000130: a5d5 29be 7539 83bd ee94 15bd 868a 41bd
00000140: 317d 8fbe b401 0a3d 8d4d dd3d 9067 d6bd
00000150: c027 21be 545c 9ebb c816 7fbd 5592 3bbe
00000160: ee4c 173e 8ee7 523d 124d 143d 03a3 28be
00000170: 9ed4 063d 59a8 853d 7a5e 483d 8fce 28be
00000180: feb5 6abe 44cb b0bd d514 353e 9ab6 36be
00000190: 1838 24bb 5eb9 b03c f782 2ebc 22d9 5a3d
000001a0: c049 273e a9a5 823d c72c 1abe 14d2 9e3d
000001b0: f2f7 723d 3336 f9bd e078 28bd 4223 8cbd
000001c0: 7b8b 13bd fb01 98bd 9837 1fbe ca76 87be
000001d0: 761f bebd 2a5f e43c 3f73 9dbd e13e cb3b
000001e0: a43e e03b e0b2 43be 6e88 113d 8455 58be
000001f0: d39c 033e f6e4 43be 80e9 343e 5dfe 8b3d
00000200: df5c a73d c6f8 06be 917d c03c a426 313d
00000210: 3f6b 2abe 362e 8ebd 2471 e9bc 5724 17be
00000220: 81e4 c83d 079b afbd 36f7 fe3d 2091 be3d
00000230: 78e4 e93d 2fda edbd 0c8c 01be e984 01bd
00000240: e8ad 0e3e 01e8 303e c81f b53d 8b1f 5bbd
00000250: aa82 cd3a 835f 2c3e 480e 2cbc 64eb a0bc
00000260: 649b 21be a11d 03be 2834 9fba ef85 223e
00000270: 0f4c a3bd 76d0 f73c 5758 31bc c222 efba
00000280: 72ec 933d e681 1fbe 0bb6 24bd 5524 8cbc
00000290: 32d5 f8b9 32db 5f3d 3451 c9bd 905f 17be
000002a0: 88cf b1bd 8281 07be 9f5e b53b d503 ca3a
000002b0: 1cab 1a3d f302 403d 7463 a53d abd5 75bd
000002c0: cd70 e93d dd2f 083d 82d0 a03d 2931 d93d
000002d0: f441 f2bd b233 b63d 7fd2 cf3d afc2 10be
000002e0: 36d3 b1bd 40bc 1b3d 7866 15bd 6a3b 27be
000002f0: d7d2 1c3e a657 0bbe 1484 0fbe 5915 49be
00000300: 21e9 b43d 8100 abbc 98ae 953e 2507 e93d
00000310: a2b7 1f3e 2f32 863d 3f0d a6bd cef5 42be
00000320: 1bef 05bd 1dbf d33a e484 033d 2be1 d23d
00000330: 28cb 6b3d 04bb 1bbe 37b0 703e 6edc 50bd
00000340: 38c0 98bb 4e72 aa3d a480 d93d f964 9c3c
00000350: e1f4 04bd 797d 043d 2b11 40bd 8341 b23d
00000360: 0fb7 1c3e 9146 503d c5d1 913d eb72 623e
00000370: e3ad 1c3d c251 f1bc 6591 8cbe 9304 39be
00000380: 55db ae3d f215 7b3e 7a10 a63d 2377 6e3d
00000390: 910c 4bbe 1a49 0abe 0f9e 14bd 17df 013e
000003a0: 4b12 783d 1cf7 013e 7a1a 853d 2ccd 46be
000003b0: 4756 6d3e 5b90 fb3d a056 20be 02dd b53c
000003c0: a80e 2bbc 089e 3abd 51a1 283e 75ec ebbb
000003d0: 8044 8fbd d931 04bc bf74 f53c 7ed6 f13d
000003e0: 8fa2 86bc 3c04 423d 103c 6e3e f356 183e
000003f0: f535 afbc 1b6d a73c 5c94 2a3e afc0 2f3d
-0.04093102 -0.025377758 0.16588421 0.038602307 0.10570715 0.21333337 0.057476804 0.0795262
-0.06752119 -0.09040635 0.11914908 -0.056325093 0.12883632 0.039823983 0.0046860124 0.07775733
0.22068836 0.06553187 0.13639 -0.03726974 -0.016635574 -0.06972668 0.06253693 0.09365652
-0.059353955 -0.07805403 0.08839731 0.08706007 0.03851378 -0.036124066 -0.09693466 -0.011886521
0.08489581 0.04085808 -0.046993546 -0.13228628 0.06557019 0.1332403 0.025467828 0.08795646
0.06947043 0.11838079 0.080346815 0.12099936 0.117823906 0.018169407 0.15487562 0.17155844
0.026678598 -0.15928644 -0.12757055 -0.049837157 0.08271319 0.07298718 -0.03301154 0.14556834
0.036247607 -0.27489567 0.082395524 -0.2488856 0.03794203 0.014561993 -0.05004316 0.19130172
0.12652332 0.04075834 0.1268592 0.11248492 0.18730946 0.06977239 -0.12050722 0.08881553
-0.14637204 -0.050408103 0.04419743 0.016025456 -0.16585405 -0.064074434 -0.036518984 -0.047251247
-0.280252 0.03369303 0.10805807 -0.10468972 -0.1573782 -0.0048327837 -0.062277585 -0.1831754
0.1477544 0.05149036 0.036206312 -0.16468434 0.03291761 0.065262504 0.048918225 -0.16485046
-0.22920987 -0.0863252 0.17683728 -0.17843094 -0.0025057849 0.021572765 -0.010651342 0.05342973
0.16336727 0.063792534 -0.15056144 0.07754913 0.05931849 -0.12168541 -0.0411309 -0.068426624
-0.03602169 -0.07422253 -0.15548551 -0.26457816 -0.092833444 0.027877409 -0.07687997 0.006202564
0.006843405 -0.19111204 0.0355305 -0.21126372 0.12852792 -0.1913031 0.17667198 0.06835625
0.08172011 -0.13180837 0.023497375 0.04324974 -0.16642474 -0.06942408 -0.028496332 -0.14759956
0.09809209 -0.08574491 0.124494955 0.09305024 0.1142053 -0.11613881 -0.1265108 -0.031620894
0.13933527 0.17276002 0.088439524 -0.05349688 0.00156792 0.1683331 -0.010501452 -0.019643493
-0.15781933 -0.12804271 -0.0012146281 0.15871404 -0.079734914 0.03025077 -0.0108242845 -0.0018244612
0.07222833 -0.15576896 -0.040212672 -0.017107168 -0.0004746109 0.0546524 -0.098299414 -0.14782548
-0.086821616 -0.13232997 0.0055349614 0.0015412519 0.03776084 0.046877813 0.0807561 -0.060018223
0.11398468 0.03324877 0.0785227 0.1060508 -0.11828986 0.08896579 0.10147571 -0.14136766
-0.086828634 0.038021326 -0.036474675 -0.16331258 0.15314804 -0.13607654 -0.14015228 -0.1963705
0.08833528 -0.020874264 0.29234767 0.11378316 0.15597394 0.065525405 -0.08107995 -0.1903908
-0.032698732 0.0016154979 0.032109156 0.10296854 0.05756679 -0.1520806 0.2350472 -0.050991468
-0.004661586 0.08322583 0.106202394 0.019091116 -0.032460097 0.032346223 -0.046891373 0.087039016
0.15304206 0.050848547 0.071200885 0.2211415 0.03825177 -0.02945793 -0.27454677 -0.18068151
0.08537928 0.2452009 0.081086114 0.058219086 -0.19829012 -0.13504449 -0.03628355 0.12682758
0.06056432 0.12691921 0.06499191 -0.19414204 0.23177443 0.12283393 -0.15658045 0.022200111
-0.010440506 -0.045560867 0.16467787 -0.0071998187 -0.06995487 -0.008068525 0.029962895 0.11808489
-0.016434936 0.04736732 0.232651 0.14876918 -0.021388033 0.020437768 0.16658157 0.042908367

lstm.bias_hh_l0 f4 [256]
00000000: b237 09bd b958 c53d c29d ad3d 92c8 4b3d
00000010: 094e 08bc af48 6d3c 4554 f53d 3928 703d
00000020: 12ea e63d 3942 5ebd 5548 0f3e 6d01 e43d
00000030: 16bb 633d ffc9 75bd a7f6 543d 0737 1b3b
00000040: d941 9c3d d777 03bd cd16 313d d898 51bd
00000050: 20c7 48bd 87c0 d0bc 52d8 183e 71fe 673d
00000060: 5c6c 9f3d 7c15 b03d cc85 50bd 3a02 643e
00000070: 31b6 7f3d 19e8 b43b e09d 75bd 9f61 25bd
00000080: adb9 4e3e 8f63 2bbe 97e9 7fbd 7335 a2bd
00000090: 3162 0a3e 809d 063e c202 873d f607 b3bd
000000a0: db16 493e 52ca 773d 33c3 733c 80b6 9b3d
000000b0: 997f e83c dac7 3c3e cc55 32bd f801 f93d
000000c0: ce3e 1f3e 6db4 c8bd 37e2 0ebe 02ab c4bd
000000d0: 6d75 d33d 21ca 243e 9f03 e43c 3344 21bd
000000e0: 960e 96bd 1f02 3ebe 7920 f63d ccd3 4dbe
000000f0: ca17 3f3e 545b fcbd d039 55bd 5998 d43c
00000100: 208d f03d fc28 08bd d22c 19bc 85bd aabd
00000110: e20e 903c 4b4e 093e 891a 0dbe 31cd 853b
00000120: 828d 6dbd 1d48 00be 44b8 31bb 01d9 143d
00000130: ee61 6bbe 1839 d3bd f3b0 dd3c 5d64 973d
00000140: 894c 5cbe a68d 1e3d 7ab5 033e b43d 80be
00000150: cd07 d2bd 232b e23c 5635 4dbe d952 38be
00000160: e849 293e 20d6 823d 5ebb 56bc e84e 4fbe
00000170: 8c1e 55bd 1ad4 6fbc c0f3 e6bc df35 93be
00000180: b5b2 20be ff26 3dbe 697a 413c 6773 36be
00000190: e60c d33d a994 1c3c c9a4 183e b503 9c3d
000001a0: 97ce fd3d fccc 26bb 0811 69bd 5bc1 1cbd
000001b0: 8185 36bd bf9b 17be ca73 f4bc aef4 a2bc
000001c0: 9215 1a3e 8a3b 27bd 2902 e0bc f3a0 81be
000001d0: 3452 723c 10c3 8c3d f83e 3ebc 1160 1d3e
000001e0: f669 b83d aca0 8abd 9c27 70bd 2948 5ebd
000001f0: 376e 1a3e ddd1 64be 8f66 19bb 3cd7 213d
00000200: f72b 7bbd 2c6f 15be 5bf1 abbd 3044 6ebd
00000210: ff81 8fbd 9015 23bd 77b2 68bd 70d1 98bd
00000220: 1d8b 1dbd 8cab e13b dc22 2a3e 9de3 203d
00000230: 4a34 853c 1cf4 febd 39a5 3abe b57d 29bd
00000240: 9563 f63d 288a 083e 3a8d 17bd af19 a7bd
00000250: 513f f73d 3b11 293e 672d fd3d 773f 81bd
00000260: 4456 51bd 00af ebbc 8105 a93d 2646 bfbc
00000270: 90e0 223d 5662 743d 7e60 2dbd 093f 3bbc
00000280: df0c 353e fb56 3bbe 02f8 a3bc f7ef e33d
00000290: 3705 813d a9a2 c53d 4cf4 093e bd0c 0bbc
000002a0: d710 ccbd a7f4 eebd 1896 a3bd 58e4 d0bc
000002b0: 6d68 323e 2168 543d 0059 52bc b455 6ebc
000002c0: bf82 08bd f92b 8ebd 92fc bc3d 154b c0bd
000002d0: af3e e63c 2690 dcbc d0ba 9f3c 68ee 84bd
000002e0: f587 97bd 7c51 603d 7bd0 7bbd 97c7 28be
000002f0: 9469 0a3d 8958 01be 67c1 aabd b1ee 68ba
00000300: dcee 533e d275 3b3e 604c 8f3e 02c3 603e
00000310: f381 473c 698c 343d e98f 2c3d 70a8 f7bd
00000320: 360e aebd e17a a9bb 7ed4 943b 2092 b13d
00000330: 766b 623c b7f6 afbd 6c8d e23d 711c 8a3d
00000340: 8e39 d3bc ca36 61bc 28e4 4c3e 8ce4 1b3e
00000350: b6d5 d5bd 53cb 663d a737 86bd dbb0 013e
00000360: 120d 723d cc6b 63bc 86d0 0cbe eee1 733e
00000370: 392e 9cbd 8840 bfbc a9a0 8abe 1e77 e0bd
00000380: abed ac3d 4c98 913e 0dfb 32bd bff9 36bc
00000390: a35c e7bd 103f febd 3edf ad3c 6f85 ef3d
000003a0: 622f 833d 1af8 bb3c 07f4 d7bd b7fe 233b
000003b0: 9f18 493e 4bed 493e 3cc7 d2bd 24e2 1bbe
000003c0: c628 b43c 7911 18be 4dad 283e a405 53bd
000003d0: eec7 7c3c 973d 483d cfab 3f3c 07ba 2dbd
000003e0: 5c66 e4bc 32ee a03d 5700 613e 3d30 5d3d
000003f0: 0261 013e a1ef 053e 3b43 123e d8c6 a83c
-0.03350038 0.09636063 0.084773555 0.049751826 -0.008319386 0.014482661 0.11978964 0.05863211
0.11275114 -0.054262374 0.13992436 0.111330844 0.05559834 -0.06000709 0.05199304 0.0023683922
0.07629747 -0.03209671 0.043234635 -0.051171154 -0.049018025 -0.02548243 0.1492627 0.05663914
0.0778434 0.08597848 -0.05090885 0.22266474 0.06242961 0.0055208323 -0.059965014 -0.0403763
0.20188017 -0.16737197 -0.062478628 -0.07920351 0.1351402 0.13146019 0.06592323 -0.08741753
0.19637625 0.060495682 0.014878082 0.076031685 0.028381156 0.18435612 -0.043538854 0.12158579
0.15551302 -0.098000385 -0.13953482 -0.0960293 0.103251316 0.16092731 0.027833758 -0.03937168
-0.07327001 -0.18555497 0.120179124 -0.20100325 0.18661419 -0.12322107 -0.052057087 0.025951551
0.117456675 -0.03324221 -0.009349065 -0.08336929 0.017585222 0.13408773 -0.13779654 0.0040832986
-0.05799628 -0.12527509 -0.0027117888 0.036339764 -0.22986576 -0.10313624 0.027061915 0.0739219
-0.21513571 0.038709305 0.12862197 -0.25047076 -0.10255394 0.02760846 -0.20039877 -0.18000354
0.16532099 0.06388497 -0.013106195 -0.20244944 -0.052031085 -0.014637971 -0.028192401 -0.28752038
-0.15693171 -0.18471907 0.01180897 -0.1781746 0.103051946 0.009556928 0.1490661 0.076178946
0.123929195 -0.002545177 -0.056901008 -0.038270336 -0.044560913 -0.14805506 -0.029840369 -0.019892063
0.15047291 -0.040828265 -0.02734478 -0.25318107 0.014790107 0.06873143 -0.011611693 0.15368678
0.090045854 -0.06768927 -0.058631524 -0.054268036 0.15081106 -0.22345681 -0.0023407077 0.039511904
-0.061321225 -0.1459319 -0.08395644 -0.058170497 -0.07007217 -0.039815485 -0.056810822 -0.07461822
-0.038462747 0.006886905 0.1661486 0.03927957 0.016260285 -0.12448904 -0.1822709 -0.04137965
0.120307125 0.13333952 -0.03699992 -0.08159196 0.120726235 0.16510479 0.123621754 -0.06310933
-0.05110766 -0.02876997 0.08253003 -0.02334888 0.03976494 0.059664093 -0.04232835 -0.011428603
0.17680691 -0.18294899 -0.02001572 0.11129754 0.06299823 0.096501656 0.13472098 -0.008486924
-0.099641494 -0.116677575 -0.079876125 -0.025499508 0.17422648 0.051857118 -0.012838602 -0.0145468
-0.033327814 -0.06941981 0.092278615 -0.09389321 0.028106062 -0.026924204 0.019498259 -0.06490785
-0.073989786 0.05476521 -0.06147812 -0.16482387 0.033792093 -0.1263143 -0.0833767 -0.00088856654
0.20696586 0.18306664 0.27987957 0.2194939 0.012176978 0.044079218 0.04212943 -0.12092674
-0.08498804 -0.005172119 0.0045419326 0.08670449 0.013819566 -0.08591979 0.1106213 0.06743706
-0.02578428 -0.013745973 0.2000891 0.15223902 -0.10441153 0.05634625 -0.065535836 0.12665121
0.059094496 -0.013880681 -0.1375142 0.23816654 -0.07626004 -0.0233462 -0.270757 -0.1096022
0.08443769 0.28436506 -0.043696452 -0.011167943 -0.11296966 -0.12414372 0.021224614 0.11695372
0.06405522 0.022945452 -0.105445914 0.0025023648 0.19638298 0.19719426 -0.10291907 -0.15222985
0.021992099 -0.14850415 0.16472359 -0.05151905 0.015428526 0.04888686 0.011698677 -0.042413738
-0.02788084 0.07857932 0.21972786 0.05400108 0.12634662 0.13079692 0.14283459 0.020602629

fc3.weight f4 [1, 64]
00000000: ba5a 483d 4daf 463d cddd f6bc f118 c33c
00000010: adc6 ee3c 3808 e63c a8cb 58be 3892 d33c
00000020: f377 ccbd b94c babb 63c7 56bd d035 8dbd
00000030: 6b2e c43e 840c 203e 2d10 84bd bc3e 743d
00000040: 0933 0d3e 179b 83bd d3e5 dbbd 105a aabe
00000050: 79b7 d639 932c 67bd 3ae7 1d3e 5433 ae3e
00000060: a926 da3c f75a 933c 0f71 7b3b 2f31 22be
00000070: 7fb3 86bc 9410 23ba 98d3 58bb e666 2f3e
00000080: cf60 a8be 4134 9cbc 5b68 133e 7827 f1bd
00000090: ebcb 083c 6187 d0bd e72b a0bb 1065 223d
000000a0: 3960 a33d daa6 043d 9eff f9bd f535 5bbb
000000b0: 96a4 ccbc 3bc4 993e 3cbe 9b3d 57e3 80bc
000000c0: 4a87 633c 7372 603d 97de a53a 9ca3 b13e
000000d0: 8e24 7d3b 7936 d2bc 0a10 e4bb fad5 713d
000000e0: 05e1 903d 1b23 45bd eb4b 74bc 869b a5be
000000f0: d8c0 21bd a259 8abe 56b1 ac3d 94c5 2d3d
0.04891465 0.048507024 -0.03013506 0.023815604 0.02914747 0.02808009 -0.21171439 0.025826558
-0.09983816 -0.0056854156 -0.052436244 -0.068950295 0.38316664 0.15629774 -0.06448398 0.05963014
0.13789 -0.064260654 -0.10737195 -0.33271837 0.00040953959 -0.056438994 0.15420237 0.34023535
0.026629763 0.017987711 0.0038366949 -0.15839075 -0.016443012 -0.0006220427 -0.0033085104 0.17129096
-0.3288636 -0.019067885 0.14395277 -0.11775106 0.008349399 -0.101820715 -0.004888046 0.039647162
0.079773374 0.032385685 -0.12206958 -0.003344891 -0.024980824 0.30032524 0.07604644 -0.015733404
0.013887236 0.054796647 0.0012654838 0.34695137 0.0038626525 -0.02566074 -0.00695992 0.059041955
0.07074169 -0.048129182 -0.014910678 -0.32345217 -0.03949055 -0.2702151 0.08432262 0.042424753
