u_t_dense/dense_model/epoch_29_ut_train.pth (torch_old, 17979 bytes, 4 tensors)

fc1.weight f4 [64, 64]
0	0xbe74d7c3	-0.23910432
1	0x3dc66c04	0.09688571
2	0xbe836a00	-0.2566681
3	0xbe8f6ddb	-0.280135
4	0xbe19e392	-0.15028217
5	0xbe2555b3	-0.16145973
6	0xbd41b585	-0.04729225
7	0x3c492338	0.012276463
8	0x3e589b23	0.2115293
9	0x3e8eb769	0.27874306
10	0xbe5fa5df	-0.21840619
11	0xbef005bc	-0.46879375
12	0x3e579ea7	0.21056615
13	0x3dd68bd6	0.1047589
14	0xbe874d83	-0.26426324
15	0x3de6d132	0.112703696
16	0x3e21c029	0.1579596
17	0xbe8eac14	-0.2786566
18	0xbd5596c0	-0.05214572
19	0xbdf7327f	-0.12070178
20	0x3e9ac76b	0.3023027
21	0x3c856a75	0.016286114
22	0x3d9c2def	0.07625949
23	0x3e546716	0.20742449
24	0x3d78295a	0.06058631
25	0x3db61ab2	0.088918105
26	0xbd045411	-0.032306734
27	0x3c0f7e27	0.008758104
28	0xbe612f27	-0.21990643
29	0x3c8a0334	0.01684723
30	0x3e21aaf8	0.15787876
31	0xbf173dfb	-0.5907895
32	0xbe592daa	-0.21208826
33	0x3e837277	0.25673267
34	0xbe255e27	-0.16149198
35	0x3f4401ac	0.7656505
36	0x3e88f71b	0.26751027
37	0x3ec7bc6c	0.39010942
38	0xb8140650	-3.529183e-05
39	0x3de67f16	0.112547085
40	0xbe62cd8f	-0.22148727
41	0x3e32aad1	0.17447974
42	0xbe36502d	-0.17804022
43	0xbdcc7f7c	-0.09985253
44	0xbdf63e77	-0.12023633
45	0x3ea9e116	0.3317954
46	0xbe1f3d76	-0.15550789
47	0x3dde5ef4	0.108579546
48	0xbe3058d0	-0.1722138
49	0xbef55601	-0.47917178
50	0xbdd55112	-0.104158536
51	0x3dea7189	0.11447436
52	0xbe0417e4	-0.12899739
53	0xbef817f5	-0.48455778
54	0xbe531da3	-0.20616774
55	0xbd279568	-0.04091397
56	0xbea15b34	-0.31514895
57	0xbb68a832	-0.0035500643
58	0x3e4732dc	0.19452995
59	0x3d891588	0.0669356
60	0xbe87e69c	-0.26543128
61	0x3a8cd365	0.0010744153
62	0x3e999b39	0.30001238
63	0xbf56aafc	-0.8385465
64	0xbeba84ad	-0.3642935
65	0x3dbc81b5	0.09204427
66	0xbe1bc439	-0.15211572
67	0xbe47d31d	-0.19514127
68	0xbe0f3913	-0.13986616
69	0x39f3e0d0	0.0004651607
70	0xbdda8192	-0.10669245
71	0x3de08a06	0.10963826
72	0x3e0255a4	0.12727982
73	0x3e8a66b7	0.2703149
74	0xbe22d325	-0.15900858
75	0xbef29f46	-0.4738714
76	0x3e2efe27	0.17089139
77	0x3dd1f97a	0.10252662
78	0xbe9f6b01	-0.31136325
79	0xbd92c7ce	-0.07167016
80	0x3e314c0c	0.17314166
81	0xbe0b1fbf	-0.13586329
82	0xbdeb6f0b	-0.11495789
83	0xbde1ea9d	-0.11031077
84	0x3e8fed17	0.28110573
85	0xbdcb87f2	-0.09938039
86	0x3dc589db	0.096454345
87	0x3e025314	0.12727004
88	0x3ccc085d	0.024906332
89	0x3e1304e5	0.14357336
90	0xbddeff89	-0.10888583
91	0x3dc0ee9a	0.0942051
92	0xbe935a35	-0.2877976
93	0xbcfd1f84	-0.030898817
94	0x3e4f8073	0.20263843
95	0xbf1e46b3	-0.6182663
96	0xbe3970ee	-0.18109486
97	0x3dcc8df1	0.09988011
98	0x3dbf6ff5	0.09347526
99	0x3f06ba48	0.5262799
100	0x3ec9ab07	0.39388296
101	0x3ee26848	0.44220185
102	0x3da4eb98	0.080527484
103	0x3e4287d9	0.18997134
104	0xbeb218e3	-0.34784612
105	0x3e5d3093	0.21600561
106	0xbe444448	-0.19166672
107	0x3d0e7023	0.03477491
108	0xbeac1da2	-0.33616358
109	0x3ea14175	0.31495252
110	0x3debf5b1	0.11521471
111	0x3e17f7c2	0.14840606
112	0xbe31d8dc	-0.17367882
113	0xbed8eca9	-0.42368057
114	0xbd48dd08	-0.049038917
115	0x3d2d422f	0.042299446
116	0xbe8b9d12	-0.27268273
117	0xbeb9052a	-0.36136752
118	0xbd8f019f	-0.06982731
119	0x3dfd053a	0.123545125
120	0xbee8d5be	-0.45475572
121	0xbd7af6a3	-0.061270367
122	0x3ea56b26	0.3230831
123	0x3d811752	0.06303276
124	0xbdbea995	-0.09309689
125	0xbc0fc43f	-0.008774816
126	0x3e699865	0.2281204
127	0xbf4b9e42	-0.7953836
128	0x3cd7d5f3	0.026347136
129	0x3eb410f8	0.35169196
130	0xbdef632b	-0.11688837
131	0x3ee8ab6e	0.4544329
132	0xbdb93b7d	-0.090445496
133	0x3e8c7f87	0.27441046
134	0xbe867bc2	-0.26266295
135	0xbd9251dc	-0.0714452
136	0x3ce399c9	0.027783291
137	0xbd917b2f	-0.071035735
138	0xbed1a22b	-0.40944037
139	0x3e57deb9	0.21081056
140	0x3d8b7233	0.06808891
141	0xbe3b3878	-0.1828326
142	0xbed73a67	-0.42036745
143	0xbd832437	-0.06403392
144	0xbe4e750a	-0.20161834
145	0xbea1ce8a	-0.3160289
146	0xbed117a0	-0.40838337
147	0x3e45d6eb	0.19320266
148	0x3e24112c	0.16022176
149	0xbed375f6	-0.41300935
150	0x3ea3a2d6	0.3196017
151	0x3daa52b2	0.08316554
152	0x3f3c64bd	0.73591214
153	0xbf3bf333	-0.7341797
154	0xbe06931e	-0.13142058
155	0x3e1b00b5	0.15136988
156	0x3c271141	0.010196985
157	0xbf3cb071	-0.7370673
158	0xbd962f92	-0.07333292
159	0xbe06e9a0	-0.13175058
160	0x3e35d85c	0.17758316
161	0xbe85ebcb	-0.26156458
162	0x3eaf45a8	0.3423283
163	0xbf3aaf7f	-0.72924036
164	0x3f825cd7	1.0184582
165	0x3e025adc	0.12729973
166	0x3e62b91c	0.22140926
167	0x3ea35e8f	0.3190808
168	0xbe369e5c	-0.17833847
169	0x3ef27da6	0.47361487
170	0x3e094902	0.13406757
171	0x3e2e5c64	0.17027432
172	0x3d49ede7	0.049299147
173	0xbf1b7d53	-0.60738105
174	0x3cf4415a	0.029816318
175	0x3f4746ca	0.7784239
176	0x3ed16dcf	0.4090409
177	0x3ecd3a0d	0.40083352
178	0xbd4cc749	-0.04999474
179	0x3e1c5b1e	0.15269133
180	0xbea0ebb7	-0.31429836
181	0xbe47a71e	-0.19497344
182	0x3c3a6f73	0.011379111
183	0x3f46f63e	0.77719486
184	0xbd2ec2b9	-0.04266617
185	0x3d9cf9a0	0.076648
186	0xbe26500f	-0.16241477
187	0xbd7e4627	-0.06207862
188	0x3ec5d39b	0.38638005
189	0x3ef08e63	0.46983632
190	0x3ef93c17	0.48678657
191	0xbeb8f96c	-0.36127794
192	0x3eb81069	0.3595002
193	0x3d4751b3	0.0486619
194	0x3f0dfbe8	0.55462503
195	0xbdbea9d1	-0.09309734
196	0x3af51801	0.001869917
197	0x3b400e0c	0.0029305248
198	0xbdf94aca	-0.12172468
199	0xbee7e216	-0.45289677
200	0x3ea20f8b	0.31652483
201	0xbe25aa68	-0.16178286
202	0x3f3fa1bb	0.74856156
203	0xbbf240d7	-0.0073929834
204	0x3e9f21ed	0.3108057
205	0xbe27eba1	-0.16398479
206	0xbe4c538f	-0.1995375
207	0xbea16d31	-0.3152862
208	0x3cbb977b	0.02289938
209	0xbe6062bd	-0.21912666
210	0x3e8d53f1	0.27603105
211	0x3e041317	0.12897907
212	0xbeb10586	-0.34574527
213	0xbeae5cf0	-0.3405528
214	0xbe6f0c36	-0.23344502
215	0xbce578d8	-0.028011724
216	0xbecf1f5e	-0.4045362
217	0x3de44af7	0.11147111
218	0x3e49ffa7	0.1972643
219	0xbd2b17b4	-0.041770652
220	0x3e8d4218	0.27589488
221	0x3ed66803	0.4187623
222	0xbee33677	-0.4437749
223	0xbe8838d4	-0.26605856
224	0xbdec3450	-0.11533415
225	0xbe6267b7	-0.22109877
226	0xbe506d14	-0.2035411
227	0xbee1328f	-0.43983886
228	0xbe21d076	-0.15802178
229	0x3e6333a6	0.22187671
230	0xbe003fe7	-0.12524377
231	0x3ed1641d	0.40896693
232	0x3e91cc86	0.28476351
233	0x3f4e8628	0.80673456
234	0xbf16bcc4	-0.58881783
235	0x3d8875da	0.066631034
236	0xbe8cede4	-0.27525246
237	0x3ce123ab	0.027482828
238	0x3e9088f9	0.28229502
239	0x3ccd54c3	0.025064832
240	0xbedd41a8	-0.43214154
241	0x3e0d252b	0.1378371
242	0xbde27cd8	-0.11058968
243	0x3ddeac72	0.10872735
244	0x3e00404f	0.12524532
245	0xbe28f3d7	-0.16499268
246	0x3eed7e2d	0.46385327
247	0xbec4179e	-0.38299268
248	0x3c87da66	0.016583633
249	0x3e7735ac	0.24141568
250	0xbead5cc7	-0.33859846
251	0x3cb06ede	0.02153724
252	0x3dd0d53b	0.101969205
253	0xbe08daed	-0.13364764
254	0xbd96ed2a	-0.07369454
255	0x3ef9ac21	0.48764136

fc1.bias f4 [64]
0	0xbe5fa86d	-0.21841593
1	0xbec05683	-0.37566003
2	0xbeee6466	-0.46560973
3	0x3e40a758	0.18813837
4	0x3dcd6ed0	0.100309014
5	0xbd023f63	-0.03179873
6	0x3e672078	0.2257098
7	0xbe761c6f	-0.24034284
8	0xbde4ba4a	-0.11168344
9	0xbe17efcc	-0.14837569
10	0xbef84d92	-0.4849668
11	0xbec58121	-0.3857508
12	0xbe14c593	-0.14528494
13	0x3d5e347e	0.05424928
14	0xbe96c00b	-0.29443392
15	0x3e39326c	0.1808564
16	0xbeed8bc9	-0.4639571
17	0xbe3c83b6	-0.18409619
18	0x3ca524fa	0.020159233
19	0xbe528214	-0.20557433
20	0xbec7d458	-0.39029193
21	0x3e230d16	0.1592296
22	0xbdb72b93	-0.08943858
23	0xbeaeb424	-0.3412181
24	0xbe5c8a4e	-0.21537134
25	0xbebf278f	-0.37334868
26	0x3e48e5c7	0.19618903
27	0xbe68f96e	-0.227514
28	0x3d149a8e	0.036280207
29	0xbec0c33a	-0.37648946
30	0xbede9d24	-0.43479264
31	0xbc4e3600	-0.012586117
32	0xbeb0900e	-0.34484905
33	0xbef6fb6d	-0.48238698
34	0xbdafcefe	-0.085844025
35	0xbd941090	-0.072297215
36	0xbde5259b	-0.11188813
37	0xbeca4f31	-0.39513543
38	0xbe65761d	-0.22408338
39	0xbe83622f	-0.25660846
40	0x3d716a90	0.058939517
41	0xbe773255	-0.24140294
42	0xbe702469	-0.2345139
43	0xbef76136	-0.48316354
44	0xbeea5b09	-0.4577258
45	0xbe192b1d	-0.14957853
46	0xbe4c8d90	-0.19975877
47	0xbe3f5ede	-0.18688533
48	0xbeddaa96	-0.4329421
49	0xbf02e62b	-0.5113246
50	0xbeb94963	-0.36188802
51	0xbf085d3a	-0.5326725
52	0xbd337d2c	-0.043820545
53	0xbec5077f	-0.38482282
54	0xbec0f15a	-0.37684137
55	0x3d336618	0.043798536
56	0xbeffcf6f	-0.49962947
57	0xbeb60428	-0.35550046
58	0xbed35d8d	-0.4128231
59	0xbead20fe	-0.33814234
60	0xbdde5eb2	-0.108579054
61	0x3e52049a	0.20509568
62	0x3d3f2e5b	0.046675067
63	0xbea598ba	-0.32343084

fc2.weight f4 [2, 64]
0	0x3bf4240a	0.0074505853
1	0x3c8b0510	0.016970187
2	0xbe7ce82c	-0.24697942
3	0x3d808ec2	0.06277229
4	0x3d3c3c0a	0.045955695
5	0x3d9a4603	0.07532885
6	0x3e1b308e	0.15155241
7	0xbdd93d0b	-0.10607346
8	0xbdbd1b75	-0.09233753
9	0x3dc215ac	0.0947679
10	0xbda6ba7a	-0.08141036
11	0xbdb0d0a1	-0.08633543
12	0x3cf127bc	0.029437892
13	0x3dd4d3ee	0.10391985
14	0x3e81d434	0.2535721
15	0x3df1642b	0.11786684
16	0xbd889036	-0.06668131
17	0xbd8ce8ba	-0.068803266
18	0x3dcabbca	0.09899099
19	0x3d622c00	0.055217743
20	0x3db94412	0.090461865
21	0x3dfab968	0.12242395
22	0xbe444608	-0.1916734
23	0xbde3ab9c	-0.11116716
24	0x3e360b78	0.17777812
25	0xbe0f43dd	-0.13990732
26	0x3d47b565	0.048756976
27	0x3e04b83e	0.12960908
28	0x3dbaf104	0.09128001
29	0xbda86879	-0.082230516
30	0xbca789cd	-0.02045145
31	0x3ded2b90	0.115805745
32	0x3d825127	0.06363135
33	0xbd0e8dce	-0.034803204
34	0x3d831bbc	0.06401774
35	0x3e112934	0.14175874
36	0x3ddc9748	0.10771042
37	0xbee9ee2e	-0.4568953
38	0x3c966e9a	0.018363286
39	0x3dbe9513	0.093057774
40	0x3e2c2a3f	0.1681299
41	0xbd1711c2	-0.03688217
42	0x3e0e7e89	0.13915457
43	0xbd861f86	-0.06548981
44	0xbe4aa17e	-0.19788167
45	0xbd6d1764	-0.057883635
46	0x3ca3c9b1	0.019993635
47	0xbc869c7a	-0.016432036
48	0xbd844453	-0.06458344
49	0xbe251220	-0.16120195
50	0xbc613b41	-0.013747037
51	0xbd8338dc	-0.064073294
52	0x3e118368	0.14210284
53	0xbd45049f	-0.04810011
54	0xbddf3328	-0.10898429
55	0x3cb602e7	0.02221818
56	0x3c317733	0.010831642
57	0xbe4bb1e4	-0.19892079
58	0xbe057336	-0.1303223
59	0xbe3d4d3c	-0.18486494
60	0x3d31d93a	0.043420054
61	0x3e169bca	0.14707866
62	0x3d1f3ba9	0.038875256
63	0xbd9be308	-0.07611662
64	0x3d9218c6	0.071336314
65	0x3db5c3be	0.088752255
66	0x3eaa3d95	0.33250108
67	0xbd824d8e	-0.06362449
68	0xbe32094a	-0.17386356
69	0xbe4918e8	-0.19638407
70	0x3d567b58	0.052363724
71	0xbcd67ee7	-0.026183559
72	0x3d9698f4	0.07353392
73	0xbdf18a0d	-0.11793909
74	0x3da9c9ac	0.08290419
75	0x3e68a4a2	0.22719052
76	0xbddbfb29	-0.107412644
77	0xbcfb5f01	-0.03068495
78	0xbe17ee57	-0.14837013
79	0x3c009e5c	0.007850256
80	0x3d8814de	0.06644605
81	0x3e349c5e	0.17637774
82	0xbd9bf46c	-0.07614979
83	0xbe8faa83	-0.28059778
84	0xbe2ae551	-0.1668904
85	0x3cdd8dc3	0.027045136
86	0xbd43fff4	-0.047851518
87	0x3e208aa3	0.15677886
88	0xbe1c7f09	-0.15282835
89	0x3e2db1c9	0.16962351
90	0xbe1eb229	-0.1549765
91	0xbe291448	-0.16511643
92	0xbcb8ab86	-0.022542726
93	0x3e0c08c8	0.13675225
94	0x3dbabbcb	0.0911785
95	0x3bf61edb	0.0075110025
96	0x3e25d0a7	0.16192876
97	0x3dd6c395	0.10486523
98	0xbda5a41b	-0.08087941
99	0xbe3789bd	-0.17923637
100	0xbd325cf9	-0.043545697
101	0x3eb01f7c	0.3439902
102	0x3e08f04c	0.13372916
103	0xbd9f1393	-0.07767405
104	0x3d19bfc2	0.03753639
105	0x3ded7c80	0.11596012
106	0xbe035456	-0.1282514
107	0x3e38b71e	0.18038604
108	0x3e5f2b6a	0.21793905
109	0x3c77dca3	0.0151282875
110	0xbe23ff47	-0.1601535
111	0xbe0455fd	-0.12923427
112	0x3caedf3a	0.021346677
113	0x3d999f64	0.075011045
114	0x3d92d608	0.071697295
115	0x3de9c816	0.114151165
116	0x3d47d596	0.048787676
117	0x3de9eb9f	0.11421894
118	0x3e4da148	0.20081055
119	0xbdbaba59	-0.09117574
120	0x3e0e8a07	0.13919841
121	0x3d099c0a	0.033596076
122	0x3e1c3140	0.15253162
123	0x3de9c247	0.114140086
124	0xbde445ef	-0.11146151
125	0x3d7dfb28	0.0620071
126	0xbe01be78	-0.12670314
127	0x3e2a1c7f	0.16612433

fc2.bias f4 [2]
0	0xbec976f1	-0.39348558
1	0x3e889c5f	0.26681802
